models/model_sk_c2_s0.1_b16_lr0.001_d0.5_e100.pth (torch, 4255 bytes, 6 tensors)

linear_stack.0.weight f4 [16, 16]
00000000: a2c6 51be f55d ba3e ec80 f03e a0c6 f6bc
00000010: 8418 26be 0cd4 f23d b51f 593c 5766 8f3d
00000020: 7dda 813c 9d15 873e 5f3b e7bd 5608 ddbe
00000030: 3566 033e 0a1b bc3d f8dd b33e 5510 29be
00000040: 5976 06bd c14b b53d 99a0 923e 7b8d 92bc
00000050: bdfe bc3e ab17 5ebe 397b 9b3b f783 013e
00000060: 90b2 323e ccf5 b43d e26b 093e 2a49 323e
00000070: 748f 11bf a679 b0be b6ba 213d 70cf 7abe
00000080: 8b0b 063f 3f22 0cbe f329 413f c048 4f3c
00000090: 7ae5 6dbd 05ae d7bc 4b15 803c 78e2 43bc
000000a0: be0f bf3d 04a1 4e3d 140a b03e 1262 933e
000000b0: eb2a c83b 176d d8bd 5e2d 403c 63e7 153e
000000c0: 3121 a6bc a312 5b3e 7c5f 843b c70b 273e
000000d0: 24a6 f4bd d878 79bd 5d87 73bd 774d 5f3d
000000e0: ae63 10be edf0 33be 7016 903e e9a5 e4bd
000000f0: d4e7 10bf eb7d 643d 079d 2c3e 6cff 07be
00000100: 91a2 c03e a1d7 dd3e 1094 36be edee b53d
00000110: 1ce8 edbd 61c9 113d 197f f3bc 9350 b0bc
00000120: 5259 dd3c 2b38 0ebe 6502 84be d19f 3a3e
00000130: 04bd b7bc 2259 85bd e5ee afbe ecb3 423e
00000140: 8d22 9b3e e3a6 f1bd aff4 4f3e 6cbe 8cbe
00000150: d241 84bd 7f9e ad3e 3b58 80be b5e5 90bd
00000160: 25ad 32be 0f19 3ebe 037d 503d c63f b43d
00000170: f4af 413d ea47 953e 0611 133e b040 3b3d
00000180: 5f4e d3be f820 d7be 2a90 223e 18ad 143e
00000190: 5684 153e 1ed7 233e 09c9 b7bd aab5 023e
000001a0: 488c bdbd f03d 833d 6223 00be e8de 303c
000001b0: 977e 82bd 0319 373e 4f7d 0cbe 3d51 bf3b
000001c0: 8804 293d b02a c93d 1ad5 c0bd 7414 f8bd
000001d0: 5645 18be acb6 573e fb20 923c 7a53 04be
000001e0: f960 9bbe 8136 1cbf fe12 4b3e 4fa6 303e
000001f0: 0957 78be c3fb a73e 5597 623d f18d 853d
00000200: 0b01 5d3d 8bb4 333e c2eb a5bd a898 923d
00000210: ebf1 36be cbc1 963e 2b7c 15be 44fb 92bd
00000220: e016 c7be eb8e 24bf d24c b73e 71cc 453d
00000230: fc14 35be ebb5 423e b191 343e 7f55 18bd
00000240: 4969 503e 69c9 a3be 7961 653e 4a45 4a3d
00000250: 666e d63d 2199 97be 54a5 6a3d afb8 083e
00000260: f32f 4b3e f59c 5e3d eeb5 be3e d0ad 333e
00000270: 6b8f 323d 863a 84be c601 ddbe b7e5 253e
00000280: 046c 43bd 8cf0 ccbe 5791 30be 1ea5 703d
00000290: 6ff5 643d 993f a23e f144 e1bc 00e0 23be
000002a0: 1b02 c3be f288 89bd fc26 283e 12a8 473e
000002b0: 43d9 39be 01f9 aa3e 78fc 21be 9df8 023d
000002c0: fcd8 653d daba 923e 70f8 e8bd 759c cebe
000002d0: 8214 93bd ee99 14be 4887 783b 6da5 1ebe
000002e0: fff6 623e 9d97 c73d 44a0 59be 0b57 ad3e
000002f0: 5fd7 0e3d f91c d9be 77c3 873e ac14 c23d
00000300: 7f34 a6bc b14c abbe 9710 0bbe baa8 c23d
00000310: cded d1be 3482 5c3e 41af f4bd f6f3 993d
00000320: a27a 303e 0616 9d3d 63c7 1cbe 476e c2bd
00000330: 52d2 41be 65af cdbe 9d06 f5bd 1044 643d
00000340: 719a 95be 1c78 24bf 6562 1abd d045 2cbd
00000350: e6bc 5f3d a4c4 f83d 0fc0 bbbd ba7c 873d
00000360: ff49 85bd af81 6e3e 00f8 59be 6836 443d
00000370: f115 9a3c fad8 edbe b547 9e3c 96cf b33d
00000380: 2345 af3e c370 bb3e 6033 aebe e3c1 03be
00000390: 2375 9cbd 675b 4ebe 83d7 f43d 6e50 7fbb
000003a0: 9753 d13d 9f97 9dbc 2c83 51be cb5c 813e
000003b0: 0129 92bc ca69 0bbe eba1 93be c79c 653e
000003c0: a186 a33d a924 44be cc4c 19be 9a9e 963e
000003d0: 354c 853e 2ffa 623e d16b 3fbd 07ce 73be
000003e0: bdb7 b33e f2ca c1be f2ba 6bbe 1c5d 513d
000003f0: 80d3 a33b 4eff aa3b 0626 16be 57e7 47be
-0.20485929 0.3639981 0.4697336 -0.030124009 -0.1622029 0.11856851 0.013252188 0.07001942
0.015851254 0.26383677 -0.11290621 -0.43170422 0.12831958 0.09184845 0.35130286 -0.16510136
-0.03282771 0.088523395 0.2863815 -0.017889729 0.369131 -0.21688716 0.004744914 0.12647997
0.17450929 0.088359445 0.1342006 0.17410722 -0.5685952 -0.3446781 0.039484702 -0.24493194
0.52361363 -0.13684939 0.75454634 0.012651622 -0.058080174 -0.026328096 0.015635153 -0.01195585
0.093291745 0.050446525 0.3438269 0.2878576 0.006108632 -0.10567682 0.011729566 0.14639048
-0.020279499 0.21393828 0.004039703 0.16313086 -0.11945751 -0.06090626 -0.059455264 0.054517236
-0.14100525 -0.17572375 0.28142118 -0.11164457 -0.5660374 0.055784147 0.16856776 -0.1328103
0.37624028 0.43328574 -0.17829919 0.08883462 -0.11616537 0.03559244 -0.02972369 -0.021522796
0.02702013 -0.13888614 -0.25783077 0.18225028 -0.022428997 -0.06511141 -0.3436195 0.19013947
0.30299798 -0.11799409 0.20308183 -0.2748903 -0.06457867 0.33909985 -0.25067315 -0.07075063
-0.17448862 -0.18564247 0.05090047 0.08801226 0.047286943 0.2915643 0.14361963 0.045715988
-0.4127073 -0.4201734 0.15875307 0.14519155 0.14601263 0.1600003 -0.08973891 0.12764612
-0.09255272 0.06408298 -0.12513497 0.0107953325 -0.06371801 0.17880635 -0.13719676 0.005838542
0.041264087 0.09822595 -0.09415646 -0.12113276 -0.148702 0.21065778 0.017837992 -0.12922469
-0.30347422 -0.61020666 0.19831464 0.17250942 -0.24251951 0.32809266 0.055320103 0.06521214
0.053956073 0.1754934 -0.08101608 0.07158023 -0.17865722 0.29444727 -0.14598148 -0.07176831
-0.3888464 -0.64280576 0.35800797 0.048290674 -0.17683786 0.19014709 0.17633702 -0.03719091
0.20352663 -0.319896 0.22400464 0.049382485 0.104702756 -0.29609016 0.057286575 0.13351701
0.1984251 0.054348905 0.37248176 0.17546773 0.043593805 -0.258259 -0.43165416 0.1620091
-0.047710434 -0.40027273 -0.17242943 0.058751218 0.055898126 0.31689146 -0.027498694 -0.16003418
-0.38087544 -0.06715573 0.16421121 0.19497707 -0.18149285 0.333931 -0.15818965 0.031975377
0.056115136 0.2865818 -0.11375511 -0.40353742 -0.07181646 -0.14511845 0.003792243 -0.15492792
0.22164534 0.09745715 -0.21252543 0.3385547 0.034873363 -0.42404917 0.26516315 0.09476599
-0.020288704 -0.33456948 -0.13580547 0.09504838 -0.4100174 0.21534044 -0.119474895 0.07517235
0.1723428 0.07670216 -0.15310435 -0.0949369 -0.18927887 -0.40172878 -0.11964152 0.055728972
-0.29219392 -0.6424577 -0.037691493 -0.042058766 0.054623507 0.12146881 -0.09167492 0.066155866
-0.06508254 0.23291658 -0.2128601 0.04790345 0.01880929 -0.46454602 0.019321302 0.08779828
0.34232435 0.36609468 -0.3402357 -0.1286693 -0.076395296 -0.20152055 0.11955168 -0.0038957852
0.102210216 -0.019237338 -0.20460194 0.25266108 -0.017841818 -0.13614574 -0.2883447 0.22423087
0.07984663 -0.1915461 -0.14970702 0.29417878 0.26034704 0.2216575 -0.04673368 -0.23809062
0.3510112 -0.37850147 -0.23020533 0.051114187 0.004999578 0.005218423 -0.14662942 -0.19521843

linear_stack.0.bias f4 [16]
00000000: 5b9c d5be 5404 08bf 5b4e acbe 4f07 a9be
00000010: 1b3c 88be 5a41 b5be a06b 9fbe 4ec5 aabe
00000020: 6d32 63be 08f5 f2be 619b bbbe 9644 16bf
00000030: d743 d7be ebcc 01bf 9779 d8be e717 72be
-0.41720852 -0.53131604 -0.3365353 -0.3301339 -0.26608357 -0.35401422 -0.311368 -0.33353657
-0.22187205 -0.4745257 -0.36641982 -0.58698404 -0.42043945 -0.50703305 -0.42280266 -0.2364193

linear_stack.3.weight f4 [8, 16]
00000000: f05a 17bf a862 363f 0e86 53bd bdfc d73e
00000010: 59c8 1bbf 4f55 6c3d 9c5e 96be 239f d63d
00000020: f82a 4c3e dfe4 e93e a531 433e 31ce f0be
00000030: fe2f edbe 69cb 97be ec1d fabe 9206 29bf
00000040: 06a2 ff3e 42b6 c2be acc9 0ebf f6d3 aabd
00000050: 67bd c03d d20f d9be a60b 983e 2d23 9cbe
00000060: cd25 86be 9d59 55bf b066 8fbe 4779 1e3f
00000070: 44ec 6d3e 9b24 0e3f d0ea a93e 3d17 d03c
00000080: c94c 0f3f c7ef ccbe 7303 10bf eccb 53be
00000090: 545f 0c3e 1a91 03bf e1d6 473e 3e51 dabe
000000a0: 2e12 8fbe 2d90 1dbf 6fcd 97be b9aa c53e
000000b0: 370a e03d 3e13 fe3e a58d 083f 6163 0f3d
000000c0: e4f6 063f 59ab 98be 65bb 0bbf 0e3e 23be
000000d0: 76c2 173e 3caf d8be 86a7 863e 78f5 b5be
000000e0: eccd b0be bcee 1abf 7d69 9abe 0840 b13e
000000f0: ff65 143e 13b0 073f 20a0 dd3e 671f 753c
00000100: 274d cb3e 3d9f 7abe 7e23 01bf 820a 1dbe
00000110: bd5b 133e 6a38 aabe 6c2f aa3e 8e58 89be
00000120: c07f 9dbe 3c5f 0bbf 498c 85be 44d7 823e
00000130: fa18 f63d 14aa ec3e 7acb be3e 72cb 323d
00000140: a828 00bf 2a10 1c3f 4e7a dcbd 98af d23e
00000150: 4c1a bbbe c3a6 ac3d a105 72be 1b81 c83d
00000160: c942 063e ca18 1f3f 2a9f 473e 0bca f4be
00000170: 7302 a2be accf 5bbe f124 f4be 8f70 e2be
00000180: c3b4 e2be 86ac f73e e0af 4ebd 337f 9c3e
00000190: 38e1 96be 956b 9cbe f617 72be 489d 273e
000001a0: 2589 813d 33c3 203f 3990 403d 1a31 b3be
000001b0: 8a73 96bd 30db 39be a7aa 98be c63a adbd
000001c0: d5d7 1cbf 37be 163f 79fc 29bd 282a 033f
000001d0: e0f9 08bf 266e 903d 76d2 5abe 0ca4 a43d
000001e0: 7548 103e 151e 2e3f 186b 4c3e 02aa 00bf
000001f0: 94ca cfbe 816b 6ebe 7256 f6be 43fe e4be
-0.59123135 0.7124429 -0.051641516 0.42185012 -0.6085258 0.057698544 -0.29369056 0.10479572
0.19938266 0.45682427 0.19061907 -0.47032312 -0.46325678 -0.29647377 -0.48850954 -0.6602565
0.49928302 -0.38029677 -0.55776477 -0.083412096 0.09411126 -0.42394882 0.29696387 -0.30495587
-0.26200715 -0.83339864 -0.28008032 0.61903805 0.2323466 0.55524606 0.3318696 0.025401706
0.5597654 -0.40026686 -0.56255263 -0.20683259 0.1370824 -0.5139328 0.19515564 -0.42640108
-0.27943558 -0.6154812 -0.2964892 0.38606814 0.10939448 0.49624056 0.5334113 0.035006884
0.52720475 -0.29818228 -0.54582816 -0.1594164 0.14820275 -0.42321193 0.26299685 -0.3553884
-0.34532106 -0.6052053 -0.30158606 0.34619164 0.14492033 0.5300304 0.43286228 0.0149611
0.397073 -0.24474807 -0.5044478 -0.1533604 0.14390464 -0.33246166 0.33239305 -0.26825374
-0.30761528 -0.5444219 -0.26083592 0.2555486 0.12016483 0.4622351 0.37264615 0.04365105
-0.50062037 0.60962164 -0.10765515 0.41149592 -0.365435 0.08430245 -0.2363496 0.0979025
0.13111414 0.621472 0.1949431 -0.47810397 -0.31642494 -0.2146594 -0.47684434 -0.442265
-0.44278535 0.48373812 -0.050460696 0.30565795 -0.29468703 -0.3055083 -0.23641953 0.16368592
0.06324986 0.6279785 0.04701254 -0.349984 -0.07346256 -0.1815002 -0.29817697 -0.08458476
-0.61266834 0.58883995 -0.041500542 0.512362 -0.5350628 0.07052259 -0.21369347 0.08039102
0.1409014 0.6801465 0.19962728 -0.5025941 -0.40584242 -0.23283197 -0.48112828 -0.44725236

linear_stack.3.bias f4 [8]
00000000: a863 b73d 92cc bb3d 1b7d cd3d 03f3 983d
00000010: a49c 7c3d 7b59 a23d f7c8 f63c 9e38 ab3d
0.08954555 0.09169878 0.100336276 0.07468226 0.06167282 0.07927223 0.030125124 0.08360408

linear_stack.6.weight f4 [2, 8]
00000000: bb08 183f 7fb2 e0be 4f57 3ebf 5071 63bf
00000010: cb61 30bf 21cd 2c3f 7f5f 3c3f dd38 3e3f
00000020: 46e3 bdbe 5f0b 533f 5062 9b3e 693c c73e
00000030: 7afd 1c3f 83d8 b6be 3d09 07bf e2aa 3abe
0.5938832 -0.43886182 -0.7435197 -0.88844776 -0.6889922 0.675005 0.73583215 0.74305516
-0.37087458 0.82439226 0.30348444 0.38913277 0.61324275 -0.3571206 -0.5274847 -0.18229249

linear_stack.6.bias f4 [2]
00000000: f637 91bd e9be de3c
-0.07090752 0.027190642
