models/model_wly_c2_s0.1_b16_lr0.001_d0.5_e100.pth (torch, 4255 bytes, 6 tensors)

linear_stack.0.weight f4 [16, 16]
000000 60 5e 96 3e 2c 1f 07 3f 2d bb 18 be 2b 4c 12 3d
       0.29368877 0.5278194 -0.14915152 0.03571717
000010 1c 2e 23 be 05 71 02 bd 2b 31 97 bd 52 21 c1 3c
       -0.15935558 -0.031846065 -0.07382425 0.023575459
000020 82 0b 29 bd 90 87 81 3e 7f 00 bc bd 57 f4 49 be
       -0.04127074 0.25298738 -0.09179782 -0.19722115
000030 8e 78 96 be ec 28 87 be 0f 1c 59 3d 4e 09 dd bc
       -0.2938885 -0.26398408 0.053005274 -0.026981976
000040 7d 71 f3 3c 79 f1 59 3e b5 e8 f0 3d ef 6d 05 be
       0.029717201 0.21283521 0.11763135 -0.13030218
000050 8f f2 83 3e 61 99 c8 be f6 a5 e3 3b bc 82 14 3e
       0.25770995 -0.3917952 0.0069472743 0.14502996
000060 f0 1b 56 be f7 fd 0b bf f8 cf dc bd db 59 e6 bd
       -0.20909095 -0.54684395 -0.107818544 -0.11247607
000070 3c c4 70 3c 0a 34 bf 3c ba 11 37 3e 65 8e 30 be
       0.014695223 0.023340244 0.17877856 -0.17241819
000080 11 b5 dd 3e e5 22 b4 3e 4f fa b4 be d0 78 fa bc
       0.43302205 0.35182872 -0.3534722 -0.030575186
000090 d7 64 bc bd ce 4f 05 3d fe d3 8a bd 2b e8 53 3d
       -0.09198921 0.03254681 -0.067787156 0.051735085
0000a0 a4 bf 8f bd 76 12 a6 3e b0 09 2d be ba 77 27 be
       -0.070189744 0.3243596 -0.16898227 -0.16354266
0000b0 3e e8 95 be c5 fa 4e be 93 23 46 3d a7 82 df bc
       -0.2927875 -0.20212848 0.04837377 -0.02728398
0000c0 f5 f9 f8 3e 2e 93 a2 3e ab 02 d3 be f6 76 10 3d
       0.48628202 0.31752914 -0.41212973 0.0352697
0000d0 00 56 7a be 36 73 8f bd eb 2a 92 3d 3c ca ba 3c
       -0.24446869 -0.070043966 0.07137092 0.022801511
0000e0 e8 90 c0 bd 08 3f 6e 3e b0 e2 a3 be 68 fb cd bc
       -0.09402639 0.23266232 -0.32008886 -0.025144294
0000f0 f9 0f 6b be 1b af f9 bd 43 46 d1 bc 75 fd 91 3d
       -0.22955312 -0.12191602 -0.025546199 0.07128421
000100 99 2e 8c 3d 96 82 83 3e 16 e5 51 3e 9c fd c0 3d
       0.06844825 0.25685567 0.20497546 0.09423372
000110 76 da be bd 21 a2 95 bc 4e f0 72 3d f4 9b b7 bb
       -0.09319012 -0.018265786 0.059311204 -0.005603308
000120 01 5b 9e 3d 47 67 8b 3d e0 54 58 be f1 cb c4 be
       0.07732201 0.06806808 -0.21126127 -0.38436845
000130 71 2c 90 3e 8b f9 61 3e 75 dc 05 bc 67 71 a7 be
       0.28158906 0.2206785 -0.008170237 -0.32703707
000140 46 1e 4e 3d 90 7c ec 3e 47 8c 79 3e d5 8b 83 be
       0.05032184 0.46188784 0.24369918 -0.2569262
000150 1f 75 9a 3d 7e 2e 4f be 0e 74 9a bd 77 da e7 3d
       0.0754187 -0.20232579 -0.07541667 0.11320966
000160 26 d2 9f bc f8 47 c3 be 2c b1 6d be ff 31 f0 bd
       -0.019509386 -0.38140845 -0.23212117 -0.11728286
000170 2d 3b b4 3d fd c3 26 bc 15 ae 68 3e 52 60 8c be
       0.088003494 -0.010178563 0.22722657 -0.27417237
000180 1c 7a 99 3e 61 40 80 3e 19 55 9f 3d d7 99 30 3e
       0.29975975 0.25049117 0.07779903 0.17246185
000190 8a 6a b8 3d 45 7d 45 3e fd 9f 6b be 87 55 89 3d
       0.09004696 0.19286068 -0.2301025 0.06705766
0001a0 39 70 8e 3d 15 c5 56 3e f1 bd 44 be 41 eb ef 3d
       0.069549985 0.20973618 -0.19213082 0.11714793
0001b0 bb 0d ef 3c 9e 91 0c 3c b2 d6 08 bf ce d5 13 3e
       0.029181352 0.00857964 -0.534526 0.14437029
0001c0 e7 67 ce bd 33 76 cb be ba 04 92 bd 64 90 cc bd
       -0.100784115 -0.39738616 -0.07129808 -0.09988478
0001d0 5f f7 ce 3d 1c 24 c7 be f8 4e df 3d f6 96 07 be
       0.10105776 -0.38894737 0.10903734 -0.13241181
0001e0 ce 42 c6 bb 5e f0 c6 be 49 f3 a4 3e 87 9c c0 bc
       -0.006050444 -0.3885526 0.32216862 -0.023512138
0001f0 a3 2e 9e be 22 d7 08 bd 86 85 9b bd 68 31 a3 3d
       -0.30894956 -0.03340829 -0.07593827 0.07968408
000200 d8 f4 3b 3e 3d a3 df 3e 2d e7 b0 3d 3d c3 cd bc
       0.18355119 0.43679228 0.08637843 -0.02511751
000210 7b 86 5b be 6e bc 03 be b5 43 7f 3d aa 54 8f 3d
       -0.21438019 -0.12864849 0.06232043 0.0699857
000220 d7 fa 5f bd 58 e1 b8 be 7b bd aa 3e 4c a0 98 be
       -0.05468258 -0.36109424 0.33347687 -0.29809797
000230 be 47 87 3d f0 be 75 3e e2 f4 84 3e 4f dc 10 bf
       0.066054806 0.23998618 0.2596808 -0.56586164
000240 c8 11 76 3e 9a 04 e7 3e c3 c0 8f be a5 f4 9d bc
       0.2403022 0.45120698 -0.28076753 -0.019281695
000250 23 29 0c 3e a0 c6 5b be 3b bb c3 3d af 32 86 bd
       0.13687567 -0.21462488 0.09557196 -0.06552636
000260 79 26 19 3e b2 73 70 be d8 42 23 3d 39 fe 81 3e
       0.14956082 -0.23481634 0.03985867 0.2538927
000270 8d 7a 21 be 5b 8e 03 bf 8c 36 19 3e 0b c0 9f 3c
       -0.15769406 -0.5138909 0.14962214 0.019500753
000280 fb 19 96 3e 90 ba 39 3e 06 c5 d6 bd b1 5e 03 be
       0.29316697 0.18137574 -0.10486798 -0.1282909
000290 94 85 8d bc f4 17 35 3e c7 49 0b be 78 a2 f6 3d
       -0.01727561 0.17684919 -0.13602363 0.12042707
0002a0 47 aa f8 bd 86 56 a1 3e 47 1f 9f be 8d 3e 83 bd
       -0.12141853 0.31511325 -0.3107855 -0.06408415
0002b0 85 9a 04 be 0f 6a 84 3e 2a 83 c9 be b2 09 53 3e
       -0.1294957 0.25862166 -0.39357883 0.20609167
0002c0 bb 4a d5 be 35 23 de be 4e c2 0d 3d 25 28 63 bd
       -0.41658577 -0.43386236 0.03460913 -0.055458207
0002d0 d9 5d 9e 3e 51 66 94 be cd c4 0c 3d 53 a3 68 3c
       0.30930975 -0.2898431 0.03436737 0.014199096
0002e0 80 b7 ad 3d c0 16 2c bf 4f 7b 11 be 58 9a a7 3d
       0.084822655 -0.67222214 -0.14207195 0.081837356
0002f0 eb 10 70 bd e5 ca c0 3d 7f d2 cd 3d 59 92 ca be
       -0.058609884 0.09413699 0.100499146 -0.3956478
000300 c9 51 81 3e 4a 6f 17 be 65 a1 0e be 91 81 fb 3d
       0.2525771 -0.14788547 -0.13928755 0.12280572
000310 ff 71 aa be 2d 61 c6 3d 87 57 2e be 0b 42 50 3d
       -0.33290097 0.096865036 -0.17025577 0.050844233
000320 1b 42 f1 3d 2e c2 75 3d d5 4f bc bd cb 6d 28 3e
       0.11780187 0.059999637 -0.09194914 0.16448133
000330 2e 48 43 be fb de 15 bc 3b bd d8 3e f2 ed cd be
       -0.19070503 -0.009147401 0.4233187 -0.402206
000340 68 f6 03 bf ce 53 be be 4f f8 0a 3e a2 8f 40 bd
       -0.5154786 -0.37173313 0.13571285 -0.04701198
000350 f1 3f 32 3c cd ce 77 3e f3 d4 c1 bc 5d ea c3 bc
       0.010879503 0.24199982 -0.023661112 -0.023915464
000360 8f 56 26 bd b4 bd 35 3c 14 9f 19 3e d7 8b 4a be
       -0.040609892 0.011092592 0.1500209 -0.19779907
000370 1f d1 a0 3e 9f 0f d8 be b3 b1 73 be f6 75 47 3e
       0.31409547 -0.42199418 -0.23798256 0.19478592
000380 2d d0 82 be 83 59 90 be b1 20 4f bd 3e ae 8f 3d
       -0.2554945 -0.28193292 -0.050568286 0.07015656
000390 f6 97 ed 3d 3a 83 a6 be da 71 b0 3c 4a 5d ce 3b
       0.1160125 -0.32521993 0.021538664 0.006297742
0003a0 5a e8 c7 3d 14 84 25 bf 99 ec c4 bd c2 22 af 3d
       0.097611144 -0.6465466 -0.0961544 0.085515514
0003b0 c7 1e 88 be c8 45 6f 3e 8c fa cf 3d b2 cf 95 be
       -0.2658598 0.23366463 0.1015521 -0.2926002
0003c0 38 61 f3 3e 75 8d af 3e dc df da be 43 3c ae 3c
       0.4753511 0.3428761 -0.42748916 0.02126897
0003d0 4a b0 93 bc 8e 97 dc bd 53 2e ec bb 78 b2 b2 bc
       -0.018028397 -0.10771094 -0.0072076707 -0.021813616
0003e0 0c 0e 10 3d af 3d 02 bd 57 88 62 bd 2a 7b 58 3e
       0.035169646 -0.031797107 -0.055305805 0.21140733
0003f0 70 f3 92 3e 56 e9 1b bf 3a 42 f1 bd f6 6d 8e 3d
       0.28701353 -0.6090292 -0.1178021 0.06954567

linear_stack.0.bias f4 [16]
000000 30 9c e6 3c be 31 22 bf 9a 89 0e 3d b1 86 47 3c
       0.028150648 -0.6335715 0.034799196 0.012178109
000010 83 aa fd bd 60 0f e8 be be d9 b1 be 31 96 ba be
       -0.12386038 -0.4532423 -0.34736437 -0.36442712
000020 56 e1 9e be 56 93 c7 be 62 5c e9 bd de 1e 09 bf
       -0.31031293 -0.38979596 -0.11394574 -0.53562725
000030 85 6a 9a be 56 9d bb be 4b 9e e1 be bf 01 f8 bd
       -0.30159393 -0.36643475 -0.4406608 -0.12109708

linear_stack.3.weight f4 [8, 16]
000000 95 29 c4 be 72 ec 22 3f f1 26 a4 be 03 04 c6 be
       -0.38312975 0.63642037 -0.3206096 -0.38674936
000010 a0 0a f4 ba 94 d7 6f 3e 04 96 95 be a4 03 c5 3d
       -0.0018618889 0.2342208 -0.29216015 0.09619835
000020 e1 36 04 3e 5e 1b e8 be c3 fd 04 bf ee 19 0f 3f
       0.1291156 -0.4533338 -0.5194971 0.5589894
000030 00 af 8e be 43 26 36 3f e5 a8 06 3f 6d 4a cf be
       -0.2786789 0.7115213 0.5260146 -0.4048647
000040 76 84 d8 3d 38 67 3f bf b3 d4 02 3e 4a 3e 11 3e
       0.1057214 -0.74766874 0.12776451 0.14183918
000050 d0 a1 e6 be 28 0b 85 bf f8 42 11 3e f3 aa a8 be
       -0.45045328 -1.039403 0.14185703 -0.32942924
000060 26 84 65 bf cd 89 22 3f d4 a6 4a 3e 8d fd 45 bf
       -0.8965477 0.6349152 0.19790202 -0.7734001
000070 b2 8e d4 bc 72 8f a4 be 3d a0 1d bf ba bd 8d 3e
       -0.025946949 -0.3214069 -0.6157263 0.27683812
000080 89 df 94 3d 29 28 45 bf 62 b3 c0 3d 0e 2c 29 3e
       0.072691984 -0.77014405 0.094092146 0.16520712
000090 58 df e6 be 31 6c 42 bf 40 6d 66 3d 8e 0c 24 bf
       -0.45092273 -0.75946337 0.056256533 -0.64081657
0000a0 49 6d 4d bf 37 44 14 3f 03 07 0b 3e 5e 1a 67 bf
       -0.8024488 0.5791659 0.13576894 -0.9027461
0000b0 98 a0 6e bc a6 49 d3 be fa 2c 1c bf 81 39 ae 3e
       -0.014564656 -0.41267127 -0.6100613 0.34028247
0000c0 4b 81 44 3d f2 b7 4a bf 82 b7 e4 3d 4e 8a 01 3e
       0.047974866 -0.7918693 0.11167814 0.12650415
0000d0 74 09 e3 be 96 18 3f bf 9e b5 de 3c ad f8 92 be
       -0.4434315 -0.7464689 0.027186211 -0.2870535
0000e0 f2 ca 5c bf 7a ad 20 3f 97 c9 2b 3e c2 20 1a bf
       -0.8624717 0.62764704 0.16776119 -0.60206234
0000f0 05 3c 8b bd d4 e6 b2 be b8 eb 1a bf 18 23 8c 3e
       -0.06798557 -0.34941733 -0.6051593 0.27370524
000100 29 c6 98 3d 34 50 9e be a6 26 b7 bd 58 09 ff 3d
       0.07459671 -0.30920565 -0.089429185 0.12452954
000110 bd a3 40 3d 17 40 a8 be f4 a8 df 3e 06 bb 93 be
       0.047031153 -0.32861397 0.43683589 -0.28853625
000120 64 38 e3 be 0d 27 93 be 2b ca 60 bd 69 3f 00 bf
       -0.4437896 -0.2874073 -0.054880302 -0.50096756
000130 12 82 e5 be a9 93 10 bc 94 9a 91 be 31 ec c1 3d
       -0.44825798 -0.008824267 -0.28438246 0.09468878
000140 f2 5b d8 be 41 54 09 3f e6 c7 cf be 50 6c b8 be
       -0.4225765 0.53644186 -0.40582198 -0.36020136
000150 a6 f8 7c 3d d1 90 bb 3e da f9 8b be 17 ab e6 3d
       0.061760567 0.36633924 -0.2733906 0.112631015
000160 b1 84 23 3e 8a 38 ab be b9 87 d8 be ef 32 18 3f
       0.15968587 -0.33441573 -0.42291048 0.5945272
000170 06 0a 94 be 88 4e 21 3f a8 c3 e2 3e bd b5 d2 be
       -0.28913897 0.63010454 0.442899 -0.4115428
000180 22 1a d2 be ec 8f 03 3f b0 0e aa be 7f 3a d9 be
       -0.41035563 0.5139148 -0.3321433 -0.4242744
000190 9d 47 83 bc f3 b2 6a 3e 71 73 62 be 4d 9f bb 3d
       -0.016025359 0.22919826 -0.2211435 0.091612436
0001a0 e9 63 93 bd 81 74 d3 be 26 30 c9 be 93 33 fb 3e
       -0.07196791 -0.41299823 -0.39294547 0.49062786
0001b0 ca 62 5b be 36 52 08 3f 14 64 c6 3e f5 b5 42 be
       -0.21424404 0.53250444 0.3874823 -0.19014724
0001c0 61 d5 94 be 5c 05 14 3f 75 52 b3 be 5d d4 86 be
       -0.29069045 0.5782068 -0.35023847 -0.26333895
0001d0 5e 82 01 bd 20 ed ff 3e 96 26 86 be d6 3f bd 3d
       -0.03161847 0.499856 -0.26201314 0.09240691
0001e0 d2 a8 ba 3d 58 73 bd be 1b ae d2 be be 07 51 3f
       0.09114231 -0.37002063 -0.41148457 0.8165244
0001f0 a4 a4 b0 be 45 27 28 3f b7 b5 0b 3f 50 0b a0 be
       -0.3450061 0.6568492 0.5457415 -0.3125863

linear_stack.3.bias f4 [8]
000000 c7 44 08 3e be 50 8c 3d f8 ff af 3d 1c 08 a3 3d
       0.13307486 0.06851338 0.08593744 0.07960531
000010 78 3d 01 bd 73 33 03 3e 05 e4 e8 3d 0f a8 cf 3d
       -0.03155276 0.12812595 0.11371616 0.101394765

linear_stack.6.weight f4 [2, 8]
000000 ae 50 3e 3f b3 be 98 be 9d 7b 40 bf 55 3c 50 bf
       0.7434186 -0.29832992 -0.7518862 -0.8134206
000010 f5 d0 1a bf e8 4d 49 3f 3c b5 61 3f eb 47 55 3f
       -0.60475093 0.786345 0.88167167 0.83312863
000020 99 39 05 bf 7a 11 2f 3f c7 aa 9f 3e cc d2 a0 3e
       -0.5204101 0.6838604 0.3118498 0.31410825
000030 9a 6c 07 3f 0c da ef be d5 5e 2c bf 76 73 8b be
       0.5290009 -0.46846044 -0.673322 -0.27236527

linear_stack.6.bias f4 [2]
000000 9f bb c0 bd 03 67 4e 3d
       -0.09410786 0.05039121
