models/model_hr_c2_s0.1_b16_lr0.001_d0.5_e100.pth (torch, 4255 bytes, 6 tensors)

linear_stack.0.weight f4 [16, 16]
0	0xbe17ece7	-0.14836465
1	0x3f097bd3	0.53704566
2	0x3e69935d	0.22810121
3	0xba7c5e5e	-0.0009627099
4	0xbe411cc0	-0.18858624
5	0xbcd3ed7c	-0.025870077
6	0xbd95c2d1	-0.07312549
7	0xbcf832e4	-0.030297704
8	0x3d80b317	0.06284159
9	0x3e022788	0.12710392
10	0x3e989e60	0.2980833
11	0xbdc411e5	-0.095737256
12	0xbd0b7bc5	-0.034053583
13	0x3e7c77e8	0.24655116
14	0x3ea4a416	0.32156438
15	0xbe0bb963	-0.13644938
16	0xbd72d2ac	-0.059282944
17	0x3d7831ce	0.060594372
18	0xbdc447b1	-0.095839866
19	0xbe8df7f0	-0.27728224
20	0x3cdc73a4	0.02691061
21	0xbc520186	-0.012817746
22	0x3da74782	0.08167936
23	0x3d4929ae	0.049112014
24	0xbe6a817c	-0.22900957
25	0x3da2ab46	0.07942824
26	0xbeb106e4	-0.3457557
27	0xbe4ac3b8	-0.19801223
28	0xbe4e9ac1	-0.20176221
29	0xbe607b9c	-0.21922153
30	0x3ea1d868	0.31610417
31	0xbdca45a1	-0.09876562
32	0x3e788b73	0.24271946
33	0xbe22bb18	-0.15891683
34	0x3da2662b	0.07929643
35	0x3e83c83b	0.257387
36	0x3e85c7ba	0.26128942
37	0xbdb54d94	-0.088526875
38	0x3e70bf66	0.23510513
39	0xbd931367	-0.07181435
40	0x3e5e742a	0.21724
41	0x3da1d16e	0.07901274
42	0x3dbdca9b	0.092671596
43	0x3e8483ed	0.258819
44	0x3e95d272	0.2926212
45	0xbebe958c	-0.3722347
46	0xbec3a6fd	-0.3821334
47	0x3e0d848d	0.13820095
48	0x3daab3c1	0.083350666
49	0x3ee74127	0.45166895
50	0xbe2e8243	-0.17041878
51	0x3e2dff58	0.16991937
52	0xbe1cc19d	-0.15308233
53	0x3d570176	0.052491628
54	0xbddf77eb	-0.109115444
55	0xbe1eb9b9	-0.15500535
56	0xbda89a8d	-0.08232603
57	0xbdb48e77	-0.088162355
58	0x3ea014c0	0.3126583
59	0x3ebe5b6c	0.37179124
60	0x3ee4cde1	0.44688323
61	0xbc8a84e0	-0.016909063
62	0x3e60af75	0.21941932
63	0x3b802e79	0.00391179
64	0x3dd55f39	0.10418553
65	0x3bf7736a	0.0075516
66	0x3d9a3b1f	0.07530808
67	0x3d919568	0.07108575
68	0xbe53996c	-0.20663995
69	0x3e39704b	0.18109243
70	0xbe10a37d	-0.14124866
71	0x3e1aa298	0.15101087
72	0xbc41baba	-0.011824304
73	0x3e36a051	0.17834593
74	0xbe9d4484	-0.30716336
75	0xbe83dfb9	-0.25756624
76	0xbe107f8d	-0.14111157
77	0x3e9ebf84	0.3100549
78	0x3c9a383b	0.01882564
79	0x3d681134	0.05665703
80	0xbd6f59ad	-0.05843513
81	0x3f0ea77e	0.5572432
82	0x3d9d2a8f	0.07674133
83	0xbe69cf42	-0.22832969
84	0x3dc7a1c0	0.09747648
85	0x3d38a59e	0.04507982
86	0xbd8efa31	-0.06981314
87	0xbdb36ca6	-0.087609574
88	0xbb75d741	-0.0037512335
89	0x3e126b7e	0.14298818
90	0x3e287e87	0.16454516
91	0x3c440148	0.011963196
92	0x3e4f2fab	0.20233028
93	0x3e520c2b	0.20512454
94	0x3e9e685e	0.30939
95	0xbe3d6a68	-0.18497622
96	0x3e185e6f	0.14879774
97	0xbe57b806	-0.21066293
98	0x3e435a86	0.190775
99	0x3ddd18f0	0.10795772
100	0xbd59e0a0	-0.053192735
101	0x3ed0650c	0.40702093
102	0x3bf3a39f	0.0074352766
103	0x3d85d52a	0.065347984
104	0xbe1cdbf1	-0.15318276
105	0xbd5b0f9d	-0.053481687
106	0xbcca3f98	-0.024688527
107	0x3ebbdcb6	0.36691827
108	0x3f18d6dc	0.5970285
109	0xbe1082d4	-0.14112407
110	0xbe28a476	-0.16468987
111	0x3e3557d6	0.17709288
112	0x3e67d012	0.22637966
113	0xbd50341f	-0.050830957
114	0xbe23e45e	-0.16005084
115	0xbe69390b	-0.22775666
116	0xbe39c512	-0.18141583
117	0xbb2b2f33	-0.0026120662
118	0x3df2cc57	0.11855381
119	0x3c38962e	0.011266274
120	0xbe3c471c	-0.18386501
121	0xbe3f734f	-0.1869633
122	0x3e3c6405	0.1839753
123	0xbec2d44d	-0.38052598
124	0x3cf6a6a1	0.030108752
125	0xbe8e6f22	-0.27819163
126	0x3ee116f6	0.4396283
127	0xbe24305e	-0.16034076
128	0x3ca8b04e	0.020591881
129	0x3f0e886e	0.55676925
130	0xbd1c02c5	-0.03808858
131	0x3d1d7e47	0.038450506
132	0xbe062c6c	-0.13102883
133	0x3d88cb46	0.06679396
134	0xbd9b1fb3	-0.075744055
135	0xbdab7b62	-0.08373143
136	0xbc74787a	-0.014921302
137	0x3cf69605	0.030100832
138	0x3ee88030	0.454103
139	0xbe1f785a	-0.15573254
140	0x3e83b722	0.25725657
141	0x3e41fe54	0.18944675
142	0x3e94f3ee	0.29092354
143	0xbe809011	-0.25109914
144	0x3ef45356	0.4771983
145	0xbdcd11c8	-0.10013157
146	0x3d44418e	0.04791408
147	0xbe14d386	-0.14533815
148	0xbdfba9cb	-0.12288245
149	0x3e04b939	0.12961282
150	0x3dedd193	0.11612239
151	0xbe1dbd4a	-0.1540424
152	0xbd96b594	-0.07358852
153	0xbe2f65c7	-0.17128669
154	0x3e400015	0.18750031
155	0xbecbf10a	-0.39832336
156	0x3e359819	0.17733802
157	0x3ebb5dbc	0.3659495
158	0x3eae1302	0.33998877
159	0xbd9bb01f	-0.07601952
160	0xbe60a8e1	-0.21939422
161	0xbec19b4c	-0.37813795
162	0x3d9de9bf	0.07710599
163	0x3e7c3c8a	0.24632469
164	0x3eda596a	0.42646343
165	0xbc7d1759	-0.015447461
166	0x3da0abf8	0.078453004
167	0xbd9a7bd6	-0.07543151
168	0x3c9c64e2	0.019091073
169	0x3beadbb9	0.0071673063
170	0x3e2a2436	0.16615376
171	0x3e4f9f2e	0.20275566
172	0x3d3424c9	0.043980394
173	0xbe16c829	-0.14724793
174	0xbdceddc7	-0.101008944
175	0xbe996c3e	-0.29965395
176	0xbecd45c8	-0.400923
177	0xbdb3fdae	-0.0878862
178	0xbe6ef488	-0.23335469
179	0xbe955978	-0.29169822
180	0x3d1b3bb6	0.03789874
181	0xbdb50775	-0.08839313
182	0x3da2e492	0.079537526
183	0x3dc09a02	0.09404375
184	0xbe4e4999	-0.20145263
185	0x3e5cfce6	0.21580848
186	0xbe9dcd64	-0.30820763
187	0xbd2d4b08	-0.042307884
188	0xbeb83486	-0.35977572
189	0xbeab9198	-0.33509517
190	0x3e1a3456	0.15059027
191	0x3df4cd81	0.11953259
192	0xbaa15a3d	-0.0012310218
193	0xbe8112ab	-0.25209555
194	0xbdfd6e90	-0.12374604
195	0x3ef33c68	0.47507024
196	0x3e139365	0.14411695
197	0xbea09857	-0.31366226
198	0xbdb82e25	-0.08993176
199	0xbd6b7c49	-0.057491574
200	0x3eb9e09d	0.3630418
201	0xbe081edb	-0.1329302
202	0x3dae6f6d	0.085173465
203	0x3de03466	0.10947494
204	0xbe4e37bb	-0.20138447
205	0xbd969131	-0.07351912
206	0x3c4b2bea	0.012400607
207	0xbee16c9a	-0.4402817
208	0xbe114507	-0.14186488
209	0xbeac9069	-0.33703926
210	0x3d86df35	0.06585542
211	0x3e551e09	0.20812239
212	0x3ecd4ace	0.40096134
213	0xbe395d0f	-0.18101905
214	0x3d7ea8ce	0.062172703
215	0xbd78d5aa	-0.06075064
216	0x3ea407a3	0.32037076
217	0x3c918a7d	0.017766232
218	0x3c1cebde	0.0095777195
219	0x3e9b0841	0.30279735
220	0xbcb5d34d	-0.022195483
221	0xbebb0f3a	-0.36535054
222	0xbe88e6a5	-0.26738468
223	0xba8b448d	-0.0010625288
224	0xbde5c31c	-0.11218855
225	0xbe3a2d52	-0.18181351
226	0xbe44777c	-0.19186205
227	0x3cb9cfdc	0.022682123
228	0xbd12ca57	-0.035837498
229	0x3e04190b	0.12900178
230	0xbe442f58	-0.19158685
231	0x3d6e9b47	0.058253553
232	0x3ea1c093	0.31592235
233	0x3e787ba1	0.2426591
234	0xbdea5a01	-0.11442948
235	0xbe33da3a	-0.17563716
236	0xbec61ca1	-0.38693717
237	0x3ea75082	0.3267861
238	0xbe91d8a2	-0.2848559
239	0xbe22aed9	-0.15887012
240	0x3dece603	0.11567309
241	0xbed11468	-0.4083588
242	0xbdffa0ba	-0.12481828
243	0x3e8f05ca	0.27934104
244	0x3e94d55e	0.29069036
245	0xbe8a5f51	-0.27025846
246	0x3df03fb3	0.117309
247	0xbd9b1d60	-0.07573962
248	0x3ea69792	0.32537514
249	0xbdbbaabc	-0.091634244
250	0x3d98af1e	0.07455276
251	0x3ecdeb3b	0.4021853
252	0x3ec3c5ec	0.3823694
253	0xbebd57b6	-0.3698098
254	0xbe998ac2	-0.29988676
255	0x3d76a55b	0.06021629

linear_stack.0.bias f4 [16]
0	0xbef6d5ea	-0.48210078
1	0xbf04bf90	-0.518548
2	0x3dd54ed0	0.10415423
3	0xbe78464a	-0.24245563
4	0xbe1f39e0	-0.15549421
5	0xbef5c936	-0.48005074
6	0xbe77f4a6	-0.2421442
7	0xbf1a984a	-0.60388625
8	0xbf12362a	-0.571139
9	0xbeeff97c	-0.4687003
10	0x3cd1a5b6	0.025591712
11	0xbf040605	-0.51571685
12	0xbe8e0784	-0.2774011
13	0xbd5c76bc	-0.05382417
14	0xbeb228cc	-0.3479675
15	0x3dd467d1	0.10371364

linear_stack.3.weight f4 [8, 16]
0	0xbf0dbd52	-0.55367005
1	0x3ebaa454	0.36453497
2	0xbf08ba24	-0.5340903
3	0xbf0fb39e	-0.5613345
4	0x3dbd7b9a	0.09252091
5	0xbf3b3ac1	-0.73136526
6	0xbdfc6f81	-0.12325955
7	0x3eb3fe5d	0.35155
8	0xbf2cb719	-0.67466885
9	0x3f01265a	0.50449145
10	0xbf0754c5	-0.52863723
11	0x3ecb12ae	0.3966269
12	0xbdfe90be	-0.12429951
13	0xbf2e866e	-0.68173873
14	0x3ec64a64	0.3872863
15	0xbf45fd5b	-0.77339715
16	0x3ef4908f	0.4776654
17	0xbf0a09ab	-0.53921
18	0xbd3e1bb6	-0.046413146
19	0xbd44fa37	-0.048090186
20	0xbe5483b0	-0.2075336
21	0x3e8722bd	0.2639369
22	0xbf1faf93	-0.6237728
23	0xbf04fa0d	-0.5194405
24	0x3e786d73	0.24260502
25	0xbf1cf6dc	-0.6131418
26	0xbcf0dfa0	-0.029403508
27	0xbf0a252e	-0.5396298
28	0x3ec46503	0.38358316
29	0xbbdf5cd9	-0.006816488
30	0xbe97eccf	-0.29672858
31	0xbd330dc4	-0.0437143
32	0x3ea08c33	0.31356964
33	0xbf3ae880	-0.73011017
34	0xbd395f7d	-0.04525708
35	0xbd6d8a26	-0.057993077
36	0xbea933d8	-0.33047366
37	0x3e4bd986	0.19907197
38	0xbf22c368	-0.63579416
39	0xbf3ff7b1	-0.7498732
40	0x3e61d7b0	0.22054935
41	0xbf0c8a67	-0.54898685
42	0xbc75eb11	-0.0150096575
43	0xbf39e998	-0.7262206
44	0x3e912794	0.28350508
45	0xbb1385bd	-0.0022510134
46	0xbe9e349e	-0.3089952
47	0xbd871ed6	-0.06597678
48	0x3ed14b2a	0.40877658
49	0xbf1d8cff	-0.6154327
50	0xbcd9f9fb	-0.026608458
51	0xbd7b2de7	-0.061323073
52	0xbe61c30a	-0.22047058
53	0x3e3e5d13	0.18590192
54	0xbf042122	-0.51613057
55	0xbf18cc1f	-0.59686464
56	0x3d8b5d26	0.06804876
57	0xbee75f3e	-0.45189852
58	0xbcb3e553	-0.021959936
59	0xbf0c3121	-0.54762465
60	0x3e9f99b5	0.31171957
61	0xbc246992	-0.010034936
62	0xbe767f2b	-0.24071948
63	0xbd0299ea	-0.031885065
64	0x3ee8197b	0.4533194
65	0xbc816f7f	-0.015800236
66	0xbdb6226a	-0.08893283
67	0x3c32ecbd	0.010920701
68	0x3aa68e43	0.0012707192
69	0xbd289bd4	-0.041164234
70	0x3df873ee	0.12131487
71	0xbd93fc5f	-0.0722587
72	0xbceee71c	-0.029162936
73	0xbdc44a4e	-0.09584485
74	0xbe1d933d	-0.15388198
75	0xbd7279b1	-0.059198085
76	0xbda4e169	-0.08050806
77	0xbe09f438	-0.13472068
78	0x3ced2185	0.028946647
79	0xbdb51c26	-0.088432595
80	0xbed3c352	-0.41359955
81	0x3eb75a42	0.3581105
82	0xbed943ce	-0.42434543
83	0xbf0c9840	-0.54919815
84	0x3dd940f5	0.10608093
85	0xbf083456	-0.5320486
86	0xbda18300	-0.078863144
87	0x3edaeefa	0.4276045
88	0xbf182db9	-0.5944477
89	0x3f28c010	0.65918064
90	0xbeb7379d	-0.35784617
91	0x3eddfa15	0.4335486
92	0xbda3c394	-0.07996288
93	0xbf16cfbf	-0.58910745
94	0x3ea19f1d	0.31566706
95	0xbf4b48b9	-0.7940784
96	0xbed47723	-0.41497144
97	0x3e9b465f	0.30327126
98	0xbea487ef	-0.3213496
99	0xbecb87b9	-0.39751986
100	0x3d88dfe3	0.06683328
101	0xbf0e5a53	-0.55606574
102	0xbdad944b	-0.0847555
103	0x3ec83ed4	0.39110434
104	0xbf0bf723	-0.54673976
105	0x3f30d11c	0.69069076
106	0xbecdd266	-0.40199584
107	0x3ed905c3	0.42387208
108	0xbda0a431	-0.07843817
109	0xbeeee050	-0.46655512
110	0x3e8c2469	0.2737153
111	0xbf22a968	-0.63539743
112	0xbf2fb3b4	-0.6863358
113	0x3ec62d6e	0.38706535
114	0x3cfc65cf	0.030810265
115	0xbe5ec1d9	-0.21753635
116	0x3dffb8f0	0.12486446
117	0xbf2a6e4e	-0.6657456
118	0x3e437d4c	0.19090766
119	0x3f112dd9	0.5671058
120	0xbf2a7142	-0.6657907
121	0x3f8056a6	1.0026443
122	0x3ca851c5	0.020546803
123	0x3f40c4e4	0.7530043
124	0xbe060303	-0.13087086
125	0x3cb86148	0.022507325
126	0x3f079487	0.5296101
127	0xbe10c581	-0.14137842

linear_stack.3.bias f4 [8]
0	0x3e304ed4	0.1721757
1	0x3e66fffd	0.2255859
2	0x3e5b533a	0.21418467
3	0x3e3e40c4	0.18579394
4	0xbd2869e6	-0.041116618
5	0x3e20fea9	0.15722145
6	0x3de4cb14	0.111715466
7	0x3d08ac1f	0.033367272

linear_stack.6.weight f4 [2, 8]
0	0x3f52b9a4	0.82314515
1	0xbdf36e77	-0.11886304
2	0xbf15eb67	-0.5856232
3	0xbf1e9fec	-0.6196277
4	0xbeb8f400	-0.36123657
5	0x3f6de2f6	0.9292444
6	0x3f7ed6f3	0.99546736
7	0x3f6c285f	0.922491
8	0xbf19a28d	-0.6001366
9	0x3f011fd6	0.504392
10	0x3e151556	0.1455892
11	0x3df66824	0.12031582
12	0x3e922b5c	0.28548706
13	0xbf1c8210	-0.6113596
14	0xbf498092	-0.7871181
15	0xbeb933ee	-0.36172432

linear_stack.6.bias f4 [2]
0	0xbda2d7b0	-0.079512954
1	0x3d129edb	0.035796028
