models/model_sq_c2_s0.1_b16_lr0.001_d0.5_e100.pth (torch, 4255 bytes, 6 tensors)

linear_stack.0.weight f4 [16, 16]
00000000: 51d7 63bd 23ea 34bd 12b2 ed3d a4a0 0d3e
00000010: 87e4 a6bd 607b 003e b961 083c ae4d 0dbe
00000020: 4cea 6bbd c58e c13e b6d3 a9be 4fbc ddbe
00000030: 835b 103e e718 6f3e 1c5a fd3d 0089 4f3c
00000040: c63c 8e3e 99cd 35be 5390 8e3e 25a2 02be
00000050: 835a 293e 0070 053d e7d9 eb3b d269 14bd
00000060: ee93 3d3e 9c58 a5be 241f 6abe e9d6 4abd
00000070: ee84 0fbd cadd 1fbd e9f1 61bc 2bbe 993c
00000080: 53aa 153d 2c9d 2a3b be2d 9ebd 6631 12bd
00000090: 8a8c dabc 9bad 39be d047 5dbe 0533 aa3e
000000a0: 1f1f dabd 33f1 9fbc 3c2d 203c c737 5d3e
000000b0: 5e1d 5cbe 42f5 dcbe d7d3 c43e a64f 4fbe
000000c0: c972 263e 8a3e 783e 4e98 79bd 2bef 963d
000000d0: fe98 47be af05 f1bd c3b3 073e f8a6 453e
000000e0: 3c73 7ebe 1f0d 6b3e a1ec cdbd 65ba 803e
000000f0: ba8f a2be 0262 4c3e 213f 073e 4d8c 85bd
00000100: f35c 713e bfa8 8e3e 7eed 583d a18c a33b
00000110: 6942 6ebe c060 d13c cde3 1fbe 97b4 9ebd
00000120: a3b7 d53d f802 a2be 5e92 933c 58c3 6cbe
00000130: d567 673c 3145 47be ad6d 4cbe d2ab 563b
00000140: a518 c43e 8158 16be 730b e83d a0a6 20be
00000150: 0a89 5f3e 526c 86bd 06d5 9bbd 2c8e c9b8
00000160: f287 3e3e c64f c3be d598 15be 535a 2abe
00000170: d3b6 823c 1047 c1bd 8b1e b33c b265 8dbd
00000180: 14a4 bbbd 24c8 9bbe 086e 193e da37 d03d
00000190: f3ae 9f3d 3f52 b2ba 5198 18bc df2e 753d
000001a0: d56c b9bd a01c 99be 23fb a13e 3d2e 433e
000001b0: b11f 0abe 1a74 00be c007 9ebe 9ba8 493e
000001c0: 9295 de3e 5efd a0be 253c afbe a875 34bd
000001d0: 170d 623c 783a 28bd 3ef1 54bc 099e d53d
000001e0: ecb5 ac3d 6894 d4be 6897 3d3e 60bf 60be
000001f0: a57c 8b3c a3b3 5ebe e1d3 273e 18c7 33be
00000200: 71c3 dc3d e809 f93d 8973 8b3e 7745 07bd
00000210: 0f45 a7be 2bfb db3e 7276 693d 98db d53a
00000220: edf0 dcbc b914 2a3f 5b0a a73e da78 2fbe
00000230: 9a2b 193e b63e 983e 3154 a53e 1738 50be
00000240: 18bd f43e 0293 afbe 602f debd 0082 37bd
00000250: 15b9 c8bc ff79 183e bb12 64bd 67ed 0bbe
00000260: b84b 303e 712a b0be 9694 863e 3f05 48bd
00000270: d2cf 92b9 2911 cebb bf6a 8abd faea 1c3e
00000280: 8696 02be c41b 20be d47e 32be 125d b6bd
00000290: 56c9 15bc 5860 883e 79bd 893d cbbf bcbd
000002a0: c6d2 223e 8b2f 033f a86e dfbd 0a9e 2e3c
000002b0: 4190 1bbf 0d5e 833e 66ab 9ebc b0a2 0cbe
000002c0: 141a 3bbe e252 7ebe 1af1 9b3e c636 68bd
000002d0: dea2 a83e 5383 68be 330e 2d3d 3e4e 34bd
000002e0: ec8e 433e 6cdf 9bbd 1b06 393b 9b4b 8c3c
000002f0: 9390 bdbe 3893 1dbe 4ca5 11bd 926c 07be
00000300: fbe6 e1bc c70f e2be c9d9 14be c464 863e
00000310: 5368 bbbd f9f3 74be 7f01 2cbd 0579 423e
00000320: 809f 1d3e 5932 95be 1818 c73e 2d46 03be
00000330: 2f8d 1abd af31 e6bd d627 303e 7f32 14bf
00000340: cbb8 bbbc 69ac a6be f056 b0be a24c 15bd
00000350: f7b9 193e 5554 0ebe 49e1 ae3c 6f99 ab3d
00000360: 7306 a8bc c6cb ec3c a241 2ebf 0826 253e
00000370: 0f40 debd c999 3f3e 0563 0bbe 2856 3b3e
00000380: 443f e5bd 0ee5 773d 4525 0abc dc2c b1bc
00000390: 1069 a53d ae4c afbe 8def 283e 8ba2 ae3d
000003a0: 2e9c cbbb eea0 9dbe 1a14 9fbe a2eb 013e
000003b0: 355d c3be f75f aa3e 4bb1 83be 5611 973e
000003c0: c300 c3bd 4fa9 483e 3513 2dbf 9b31 5a3e
000003d0: e2fa 6d3e 64b0 81be 724f d7bd ac45 a23d
000003e0: 9405 78bd 1f7d b1bd 0fef 87bc 356c 253e
000003f0: d008 bbbd a189 a7be 1e2d bebe 66d9 233e
-0.055625264 -0.044168603 0.1160623 0.13830811 -0.08149057 0.12547064 0.00832408 -0.13799164
-0.05759649 0.37804237 -0.33169335 -0.4330773 0.14097409 0.23349343 0.123707026 0.012666941
0.2778074 -0.1775421 0.27844486 -0.12757166 0.16538434 0.032577515 0.007197607 -0.03623373
0.18513462 -0.32294166 -0.22863442 -0.04952136 -0.03503888 -0.039029874 -0.013790586 0.018767437
0.036539387 0.0026033623 -0.077235684 -0.03569164 -0.026678342 -0.18132631 -0.21609426 0.3324205
-0.10650467 -0.019524192 0.00977641 0.21603309 -0.21495578 -0.43155867 0.3844287 -0.20245227
0.16254725 0.24242607 -0.060936265 0.073698364 -0.19491956 -0.11768662 0.13252167 0.19301975
-0.24848646 0.22954224 -0.10054899 0.25142208 -0.3175028 0.19959262 0.13207676 -0.06520901
0.23570614 0.27863118 0.052960865 0.0049911295 -0.23267521 0.02555883 -0.15614243 -0.077492885
0.104354165 -0.3164289 0.01801413 -0.23121393 0.014123877 -0.19459988 -0.19963713 0.0032756221
0.38300052 -0.14682199 0.11330309 -0.15688562 0.2182962 -0.06563629 -0.0760899 -9.6109085e-05
0.18606547 -0.381468 -0.14609082 -0.16636018 0.015956318 -0.09437382 0.02186515 -0.069041625
-0.09162155 -0.30426133 0.1498338 0.10166903 0.07797041 -0.0013604834 -0.009313659 0.059859153
-0.09053961 -0.29904652 0.31636915 0.19060607 -0.13488652 -0.12544289 -0.30865288 0.19693224
0.43473488 -0.31443304 -0.34225574 -0.04405752 0.013797066 -0.041071385 -0.01299697 0.104305334
0.08433136 -0.41519475 0.18514788 -0.21948004 0.017027209 -0.21748213 0.16389419 -0.17556417
0.10779465 0.121600926 0.27236584 -0.03302523 -0.32669875 0.42965063 0.056997724 0.0016316054
-0.026970351 0.6643787 0.32625088 -0.17135945 0.14958039 0.29735345 0.32290795 -0.20333897
0.47800517 -0.34291846 -0.1084888 -0.044801712 -0.024502316 0.14890288 -0.055681925 -0.1366478
0.17216384 -0.3440738 0.26285237 -0.048833128 -0.00028002128 -0.0062886667 -0.067586415 0.15324011
-0.12752733 -0.15635592 -0.17431194 -0.089044705 -0.0091422405 0.26636004 0.06725592 -0.09216269
0.15900716 0.5124442 -0.10909778 0.010657797 -0.6076699 0.25657693 -0.019368839 -0.13733935
-0.18271667 -0.24836305 0.30457383 -0.05669286 0.32936758 -0.22706346 0.04224987 -0.04401993
0.19097489 -0.07610974 0.00282324 0.017125895 -0.37024364 -0.15388191 -0.03555803 -0.1322501
-0.02757596 -0.44152662 -0.14536203 0.26248753 -0.09150758 -0.23921193 -0.041993614 0.18991478
0.15392876 -0.29139975 0.3888557 -0.12819739 -0.0377323 -0.11239945 0.17202696 -0.5788955
-0.022915265 -0.32553414 -0.34441328 -0.036450036 0.15012346 -0.13899358 0.021347659 0.083788745
-0.020510888 0.02890576 -0.680689 0.16127789 -0.10852062 0.18711008 -0.13611992 0.18294585
-0.111937076 0.060521178 -0.008431737 -0.021627836 0.0807668 -0.3423819 0.16497631 0.08527096
-0.0062136864 -0.30786842 -0.31070024 0.12687543 -0.3815705 0.3327634 -0.257212 0.29505414
-0.0952163 0.19595836 -0.6760743 0.21307985 0.23240235 -0.25329888 -0.105132 0.07923445
-0.060552195 -0.08666443 -0.016593484 0.16154559 -0.0913254 -0.3272219 -0.37143797 0.160009

linear_stack.0.bias f4 [16]
00000000: b579 0fbf 40e0 12bf 64c1 07bf 331c 0abe
00000010: 9c5b d9bd 0342 20bf f310 0fbf e7c2 00bf
00000020: 49ec 41be 9ddc debe 45d1 36bf df1a 23bf
00000030: e4eb 85be afee d3be cca5 e9be 5b8c 2fbc
-0.56045085 -0.5737343 -0.53029466 -0.1348732 -0.10613176 -0.62600726 -0.5588524 -0.502974
-0.18937792 -0.4352769 -0.7141307 -0.6371288 -0.26156533 -0.4139304 -0.45634305 -0.010714616

linear_stack.3.weight f4 [8, 16]
00000000: 6a28 a23e d62b 28bf 9d97 ca3e 600d 923d
00000010: 798a 0dbb dbad 4dbf 9c73 95be 4781 04bf
00000020: 3dee 413d f9ba 3abf bcfe 0abe 01a5 0fbf
00000030: 1d63 00bf 4139 fe3e 8884 cf3e 2187 42bd
00000040: 2052 b83e d7bb 01bf 4929 f0bd 4dcb aebc
00000050: 35bb 0ebf 69f0 00bf dd2d 88be d805 ecbe
00000060: 7198 6a3d b155 4ebf ee36 3f3f 0aae 2fbe
00000070: 4f8f 11be 39ff 0e3f ab1a 89bd b705 d2bc
00000080: 91af bb3e cd56 1ebf 870d 953e 1471 823b
00000090: ddeb 0bbf b1f6 17bf d874 b3be 54c9 01bf
000000a0: 1759 8f3a c0dd 1dbf 9252 273f 67c2 d7be
000000b0: 09f1 67be 1bd5 da3e ac19 b23e 56b8 15bd
000000c0: 7800 b23e 2e9e 30bf 85da b83e 8009 b33d
000000d0: 9d09 983b a170 2bbf 09b8 96be f475 ebbe
000000e0: e0b1 97be 2729 0fbf f251 173f bb3a 01bf
000000f0: 4549 91be 0df6 c03e 9232 aa3e 6547 49bd
00000100: ab48 963e 65a6 2ebf 64b8 533e 4abb 183d
00000110: 0fa0 7fbd 9ed8 1bbf ee36 64be 5f50 a5be
00000120: 0f03 b13c 9361 0bbf c61b 253f 767c 31be
00000130: 0484 3fbe abc9 9e3e bc23 a53e 3ea8 a3bc
00000140: d7a2 69be ae31 153e 1308 493d c598 94be
00000150: 95e2 07bc eab4 5a3e b0b4 c73e 991e d23e
00000160: af3c 25bf 86d3 d63d bbd0 94be d789 d03e
00000170: 1451 ca3e 418d bbbe 8157 99be 54e6 5ebf
00000180: fc83 cdbd 119e 143e 5eed f2bc f9b9 45be
00000190: 81be eb3b 7bcc 563e 5ba8 a13e 9731 c93e
000001a0: fa03 2abf 064d d43d c81a 52be e132 c83e
000001b0: 5560 ca3e 4888 92be d4bc a2be 7391 16bf
000001c0: 00fb 52be 5762 e03c c05c 1ebd 34f1 ecbd
000001d0: 9e3a c3bc f4e7 9d3e 0cb2 103f 27cd d83e
000001e0: 64bd 48bc 4d08 243e 1426 6ebe f40d ed3e
000001f0: 4d75 1c3f e612 69be 1d60 90be 0519 7abf
0.31671458 -0.6569189 0.39568797 0.07131457 -0.0021597429 -0.8034341 -0.29189765 -0.5175976
0.047346342 -0.7294155 -0.13573736 -0.5611115 -0.50151235 0.49653056 0.405308 -0.04749215
0.36000156 -0.50677246 -0.117266245 -0.021337176 -0.55754405 -0.50366837 -0.2659749 -0.46098208
0.057274286 -0.80599505 0.7469319 -0.17156234 -0.14214824 0.5585819 -0.0669454 -0.02563749
0.36657384 -0.618512 0.29111883 0.003980765 -0.54656774 -0.59360796 -0.35050082 -0.5069783
0.0010936585 -0.6166649 0.6536037 -0.42140505 -0.22650541 0.42740712 0.3478521 -0.03655275
0.34765983 -0.68991363 0.36104217 0.08742046 0.004639818 -0.66968733 -0.29437283 -0.4598843
-0.29627895 -0.5592217 0.59109414 -0.5048024 -0.28376213 0.37687722 0.33241707 -0.049140353
0.29352316 -0.6822265 0.20675808 0.037287988 -0.062408503 -0.60877407 -0.22286579 -0.3228788
0.021607904 -0.5444576 0.64495504 -0.17332634 -0.18702704 0.31013235 0.32253826 -0.019977685
-0.22816025 0.14569733 0.049079966 -0.29022804 -0.008293767 0.21358076 0.3900504 0.4103897
-0.6454572 0.10489564 -0.290655 0.40730163 0.39514983 -0.36631206 -0.29949573 -0.870702
-0.1003494 0.14513423 -0.029654201 -0.19309224 0.0071943407 0.2097644 0.31573758 0.39295647
-0.6641232 0.103662536 -0.20518029 0.39101318 0.3952662 -0.286196 -0.3178469 -0.5881569
-0.20603561 0.027390642 -0.038662672 -0.11569443 -0.023831662 0.3084103 0.5652168 0.4234402
-0.0122521855 0.16018791 -0.23256713 0.46299708 0.61116487 -0.22761115 -0.2819833 -0.97694427

linear_stack.3.bias f4 [8]
00000000: c72f d03d eb5b 9e3d cdbf ea3d 0f50 b43d
00000010: cf8e 613d 6340 ca3d 47d3 a53d 254d a83d
0.10165363 0.07732376 0.11462364 0.088043325 0.055067834 0.09875562 0.080969386 0.08217839

linear_stack.6.weight f4 [2, 8]
00000000: fa5d 9cbe 5e26 c0be 2864 43bf 4f4d 46bf
00000010: 7d98 26bf 7374 2c3f a76c 333f 8c55 1f3f
00000020: f245 073f 4ec5 423f d97b a53e 8cf4 8c3e
00000030: 2134 133f bd27 b6be 242c fcbe 3b74 7cbd
-0.30540448 -0.37529272 -0.763247 -0.77461714 -0.6507643 0.6736519 0.70087665 0.6223991
0.52841103 0.76082313 0.3232105 0.27530324 0.5750142 -0.35577193 -0.49252427 -0.061634284

linear_stack.6.bias f4 [2]
00000000: 926d 0e3e c131 3bbe
0.13908985 -0.18280698
