models/model_trt_c2_s0.1_b16_lr0.001_d0.5_e40.pth (torch, 4255 bytes, 6 tensors)

linear_stack.0.weight f4 [16, 16]
00000000: aab6 3f3e f53e f33d 0fbc f03c 95ee 2c3d
00000010: 3487 fabd d035 63bd 18fd 95bd 4f53 473e
00000020: 0496 acbc 17a4 57bd 2529 163c d485 ddbe
00000030: fb71 e33d 2cf1 df3e 55ba b03d 58fa 7a3d
00000040: ee8b 2c3e 5fcf 6abc b81b acbc 2618 15be
00000050: f92e 343e af7c 16bd 570a 1e3e 3882 e83d
00000060: 1625 8ebd 8045 fd3c b2b5 93bd ebdd ca3e
00000070: 1d9c 3f3d a91a 9fbe 8930 4d3c 23ce c4be
00000080: 5b08 093e 1498 1c3d 5c0e d43d dbc5 66bd
00000090: d3e5 afbd 6a25 c7bc 942f 823d 16e8 093e
000000a0: 62ea 023c cdb4 6a3e 8b94 e83d 9686 9b3e
000000b0: c957 333e fabf 10bf c480 fa3d b849 22be
000000c0: 1652 3dbe 83bf bd3e 14bf 41be 52d9 5c3e
000000d0: b613 86bd be83 8dbc fcde ecbd 88db 233d
000000e0: 8c32 1cbe 4ab8 423e ceb6 0cbd 61fb 56bd
000000f0: 2103 6ebd 1cfa 123e 6c2c 7d3d 24dc 2b3c
00000100: fb4d be3d 51fe a73e e2f6 e63d ecd0 d63d
00000110: 0515 18bd f4e1 54be 0bad 073c 9c5f 2abe
00000120: b532 3a3d ef30 fdbc 4620 56bd 99ee ef3c
00000130: cf9a a63c d784 4d3e d6d3 a1be 27be 2d3d
00000140: d5e9 943e fc32 c63e c12e 933e f7b8 46bd
00000150: 6451 993e cc80 b83c 92e9 87bc 21e0 eebc
00000160: 9903 763d bb61 00be a665 87be 418d 84be
00000170: 46bf c53d 4d72 303e 3fc1 003e 2d3d e7bd
00000180: de9a bbbd ef94 11be abcd 143e ac09 253e
00000190: c3eb 993d ea6c 513e 14f6 1cbe c0a5 383e
000001a0: 8a76 8dbd bbf3 f43d 8407 bf3d d7c5 783e
000001b0: d610 453d cb3f bbbd a3cd 75bd a836 3b3e
000001c0: 7043 443e b5af cabd 668e bcbe 5c97 67be
000001d0: b3a3 24be f4b6 9fbc 8817 a83d 30df 7abd
000001e0: ac89 57be 2a96 95be ebbe 773e f121 b73d
000001f0: 2ff6 1abe 8538 8bbe dc3c 323e 7656 61be
00000200: 70bb b63e cf3a 153e 431e e6bd c71a e43d
00000210: a674 4bbc e999 d43c 4aa5 afbd 51aa 513e
00000220: b4f5 d8bd d849 16be c374 3c3d 065b 01bf
00000230: c64a 1f3e bd19 fd3e 4f77 d53d e1da ce3c
00000240: 3b47 ca3d af90 313e 208a 91bd b5b9 d5bd
00000250: 33b4 15bc 23d4 5bbe 829a e13d 6dfb a8be
00000260: 3929 ac3d a82b 84bd e1c6 b03d 70bc 453e
00000270: 43e9 4dbd cee7 043e ab05 febd 6929 af3e
00000280: 9317 19bf f22e b5be 56d6 d3bd 1a63 033c
00000290: 94cd e33d d2a9 803e c3a0 a4bd e674 34bd
000002a0: 7297 6abd 7954 9b3e 1659 983d 07b9 2dbe
000002b0: 606e 56be 16a5 6c3d ad60 36bd e45e c2bd
000002c0: 822d 22be d460 82be a196 673e ad58 27bc
000002d0: dff6 c33e d639 3bbe ef98 693d 4670 cc3c
000002e0: d2a1 8f3e 2b7f 5c3d 8a20 15be 0ce9 993e
000002f0: 48e9 b0bd 91b7 08bf 5e38 e13c 7d5a 80be
00000300: 74f0 3abe bc1b 59be 8aab c8be 9f85 5b3e
00000310: cc42 32be b0a1 f3bc fbc7 96bd 6603 b83d
00000320: ba2f 1b3d 5a71 823e c939 6f3e 21d1 95be
00000330: 9cc9 c2bd e999 4b3d ed3e 623e 5a50 70be
00000340: 8a8a 20bf 4e1d 9abe f0f8 37be 1c09 00be
00000350: 99e7 ab3c 94a2 0abc 5337 0ebe 4129 213d
00000360: 2364 043e 7a37 043e d180 fb3c 32c2 f43c
00000370: 3e47 42bd b600 17bc 074e af3d 5369 adbd
00000380: 1486 c03d 1d6b 063d 87bd 61be 5f94 8a3d
00000390: 5fcd 023e a835 64be 496b 9cbd 0095 913d
000003a0: 9f64 223e 8318 72be af89 26bc e1e1 253e
000003b0: b27a c0bd 5bc1 453e 2160 45be 4a79 17be
000003c0: 0d8a 0b3e fda7 1fbe e0ff f5bd 41ad 5c3e
000003d0: fa69 393e 648e 32be f9f7 4fbd 98c3 81bc
000003e0: 7bd7 623e df7e 35bd a421 343c d287 b93e
000003f0: 7875 d13d 5fdb 7fbd 0bee 923d c5c4 cd3c
0.18722025 0.118772425 0.029386548 0.042219717 -0.12232819 -0.05547124 -0.073236644 0.19465373
-0.021067627 -0.052646723 0.009165083 -0.43266165 0.111057244 0.43738687 0.0862929 0.061273903
0.16850254 -0.014331668 -0.021009311 -0.14559993 0.17596044 -0.03674 0.15433632 0.11352962
-0.06940667 0.03091693 -0.0721239 0.39622435 0.04677974 -0.31075028 0.012523779 -0.3843852
0.13382094 0.03823097 0.10354301 -0.056341033 -0.08588757 -0.024309833 0.06356731 0.1346744
0.0079904515 0.22920533 0.11356457 0.30376118 0.17513956 -0.56542933 0.12231591 -0.15848434
-0.18488345 0.37060174 -0.18920547 0.21567276 -0.06546728 -0.017274734 -0.115659684 0.040004283
-0.15253657 0.19015613 -0.034354024 -0.052485827 -0.058108453 0.14353222 0.061809942 0.010489497
0.09292217 0.32811216 0.11277558 0.104890674 -0.03712942 -0.2078932 0.008281003 -0.16638035
0.045458514 -0.030907122 -0.052276872 0.029288577 0.02033749 0.20070206 -0.3160693 0.04241767
0.2908465 0.38710773 0.28746608 -0.04851624 0.2994491 0.022522353 -0.016590867 -0.029159607
0.060062025 -0.12537281 -0.2644474 -0.25889018 0.09655623 0.17231102 0.12573718 -0.11290965
-0.09160398 -0.1421697 0.14531581 0.16116971 0.07515671 0.20451704 -0.15328246 0.18031979
-0.06907375 0.119605504 0.09327605 0.2429422 0.04811176 -0.09143027 -0.060010564 0.18282568
0.1916635 -0.09896795 -0.3682739 -0.22616333 -0.16078071 -0.019496419 0.08207613 -0.061248004
-0.21048611 -0.2921613 0.24193923 0.08942021 -0.15132974 -0.27191558 0.17406029 -0.22005638
0.35689878 0.14573215 -0.11236241 0.1113792 -0.012417948 0.025952296 -0.08576448 0.20475127
-0.10593739 -0.14676607 0.04600979 -0.50529516 0.15555868 0.494337 0.10423147 0.025250854
0.098768674 0.17340349 -0.071064234 -0.104358114 -0.009137201 -0.21467642 0.11015798 -0.33004323
0.084063 -0.06453639 0.08631683 0.19310164 -0.050271284 0.12979051 -0.12403425 0.3421128
-0.59801596 -0.3538738 -0.10343616 0.008019233 0.11123195 0.25129563 -0.08038475 -0.044056796
-0.057273336 0.30337885 0.07438867 -0.16965114 -0.20940542 0.057774626 -0.04452579 -0.09490755
-0.15837672 -0.254645 0.22616054 -0.010214013 0.38274285 -0.18283781 0.057030614 0.02495588
0.28053147 0.053832214 -0.14563194 0.30060613 -0.08638245 -0.534051 0.027492698 -0.25069037
-0.18255788 -0.21201986 -0.39193374 0.21437691 -0.17408293 -0.029740185 -0.07362362 0.08985023
0.037887312 0.25477105 0.23361887 -0.29261115 -0.0951111 0.049707327 0.22094317 -0.23468152
-0.62711394 -0.30100483 -0.17966056 -0.12503475 0.020984458 -0.008461613 -0.13888292 0.039345983
0.12928824 0.12911788 0.030701073 0.029877756 -0.047431223 -0.009216478 0.085598044 -0.084673546
0.094005734 0.032816995 -0.22044955 0.06766581 0.12773655 -0.22286093 -0.076376505 0.071084976
0.15858696 -0.23642163 -0.010164662 0.16199447 -0.09398402 0.1931204 -0.19274952 -0.14792362
0.13626881 -0.15591426 -0.12011695 0.21550466 0.18106833 -0.1743713 -0.050773595 -0.015840337
0.22152512 -0.044310447 0.010994349 0.36236435 0.102274835 -0.062465068 0.07174309 0.025118241

linear_stack.0.bias f4 [16]
00000000: e00e 733d e87c 6cbe 67cd 55be 745f 65bd
00000010: 8056 bebd 93dd 38be 2e4b 073d b991 babe
00000020: 30d7 a23c bc19 7bbe f42d 73be efb2 a4be
00000030: 42c9 34be 46ce 86be 313c fdbd d4ff ed3c
0.059340358 -0.23094523 -0.20879136 -0.055999234 -0.09293842 -0.18053274 0.03303068 -0.36439303
0.019878 -0.24521536 -0.23747998 -0.32167765 -0.17654899 -0.2632925 -0.12364996 0.029052652

linear_stack.3.weight f4 [8, 16]
00000000: 1057 75be 9a58 af3e 4f5f 103f adb2 7abe
00000010: f32f 1bbe 9894 06bf 0f0e 0b3e ddea 383e
00000020: ab19 ccbe 2643 95be 73db e7be 4a26 c03e
00000030: dedf 88be a33d bdbe ffc3 183e 16cd 25bc
00000040: 0d18 d13d 6a0d 75be 890c 33be 8749 073c
00000050: 847c 0bbe 5670 97be f9ce 7cbb f711 9dbe
00000060: 2450 813e 3f65 c5be 2868 b93e 51e7 23be
00000070: 9819 8c3e 32cb ad3e fdf9 d9bd 3964 f9bd
00000080: 31f3 ae3d f68d babe 5cbb 8cbe 5579 773b
00000090: 3285 91be 2f8c 17bc f4e4 fcbd 12b0 debe
000000a0: 386d 283e c10c 1ebe 5999 973e f5e5 c9be
000000b0: 9538 813e 024c ef3d 4024 23be 56c2 6d3d
000000c0: eb00 723e 15fa 8abe 2751 41be 0cfc fc3d
000000d0: 89ef 4fbe e46d 5a3c 1c9e 6bbd b2ee a9be
000000e0: 4a9f af3d 034f 74be 5a0c b83d 5372 8ebe
000000f0: 1fab 4d3e 216e 6d3e 4d88 1abc aea3 9d3c
00000100: 0767 233e 11b1 34be 8057 a8be a143 67bd
00000110: 551d 953b 6581 aebe 1450 4a3e 1716 90bd
00000120: 0def 863d ee08 90be 3c26 a13e 87db 43be
00000130: ee90 12bd fdb2 0f3e f31f 893d 585e 37be
00000140: 79f7 86be 2b4a 863e bb2a a53e 7a0e 6fbe
00000150: a7cf 17bc 6c83 9ebc 31d4 0a3e ab24 b93e
00000160: 0f4c 90be 0257 033e 008d 58be e65d 093f
00000170: 80cc 12be 19db babe 1dcd 593d 2a74 aabd
00000180: 4adc 6bbe 1fe2 263e f0de 893e 1f4c 54be
00000190: 7550 16be 4f21 bebe dfdc 963d ef49 193e
000001a0: f819 aebe ecda 51bd 279c abbe 15a3 a63e
000001b0: 2320 52be dd3f abbe 3c64 053e f01d 583d
000001c0: b458 a63c 3d2f bbbe d28b 94be 4d00 cb3d
000001d0: cd3d 9dbe 64b1 2dbd 12b8 a33d 6068 bdbe
000001e0: 699e 543e 4f4f a7be a73f a23e 4b98 84be
000001f0: d80b 1a3e e006 903e 5966 0dbe c312 07be
-0.23958993 0.34247285 0.5639543 -0.24482222 -0.1515501 -0.52570486 0.13579582 0.18058343
-0.39863333 -0.29152793 -0.45284614 0.37529212 -0.26733297 -0.36961088 0.14918517 -0.010119697
0.102096654 -0.23930898 -0.1748525 0.008257276 -0.13621718 -0.29577893 -0.0038575514 -0.3067777
0.25256455 -0.38553807 0.36212277 -0.16006209 0.27363276 0.33944088 -0.106433846 -0.12177319
0.08542479 -0.36436433 -0.27486694 0.0037761529 -0.28421932 -0.009249731 -0.12348357 -0.43493706
0.16447914 -0.15434553 0.29609182 -0.39433256 0.2523848 0.11684419 -0.15931797 0.05804666
0.23633163 -0.27143922 -0.18878613 0.123527616 -0.20306219 0.013331864 -0.05752383 -0.33189923
0.08575304 -0.23858266 0.08986731 -0.27821597 0.20084809 0.23186542 -0.009431911 0.019243088
0.1595727 -0.1764567 -0.32879257 -0.05646098 0.004550616 -0.34083095 0.1975711 -0.07035463
0.06588564 -0.28131813 0.31474483 -0.19126712 -0.035782747 0.14033122 0.06695547 -0.17907083
-0.26360682 0.2622846 0.32259163 -0.23345366 -0.009265817 -0.019349776 0.13557507 0.36160788
-0.28183028 0.1282616 -0.21147537 0.536589 -0.14335823 -0.36495283 0.053174127 -0.08322938
-0.23033252 0.16297196 0.269279 -0.20732163 -0.1467913 -0.37134787 0.073663466 0.1496961
-0.34004188 -0.05123417 -0.33517572 0.32546297 -0.20520072 -0.3344716 0.13026518 0.052762926
0.020305969 -0.36559477 -0.29012924 0.09912167 -0.30711213 -0.0424055 0.07994093 -0.36993694
0.20763554 -0.32677695 0.31689188 -0.2589744 0.1504358 0.28130245 -0.13808574 -0.13190751

linear_stack.3.bias f4 [8]
00000000: 33e4 553e 91e2 043e 2aa7 753e fc69 223e
00000010: 1795 d13c 539b 213e e6f1 1f3e 6771 573e
0.20887832 0.12977053 0.2398955 0.15860742 0.025583787 0.15781908 0.1561962 0.21039353

linear_stack.6.weight f4 [2, 8]
00000000: e1a5 d23e bc1e 103c 8db6 e3be be37 d6be
00000010: 633a aabe c147 de3e d950 163f 29d5 dc3d
00000020: a1ef 40be 0ee3 c03e 7d98 9a3b 19b8 a5bd
00000030: a971 833e f918 eebd a8f4 c1be 76e7 e73e
0.4114218 0.00879639 -0.44475213 -0.41839403 -0.3324767 0.4341412 0.58717114 0.107828446
-0.18841411 0.3767323 0.004717885 -0.080917545 0.25672653 -0.11625857 -0.3788197 0.45293778

linear_stack.6.bias f4 [2]
00000000: 1db6 dcbd 352e 833d
-0.10776923 0.06405298
