models/model_yt_c2_s0.1_b16_lr0.001_d0.5_e200.pth (torch, 4255 bytes, 6 tensors)

linear_stack.0.weight f4 [16, 16]
00000000: e67a 7e3d be4f a93d b483 303e 0eda 6cbd
00000010: e344 84be c6d2 31bc ac55 b33d af2f 20be
00000020: b1e0 9e3e bb49 5c3e e228 943d 4df0 b9be
00000030: b4ca cabd 73bb 983e 68dd 8f3e 0a16 9ebd
00000040: 198f 853e 24e0 95be d4a2 ee3b b7eb 3abe
00000050: bc54 b93d f06a 803d 19cf 453d 46b5 1fbe
00000060: d9c4 1f3e 9155 e63d 7417 d63e e5ce 0fbf
00000070: 3932 81be be08 84be e021 6cbd a3dd 88bd
00000080: 1d2c 043f e74e 3bbc 878d 03bf dfde ecbd
00000090: c575 74be c780 1f3e 1ea4 833c b8d6 71bd
000000a0: c331 b2bd 3208 883e a2c6 e83e 0d33 d2bd
000000b0: 27ca 39be e4e6 45bd 90e0 213e 41ba 51be
000000c0: 4384 45bf 2d9d 4bbe 96b4 5cbe b04f d03d
000000d0: 73f3 38be 329b a1bd c48d 6e3d b769 6b3d
000000e0: 45ef 82be 28ed a93d 41c6 37bd f4c6 e03e
000000f0: 23a5 25be b6c4 443e 9e33 2b3e f8e8 ff3d
00000100: 132a 193f 7dfb 35bd 1441 b6bd 0a2d 3a3e
00000110: 5ba9 c8bc 0755 84bb 17a6 2d3d bb73 8abd
00000120: 471e 6e3d e4c6 ebbd 2341 ff3e e1fc acbe
00000130: aff9 033e 610a 98be 3160 cbbc ad1f 23bd
00000140: eadb 1f3e 4e53 53be 02dd 773d dd6a 47be
00000150: 8738 113e afa6 393d 792f d53c 5e4e 13be
00000160: cee5 3c3e b0f8 353d 2db1 063f 4b4c 24bf
00000170: c594 48be ca1a 6bbe e71e 9bbd d509 62bd
00000180: f94d 2abe 62ee 89be 4438 023f 48f8 be3d
00000190: 8043 733c 32cb 1e3e 0841 1cbe b175 9dbc
000001a0: acfa 01bd 81f8 bb3c 4218 b53e fe83 66be
000001b0: c7d5 1abd 5ab5 03bc d1a5 24be 3318 6d3e
000001c0: 314e 7c3e 3133 07bf b647 2fbf b011 2cbe
000001d0: a2b9 05be c622 bebb 8447 1a3d 7a57 743c
000001e0: 5676 b4bd 48f1 a5be 296c cf3e 20de 933e
000001f0: ce67 08be e54a c6bc 6f4a 2abd dd20 2b3e
00000200: e946 6ebe 8171 813e fa67 323d 5412 843d
00000210: 9c03 8fbd c220 cdbc 52c9 f33d df6e b6bd
00000220: c907 1e3e b43c f33d 1931 03be 7652 cabe
00000230: 3c6a b43d 06c5 f43e 72b5 84be 0fac a93d
00000240: 33cf ee3e 0b52 2cbe 626c 70be 3bc3 97bd
00000250: 27e3 183c 275c abbd f6a6 423d d878 3dbe
00000260: f027 573e d71f a53d 4b80 e93e 5f10 cbbe
00000270: 16c6 77bd 7f92 a0b9 80c5 65be 0576 113e
00000280: 10ce c0be 2114 1abf 0a8e aa3e 609a 95bd
00000290: 550b 9d3d 94e7 033d 326d afbd 4d1c 983d
000002a0: 037c 8b3d 0055 0abd 2652 c53d f33a 0fbe
000002b0: a1c7 6cbe b322 f1bc 0301 3fbe 2015 d43d
000002c0: 21aa e0be 5431 a3be 1475 acbd cf95 0cbe
000002d0: 39a1 973e 0ca3 bdbe 1e9d a2bd 7b81 9c3d
000002e0: b089 a63d aad2 e8be 69c4 2f3d f410 d13e
000002f0: 84e4 bbbd e284 313d 2c6e 1a3e 9246 b93d
00000300: f092 373e bb25 19be 9d28 dd3d 10a7 623e
00000310: c789 60be c387 043c 53bb a43d 7f5d 33be
00000320: a539 9a3e 0934 b93d f7ac 12be cdd8 513c
00000330: a7f4 afbe 9c4a 8c3e 9a83 b13e 38ac fabd
00000340: a363 06bf 32fc c1bb aec1 12bd 7672 aebd
00000350: a4bf 2a3d d175 653c 3962 aabd e587 cf3c
00000360: 5d18 aa3e bbe7 04be 605a 05bf f2de 08be
00000370: a504 2a3e 4d08 76be 5381 efbd 37d2 803d
00000380: f2f5 09be 54c0 893e 144b c53d ec47 d53d
00000390: ac4e 043e a073 9fbd 7757 9a3d eb72 423d
000003a0: 58c5 e23d e117 4bbe cf44 ddbd 1cfb 71be
000003b0: 2aa1 023e 8f99 e13e efd6 89be 9fda 84bd
000003c0: 3310 d6be b8fd 033d 525d fd3c 908d a23d
000003d0: cff2 fdbc a024 b5bc b5fb 2abe 3921 243e
000003e0: 23b3 433e 81c8 dabe 3cc6 dabe a82c 813e
000003f0: 1e9e 27bc a580 97be 3c57 8ebe 564a 9f3e
0.062128924 0.08267163 0.17237741 -0.05782514 -0.25833806 -0.010853475 0.08756575 -0.1564319
0.310308 0.21512501 0.0723436 -0.36316147 -0.09901944 0.29830512 0.28098607 -0.07719047
0.26085737 -0.29272568 0.007282594 -0.1825398 0.09049365 0.06270397 0.048293207 -0.15596494
0.15602435 0.11246789 0.41814768 -0.5617507 -0.2523363 -0.2578792 -0.057649493 -0.06682899
0.5162981 -0.011432386 -0.5138783 -0.11565947 -0.2387305 0.15576468 0.016069468 -0.059042662
-0.087008975 0.26568753 0.45464045 -0.102636434 -0.18143521 -0.048315898 0.1580832 -0.20481206
-0.7715494 -0.19884177 -0.21553263 0.10171449 -0.18061619 -0.07890929 0.058240667 0.057473864
-0.25573173 0.08297187 -0.044866804 0.4390179 -0.16176276 0.19215664 0.16718909 0.12495607
0.59829825 -0.04442929 -0.088991314 0.18181244 -0.024494817 -0.0040384564 0.042394724 -0.06760355
0.058134343 -0.11512545 0.49854383 -0.3378668 0.12888215 -0.29695418 -0.024826141 -0.03982513
0.15611234 -0.20637247 0.060513504 -0.19474359 0.1418172 0.045324977 0.026023613 -0.14385363
0.18447039 0.04442662 0.526141 -0.64178914 -0.19588001 -0.22959438 -0.075742535 -0.055185158
-0.16631307 -0.26939684 0.50867105 0.093247 0.014847636 0.155072 -0.15259182 -0.019221159
-0.0317332 0.022945644 0.3537007 -0.22511289 -0.03780153 -0.008038843 -0.16078879 0.23153763
0.24639203 -0.52812487 -0.684688 -0.16803622 -0.13059095 -0.005802485 0.03766586 0.014913434
-0.08811633 -0.32410645 0.40512207 0.28880405 -0.13320848 -0.024205634 -0.04157489 0.16711755
-0.23269238 0.2528191 0.04355619 0.06448808 -0.0698311 -0.025040034 0.11903633 -0.08907866
0.15432657 0.118768126 -0.12811698 -0.39516038 0.08809325 0.47806567 -0.25919682 0.08284771
0.46642455 -0.16828172 -0.23478845 -0.07410284 0.009331501 -0.08367186 0.047522508 -0.1850313
0.21011329 0.080627136 0.45605692 -0.39660928 -0.060491644 -0.00030626726 -0.22438622 0.14205177
-0.37657213 -0.60186964 0.33311492 -0.07304835 0.07668177 0.032203272 -0.08565749 0.07427273
0.06810763 -0.03377247 0.09634809 -0.13987331 -0.23123027 -0.029435491 -0.1865273 0.10355592
-0.43879798 -0.31873572 -0.084207684 -0.13729022 0.2961519 -0.37038457 -0.07940124 0.07641884
0.081317306 -0.45473224 0.04291192 0.40833247 -0.09174445 0.043339618 0.1508109 0.09046663
0.17927146 -0.149558 0.10798762 0.22134042 -0.21927558 0.008089009 0.08043542 -0.17516135
0.30122104 0.09043128 -0.14323793 0.012808037 -0.34366342 0.27400672 0.34670717 -0.12239879
-0.52495784 -0.0059199566 -0.03582924 -0.085179254 0.04168667 0.01400514 -0.08319516 0.025333354
0.33221713 -0.12979023 -0.52091026 -0.13366297 0.16603334 -0.24026604 -0.116945885 0.06290095
-0.13472727 0.26904547 0.09633461 0.10414109 0.12920636 -0.077857256 0.07536214 0.047472876
0.110727966 -0.19833328 -0.1080414 -0.23630947 0.12756792 0.44062468 -0.26921794 -0.06487011
-0.41809234 0.032224387 0.030928288 0.07937157 -0.03099957 -0.02211219 -0.16697581 0.16028298
0.19111304 -0.42731097 -0.42729366 0.25229383 -0.010230569 -0.29590335 -0.2780093 0.311114

linear_stack.0.bias f4 [16]
00000000: 08bc b0be fe0a b8be b068 9dbe 788d 94be
00000010: 01fc 22bf 2b79 9cbe afe0 47bf f8d8 63be
00000020: d5f0 5fbf 7b31 f2be c58b 0abf a861 19bf
00000030: a5c8 abbe bc6c 69be 0604 75bf ceec 82be
-0.34518456 -0.35945886 -0.30743933 -0.29014182 -0.6366578 -0.30561194 -0.78077215 -0.22250736
-0.87476856 -0.47303376 -0.5411952 -0.59914637 -0.33551517 -0.22795385 -0.95709264 -0.25571293

linear_stack.3.weight f4 [8, 16]
00000000: 7432 553e fddf 14bf 41d2 79bf d2c9 24be
00000010: d507 23bf ce60 2dbf df53 77bf 8a47 52bf
00000020: fcf1 7c3e 057a 89be 4461 77bf aa65 8bbf
00000030: 47bb 063e 8600 adbc 611e 3e3f 1e1f 9d3c
00000040: cb95 d63d ba5c 69bf 2362 6ebf 2867 17be
00000050: 7a08 3bbf ce3d 83bf 64fa 54bf 722a 58bf
00000060: faee 9e3e 60ad 8ebe 3873 57bf 5c45 57bf
00000070: 0abe b53d 0532 61bc 2671 493f f412 db3b
00000080: 079a 603d 350c 42bf 435b 6bbf a8bf 34be
00000090: 67bf 3dbf ad0c 62bf bfa4 60bf 6a3d 4dbf
000000a0: 752b 883e cf26 b0be 12b8 48bf a5ab 87bf
000000b0: 44d0 063e 8ed0 28bd 2e90 403f 10f1 473c
000000c0: 1962 9b3d 0b5a 5fbf 1b69 5fbf c97a d7bd
000000d0: d931 1dbf f444 3abf 9c5d 83bf 5d48 48bf
000000e0: 66e3 313e abdc bdbe bd95 51bf 08ad 5cbf
000000f0: 2593 2a3e a6fb 49bd 9201 3b3f 2ae0 d63c
00000100: 4787 383e e1cb 9bbe b96f 8c3c 82ea edbc
00000110: f568 76be 794c d6be 5666 27bf c40e c9be
00000120: 38c3 023f 5ef1 e3bc f954 b6be 88de babc
00000130: 091b c83b 6fad a53c a9ea 743f fe4a 61bb
00000140: c3db c7bd a314 2c3d 33c0 0dbd c696 8bbf
00000150: 645b 613f 703c 3b3d 7595 453f 77d8 353d
00000160: 19c8 2abf a569 073f 59d5 273d 479d e03d
00000170: 087c afbd 2063 5abf 80d0 ecbe 5852 18bf
00000180: b1ff a4be 3741 ee3c e97f 2ebd 85de 45bf
00000190: e238 633f 4899 073d 481a 403f ffe9 64bb
000001a0: f979 eebe d0d8 0d3f 7bc2 cf3c fc00 a93d
000001b0: 6bd3 c1bd d582 32bf 3801 c8be 9ec7 05bf
000001c0: 8b93 b1bd 175a 85bc 0338 bcbc b71c a43d
000001d0: 8f34 833f de40 683d 4fc6 753f b38d 023e
000001e0: b17f 80bf 8bfb 2b3f 8058 673d 8bc1 f83e
000001f0: d94d c9bc 1bd3 9cbe d99e 62bf adff e7be
0.20820028 -0.5815428 -0.97586447 -0.16092613 -0.63683826 -0.6772584 -0.9661235 -0.8214041
0.24701685 -0.26850906 -0.9663279 -1.08904 0.13157378 -0.021118414 0.74265105 0.019179877
0.104777895 -0.91157115 -0.93118495 -0.14785445 -0.7305981 -1.0253236 -0.83194566 -0.84439766
0.310417 -0.2786665 -0.84160185 -0.8409021 0.08874138 -0.013744836 0.78688276 0.006685609
0.054834392 -0.75799876 -0.9193613 -0.17651236 -0.7412018 -0.8830059 -0.8775138 -0.80171835
0.26595655 -0.3440461 -0.7840587 -1.0599257 0.13165385 -0.04121452 0.7522 0.01220347
0.0758707 -0.8724677 -0.87269753 -0.10521466 -0.61404186 -0.72761464 -1.0262942 -0.7823542
0.17371902 -0.3708242 -0.8186911 -0.86201525 0.16657694 -0.049312256 0.7304927 0.026229937
0.18020354 -0.30428985 0.017143117 -0.029042486 -0.24063475 -0.4185522 -0.6539053 -0.39269078
0.5107913 -0.027825054 -0.35611704 -0.02281119 0.0061067385 0.020224301 0.95670563 -0.0034376974
-0.09758713 0.04201187 -0.034607124 -1.0905387 0.88030076 0.045711935 0.7718118 0.04439589
-0.66711575 0.52895576 0.04097495 0.10967498 -0.08568579 -0.853075 -0.46252823 -0.59500647
-0.32226327 0.029083831 -0.042602453 -0.7729266 0.8875867 0.033105165 0.750401 -0.0034929512
-0.46577433 0.55408955 0.02536129 0.08252141 -0.09464153 -0.69730884 -0.3906343 -0.52257717
-0.0867072 -0.01627831 -0.022975927 0.080132894 1.0250415 0.056702487 0.9600572 0.12749366
-1.0038968 0.671807 0.056480885 0.48585162 -0.024573253 -0.3062981 -0.8852363 -0.45312253

linear_stack.3.bias f4 [8]
00000000: ca3b 3c3e 2368 303e d87b 373e f1e4 1b3e
00000010: 7aba 443d 3112 933d e713 9c3d d5bb 573d
0.18382183 0.17227225 0.17918336 0.15224053 0.0480294 0.07181204 0.076209836 0.052669365

linear_stack.6.weight f4 [2, 8]
00000000: f5c1 00bf c7c3 dfbe abfe 60bf 3d30 7ebf
00000010: 8eaa 5cbf 26ba 513f 7f6b 5d3f 153d 443f
00000020: d8d8 393f 0294 523f 3eb1 e03e 5cba fc3e
00000030: 0746 493f 3d59 00bf 5d15 28bf d8b9 52be
-0.50295955 -0.43704054 -0.8788859 -0.99292356 -0.86197746 0.81924665 0.8649215 0.76655704
0.725965 0.8225709 0.43885225 0.4936093 0.7862248 -0.50136167 -0.656576 -0.20578706

linear_stack.6.bias f4 [2]
00000000: b5e0 be3d 5434 0cbe
0.09320203 -0.13691837
