models/model_mt_c2_s0.1_b16_lr0.001_d0.5_e60.pth (torch, 4255 bytes, 6 tensors)

linear_stack.0.weight f4 [16, 16]
000000 ea 66 12 3e 8c 5d 06 3f 3a 39 45 3e fd 56 62 3d
       0.14297071 0.5248649 0.19260111 0.05525874
000010 47 6b 12 be 3a d1 8a 3b 14 49 84 bd 72 51 df 3d
       -0.14298736 0.0042363675 -0.06459251 0.10904206
000020 2a f2 18 be 81 d4 ba 3d fe 11 0a be b7 57 d9 bc
       -0.14936128 0.09122563 -0.13483426 -0.026531084
000030 df f8 33 bc 3f 52 1c be b2 e4 d3 bd 65 17 2c 3d
       -0.010984628 -0.1526575 -0.103463545 0.0420145
000040 65 1c d1 3b ef b7 e1 bd 53 e6 78 3d 09 31 0c 3d
       0.0063815587 -0.11021411 0.06076653 0.03422645
000050 69 c1 b9 3e 33 cb 55 bd e5 f0 6f 3d 87 44 c1 3d
       0.36280373 -0.05219574 0.058579344 0.09436899
000060 c4 58 6c be 5a 22 5d be b7 63 0d be 78 62 14 3e
       -0.23080736 -0.21595135 -0.1380757 0.14490688
000070 39 9c 1c be a6 29 50 3e b1 0d ce bd 80 56 0c 3e
       -0.15293969 0.20328388 -0.10061205 0.13704872
000080 f6 38 e0 3e 58 38 49 bc 7d 38 30 3e 85 40 0b 3d
       0.43793458 -0.0122815 0.17209049 0.033997077
000090 3d 0d ce 3d ac 1c ad be a8 8b f1 3c cb 68 37 3e
       0.10061119 -0.33810937 0.029485539 0.17911069
0000a0 cd 2d a0 bd 9b 00 28 3e f8 24 d0 3d 7e 3e c8 3e
       -0.07821236 0.16406481 0.10163301 0.39110178
0000b0 5b 77 06 be 1f bc 69 be 43 08 82 3e 3b c3 16 3e
       -0.13131468 -0.22825669 0.25396928 0.14722912
0000c0 03 26 ab 3e 5f 82 da 3e 3c b1 81 bd 43 6c a9 3e
       0.33427438 0.4267759 -0.06332633 0.3309041
0000d0 0a ea 32 3c fc aa 31 3e f5 26 61 bd 4b b6 c6 bc
       0.010920057 0.17350382 -0.054968793 -0.024256846
0000e0 6f b7 06 be 7b 29 84 3e 5a 29 1c 3e 65 74 60 3e
       -0.13155912 0.25812897 0.1525015 0.21919401
0000f0 68 5f 01 bc 16 62 10 3d 50 42 16 be 3d ea 9c bd
       -0.007896282 0.035249792 -0.14673734 -0.07661865
000100 c5 12 44 3e 62 ea 8f 3e 0d 5f 11 3e ac ff 2f 3c
       0.19147785 0.28108507 0.14196415 0.010742109
000110 28 c1 3f be ec eb a4 bd 8c 61 21 3e d0 36 98 bd
       -0.18726027 -0.08052811 0.15759867 -0.0743233
000120 b6 39 d2 bc 73 5e 09 be a2 38 74 be 36 87 17 bf
       -0.025662284 -0.13414936 -0.23849729 -0.5919069
000130 20 46 02 3e c7 88 94 3d 04 7b a9 be cd 95 1a bd
       0.12722063 0.07252651 -0.33101666 -0.037740517
000140 cb 4a 1b 3e 24 2a fd 3e 0c 84 c2 3d e3 fc 6b be
       0.1516525 0.49446213 0.09497842 -0.23045687
000150 7c 71 c2 3d 5f 25 04 3e 5d 76 91 3d 6e 37 3a be
       0.09494302 0.12904881 0.07102654 -0.18185207
000160 30 0b f8 3d b2 a7 1d be e1 ba a3 be 7d 7e be bd
       0.12111509 -0.15396002 -0.31978515 -0.093014695
000170 bc b3 a0 3d 83 13 b2 bd 73 10 3a be de 7c 9b bd
       0.078467816 -0.08695128 -0.18170337 -0.07592176
000180 38 a9 f8 3c 7c 1a 33 3e 85 92 e4 3d 8b 19 3d 3c
       0.030354127 0.17490572 0.11160759 0.011541734
000190 08 48 48 3c 28 7e e3 bd a4 9b 79 be 59 3b 7e 3e
       0.012224205 -0.11108047 -0.24375778 0.24827327
0001a0 b0 9b 86 be f3 d5 bf bd c5 c6 5e be 70 65 c3 3e
       -0.26290655 -0.093669794 -0.21755512 0.38163328
0001b0 bb 41 0c 3e d7 ac a5 be dc 05 41 3d e2 3c c7 3d
       0.13696949 -0.3235843 0.04712473 0.09728409
0001c0 81 7b 48 3e 0d 6a 89 3b 22 5d 97 bd a2 7a 7b be
       0.19578363 0.0041935504 -0.073908105 -0.245585
0001d0 cb 64 2e be db 08 ab bd 49 52 e7 3d 6c f7 dd bb
       -0.17030637 -0.083512984 0.112949915 -0.0067738798
0001e0 3c b8 53 be 25 65 df be 09 e3 af 3e a4 bf ef 3d
       -0.20675749 -0.43631855 0.34352902 0.117064744
0001f0 0b e9 6b 3d 90 00 76 3e ca 6e 95 3e dd 52 9d be
       0.057595294 0.24023652 0.29186088 -0.30727282
000200 08 4e 56 3e 67 97 08 3f 59 03 54 bd 70 d1 5b 3e
       0.20928204 0.5335602 -0.051761005 0.21466613
000210 d3 54 1b 3d d9 28 49 3e 99 7d d4 3d c4 2a a6 be
       0.03792269 0.19644488 0.10375518 -0.32454503
000220 e8 4b 13 3e 25 e9 74 3e a0 3b 93 3e e8 2f 7e bd
       0.14384425 0.23917063 0.28756428 -0.062057406
000230 4a 0b 64 3c fe 26 5a 3d 7a 1c 85 bb 38 e8 27 be
       0.013918707 0.053259842 -0.0040622326 -0.16397178
000240 81 e6 14 3e 24 e9 f5 3e ad aa 9e bd b6 ea 63 3c
       0.14541055 0.48029435 -0.077473976 0.01391094
000250 c5 3d ae 3d 97 9f a7 3c 4c 30 b8 3d 47 2c 77 be
       0.08507875 0.02046184 0.08993587 -0.24137984
000260 df 51 29 3e c1 4e f6 3d 52 ee a1 3e 96 d1 8e 3d
       0.16535138 0.1202674 0.31627136 0.06973569
000270 9d ea 49 bb 80 44 13 bd 69 bb 87 3c b7 68 cc 3c
       -0.0030810006 -0.035954 0.016568856 0.024952276
000280 18 c0 93 be 80 0c 5a 3e 5e 2c f8 bc 63 2e 24 3e
       -0.28857493 0.21293831 -0.030294593 0.1603332
000290 54 f0 94 3e 39 6d 69 3e 16 fb 28 3d 15 40 c8 3c
       0.29089606 0.22795571 0.04125508 0.02444462
0002a0 e7 07 53 bd 9a 13 d4 3e 24 cb 99 3d 54 41 aa 3d
       -0.051521208 0.41421205 0.07509449 0.083132416
0002b0 67 fe 72 3c 1f ea a1 3c 85 7d 8e be 5c 4b 55 be
       0.014831162 0.019764958 -0.2783014 -0.20829529
0002c0 3c 91 2f be 2b 47 69 3e 44 82 0b be 3b da 9c be
       -0.17145246 0.22781055 -0.13623911 -0.30635247
0002d0 37 a5 3b 3c 4b 26 11 be 43 62 ac 3c bb 4d 32 bd
       0.0114529645 -0.14174764 0.021042949 -0.04353116
0002e0 2c 07 77 3e a3 0a 46 be 88 18 9f be a2 51 d2 3e
       0.2412383 -0.19339995 -0.31073403 0.41077906
0002f0 9c 11 76 be c1 85 2d be 85 ce b8 3e 48 ea ee 3d
       -0.24030155 -0.16945554 0.36095062 0.11665779
000300 45 96 ad 3e 5e d2 ea bd 0d f6 ff bd de 66 ae 3e
       0.3390371 -0.114659056 -0.12498102 0.34062856
000310 69 81 c8 bd f5 55 7e 3d b1 9f d6 bd 6e d4 a6 3d
       -0.09790308 0.062093694 -0.104796775 0.081459865
000320 8e 9a 2f bd 4f fc 8a 3e 7a 08 05 bd 58 33 52 be
       -0.042872004 0.2714562 -0.032478787 -0.20527399
000330 b5 4e d1 bd 9c 9a 5d 3d a1 85 db 3e f6 3a a4 be
       -0.1022009 0.054102525 0.42875388 -0.32076234
000340 ac 83 80 bc 55 b3 07 3e dc c5 09 3d 76 d4 02 3d
       -0.015687786 0.13252003 0.03363596 0.0319409
000350 c8 66 34 3e 40 46 51 3a d5 46 6a be 63 96 02 3c
       0.17617333 0.00079831854 -0.22878583 0.007970425
000360 e5 19 14 3e 0f ab 28 3e d0 bc 0b bd 14 78 d7 3e
       0.14463003 0.16471504 -0.034115613 0.420838
000370 76 29 b0 bc d2 d4 8a be 93 63 a0 3e ab 96 cc bd
       -0.021504145 -0.27115494 0.3132597 -0.09989675
000380 fc ca 0c 3e 50 ca 86 3e e6 2a 07 bd 4e cc f6 bd
       0.13749307 0.26326227 -0.032999896 -0.12050687
000390 26 d1 17 be e9 68 77 3d 17 e2 1d 3e e8 bc 42 be
       -0.14825878 0.060402784 0.15418278 -0.19017375
0003a0 f5 e9 60 3e 51 a0 32 be 7a 52 23 be 4a e2 82 bd
       0.21964248 -0.17443968 -0.15949431 -0.063908175
0003b0 8e 0a 33 3d 4b 9d 05 3e 46 c4 80 be 06 0e e9 bd
       0.043711238 0.13048284 -0.25149745 -0.11379628
0003c0 b3 be 46 3e 63 e0 83 3e ad 16 8d be dc 3a a9 bd
       0.19408683 0.2575713 -0.27556363 -0.0826318
0003d0 31 65 fa bd cb d4 db bd 04 53 cb 3d 26 a0 4c bc
       -0.12226332 -0.107339464 0.09927943 -0.012489354
0003e0 11 d2 64 3c fb 1e 08 be ff 9f af be 77 b4 cf 3e
       0.013966099 -0.13293068 -0.34301755 0.4056737
0003f0 84 69 16 3e 60 00 aa be 14 07 bd bd a1 29 52 3d
       0.14688689 -0.3320341 -0.09229866 0.05130923

linear_stack.0.bias f4 [16]
000000 22 a2 14 3d c4 b6 e9 be 50 30 ba 3d 78 4a 92 be
       0.036287434 -0.45647252 0.09091246 -0.2857244
000010 08 5a e3 3d a4 04 b4 be c6 13 e2 bd aa bc b3 be
       0.111011565 -0.3515979 -0.11038928 -0.35104877
000020 67 ea e4 be 63 43 b6 be d1 9f 27 bf 32 a1 2d be
       -0.44710085 -0.35598287 -0.65478235 -0.16956022
000030 5c c5 66 be e6 59 42 3d 8f eb 91 be 65 98 4b bd
       -0.22536224 0.047449015 -0.2850003 -0.04970588

linear_stack.3.weight f4 [8, 16]
000000 33 b1 e5 bd 19 25 d4 3e 9f 42 02 bf d6 9f 18 bf
       -0.11215439 0.41434553 -0.50882906 -0.5961889
000010 b4 46 29 bd 2a 22 13 bf 7f 99 7b be 14 4a 2f 3e
       -0.041327193 -0.57474005 -0.24570273 0.17118102
000020 72 bd 9c be 29 e7 b7 be e6 cd ac be 1f a8 63 be
       -0.30613285 -0.3591855 -0.33750838 -0.22232102
000030 49 52 a7 be 81 84 b0 be 75 e6 42 be e4 e4 58 be
       -0.32679966 -0.34476092 -0.19033225 -0.21181065
000040 f3 2d 5a 3e 74 d4 78 bb 7c e5 19 bc 74 fe ec 3d
       0.2130659 -0.0037968429 -0.009393092 0.115719706
000050 57 ee 29 bf ea 8c e8 be 31 2d f7 3d a5 ce 37 bf
       -0.663793 -0.4542001 0.120691665 -0.7179969
000060 10 4d af 3e 1d 4d 6a 3e a2 a0 2f 3f 85 bd 26 3e
       0.34238482 0.22880979 0.6860448 0.16283233
000070 ee 4f 7c 3e 99 cf 66 bd d5 18 a1 be 88 1a 81 3e
       0.24639866 -0.056350324 -0.31464258 0.25215554
000080 61 35 82 3e ba 8b 97 bc bf 3c 54 bc 84 42 a5 3d
       0.2543135 -0.018499244 -0.012953936 0.080693275
000090 24 a9 6f bf d4 23 7a 3d 0e ab 8b bd 66 43 06 bf
       -0.93617463 0.061069325 -0.068197355 -0.5244659
0000a0 76 fb 7c 3e 98 78 98 3e 13 77 06 3f 69 4b 2d bf
       0.247053 0.29779506 0.5252544 -0.6769319
0000b0 c7 ba 73 3e aa 3c 82 3c 7a 16 ef 3c b0 e7 70 3e
       0.23801719 0.015898068 0.029185522 0.23525882
0000c0 38 0b 15 3e 17 22 b0 3b 92 10 c6 bc 50 cb 4e 3e
       0.14555061 0.0053751576 -0.024177823 0.20194745
0000d0 04 23 7a 3c d6 68 28 3e 1f 08 fd be fd a9 e0 be
       0.015267137 0.16446242 -0.49420258 -0.4387969
0000e0 cd 9f 81 3e a0 85 c5 3e 2f 8c d4 3e c0 d9 fd be
       0.2531723 0.3857851 0.41513202 -0.49580193
0000f0 fb c7 9a 3e 6e 0b b4 3b e1 de 2f 3e ba c2 ad bc
       0.30230698 0.0054945266 0.17174865 -0.021211017
000100 12 6a 72 3d e8 c3 16 3d 90 7d 68 be 6b 52 74 be
       0.059183188 0.036807925 -0.22704148 -0.23859565
000110 7f d7 21 3e cc 51 19 3e be f5 8e 3e 1f 84 6f be
       0.15804861 0.1497261 0.2792186 -0.23390244
000120 64 3c 34 bd b0 97 c3 bd bf de 07 3d 22 32 ff be
       -0.044002905 -0.095504165 0.03317141 -0.49842936
000130 04 6f 95 be f0 55 34 3d 01 a1 30 3e 3d 9f 10 3e
       -0.2918626 0.04402727 0.17248918 0.14123245
000140 23 31 94 be 6c bf a7 3e 60 84 e2 be e6 b8 be be
       -0.28943738 0.3276323 -0.4424162 -0.3725044
000150 33 b5 0d 3b a6 6a a2 be 79 ac 3b be 22 4f ba 3e
       0.0021622896 -0.3172199 -0.18327512 0.363885
000160 b4 80 5d be cd c0 81 be 76 bf 53 be fd 78 aa bd
       -0.21631128 -0.25342408 -0.20678505 -0.08323858
000170 b5 25 01 be 55 b4 a4 be 80 1e a2 be c1 f1 7f be
       -0.1261204 -0.32168832 -0.31663895 -0.24994566
000180 e4 e7 ab bd 7d 93 a9 3e ba 04 d3 be ea d2 c9 be
       -0.08393839 0.33120337 -0.41214544 -0.39418727
000190 e5 70 2f bc af d2 c0 be e0 57 53 be f0 0f c4 3d
       -0.0107080685 -0.3766074 -0.2063899 0.09573352
0001a0 05 d3 4d be 48 0c 48 be f8 5b 52 be de b7 2c be
       -0.20100029 -0.19535935 -0.20542896 -0.16867015
0001b0 f9 29 8c be d4 f5 c0 be bf 1d 3a be 8a d1 d9 bc
       -0.27375773 -0.37687552 -0.1817541 -0.026589174
0001c0 ca e0 b2 be a8 de ae 3e 44 67 0c bf 4d c6 09 bf
       -0.34937125 0.34154248 -0.5484507 -0.5381821
0001d0 a0 fc f0 3c 74 f5 ed be 17 7e 5d be a4 a2 3d 3e
       0.029417336 -0.46476328 -0.2163013 0.18519074
0001e0 1c bf 9d be 2d 6f 92 be 3b 0f 52 be ca f2 a9 bd
       -0.30809867 -0.28600445 -0.20513622 -0.082982615
0001f0 86 18 38 be c3 6e da be ea 8f 62 be e2 03 78 be
       -0.17978105 -0.4266263 -0.22125211 -0.24220231

linear_stack.3.bias f4 [8]
000000 bb a7 94 3e d9 88 0e bd 69 04 28 bb 4a cb be bc
       0.29034218 -0.034798477 -0.0025637394 -0.023290295
000010 1c 70 6c be 42 58 8b 3e 9f 64 6f 3e 1f ae a5 3e
       -0.23089641 0.27215773 0.23378228 0.32359406

linear_stack.6.weight f4 [2, 8]
000000 22 27 dd 3e 89 a7 22 be 8e 86 13 bf 06 5c 12 bf
       0.43193918 -0.15884222 -0.5762719 -0.57171667
000010 f0 fa e9 be 32 7c 0d 3f 17 00 1a 3f f8 cc 1f 3f
       -0.45699263 0.5526763 0.6015639 0.6242213
000020 fa f1 55 be fc 5b 0b 3f d7 81 0b 3e 8f 48 94 3d
       -0.20893088 0.5443723 0.13623749 0.07240402
000030 41 32 c3 3e 6f 6d 70 be 5a 53 c9 be 47 f5 81 bd
       0.38124278 -0.23479246 -0.39321405 -0.06345611

linear_stack.6.bias f4 [2]
000000 b6 c4 8a bd 34 f3 c4 3c
       -0.06775801 0.02404175
