models/model_zs_c2_s0.1_b16_lr0.001_d0.5_e15.pth (torch, 4255 bytes, 6 tensors)

linear_stack.0.weight f4 [16, 16]
0.17492644 0.55441993 0.1910036 0.055475175 -0.099226706 -0.118780114 0.08804254 0.049087342
-0.08626375 0.19341385 0.017658873 -0.088649504 0.02131854 -0.16371147 -0.01363884 -0.15052672
0.13355193 0.31268984 0.05157974 -0.025634326 0.29614642 -0.0315714 0.30593455 -0.100397125
0.0017719655 -0.08558261 -0.2030707 0.33344474 -0.101621434 -0.042285994 0.013860243 -0.0018027094
0.18106648 -0.020441514 -0.03851777 -0.052985534 -0.02486504 -0.23571438 0.051444136 0.0892377
-0.062834255 0.13482836 0.068651065 0.03903842 -0.10609204 -0.27910817 0.13377573 0.017903179
0.42084235 0.46737283 -0.10901319 0.22581168 -0.114733286 0.1029225 0.0055691064 0.023948051
-0.060531233 0.11080825 -0.10159888 0.12654749 -0.04091189 0.027044874 -0.11071068 -0.12041979
0.16766416 0.26274633 0.11146879 0.10159437 -0.073713 -0.12031698 0.01685598 0.10984971
-0.0026267215 -0.20288585 -0.20753114 -0.069950074 -0.042884536 -0.08640438 -0.10272183 -0.019750029
0.17345197 0.24373056 0.18843783 -0.12198729 0.24018657 -0.019591432 -0.13207476 -0.037851058
0.04565435 -0.08707317 -0.19055316 -0.11764029 -0.04442836 -0.09020278 0.034385208 -0.17896883
-0.023354655 -0.125743 0.15559304 0.16321824 0.11635404 0.081453316 -0.14117849 0.084968664
-0.13587365 -0.08293179 -0.08207429 0.2632324 -0.033445753 -0.10357781 -0.098006904 0.27728748
0.1068269 -0.27520183 -0.17964105 -0.2592603 -0.17504042 -0.13152544 0.40727398 -0.30306906
-0.06258515 -0.22233912 0.3421712 0.051739804 -0.0069606216 0.23029795 0.07947833 -0.026823586
0.4118739 0.8108317 -0.07338789 0.15565178 -0.017865611 0.07761648 0.003183558 0.04445321
0.04110371 0.15706167 0.11019163 -0.14315915 0.08685344 0.0068619307 -0.082444414 -0.30653274
0.20831265 0.47331318 -0.10239398 -0.0065045245 0.071159944 -0.039806146 0.13469732 -0.24415004
0.17565821 0.050366957 0.015377819 0.048079368 -0.04738201 0.04703979 -0.2150979 0.08442246
-0.19554763 0.029905204 0.06382155 0.05125293 0.16055745 0.16821757 0.04780995 -0.008235987
-0.14140785 0.23389733 -0.1394569 0.20964018 -0.120784596 0.046903543 -0.20550343 -0.14479983
-0.07825791 -0.07319303 0.0481534 -0.29565033 0.11134796 -0.29735574 0.09642551 0.0070598046
0.100690246 -0.3021009 -0.2937964 0.26669967 -0.29792202 -0.17431684 0.21017578 0.08284121
0.099253215 -0.2331704 -0.22543581 0.3228744 -0.10070693 -0.0106858825 -0.0768195 0.16983368
0.28237888 0.010291575 -0.019083682 -0.17655659 -0.017138498 -0.035624903 0.1947983 -0.3089386
-0.13331735 0.25419065 -0.13220823 -0.04689103 0.06731479 0.035648398 -0.16341968 0.07193896
0.20009314 -0.04856758 -0.13749059 0.27631655 -0.0008897413 -0.17380258 -0.029145768 -0.19792457
0.014144701 -0.08931376 -0.05727866 -0.013045877 0.036372725 -0.17339902 -0.104147315 0.039756145
0.16596834 -0.26018593 0.014807175 -0.016553385 -0.07458786 0.34300765 -0.16348301 -0.13899744
0.050217938 -0.018994397 -0.3095476 0.12887716 0.08009073 -0.11722351 -0.105728306 0.03762763
0.1828048 -0.1060728 -0.021795169 0.30911577 -0.06726128 -0.30852067 -0.13278203 -0.07685167
00000000: eb1f 333e 77ee 0d3f 7396 433e f039 633d
00000010: 5f37 cbbd fd42 f3bd a64f b43d cf0f 493d
00000020: 0dab b0bd 480e 463e 57a9 903c df8d b5bd
00000030: 38a4 ae3c fba3 27be 7175 5fbc ad23 1abe
00000040: d6c1 083e e218 a03e 4745 533d 14ff d1bc
00000050: 81a0 973e 0351 01bd 74a3 9c3e 029d cdbd
00000060: 4c41 e83a ef45 afbd c4f1 4fbe 45b9 aa3e
00000070: e61e d0bd 1434 2dbd 1316 633c e448 ecba
00000080: 7e69 393e f674 a7bc cfc4 1dbd 5c07 59bd
00000090: c5b1 cbbc 1c5f 71be 16b7 523d 41c2 b63d
000000a0: 3faf 80bd 7210 0a3e ee98 8c3d c0e6 1f3d
000000b0: c946 d9bd 44e7 8ebe 81fc 083e b0a9 923c
000000c0: a678 d73e 7e4b ef3e 4f42 dfbd 2d3b 673e
000000d0: 49f9 eabd 08c9 d23d 0d7d b63b b42e c43c
000000e0: 99ef 77bd 70ef e23d 1313 d0bd aa95 013e
000000f0: 3a93 27bd 368d dd3c 48bc e2bd a79e f6bd
00000100: 27b0 2b3e b086 863e c049 e43d b610 d03d
00000110: d7f6 96bd c068 f6bd 8d15 8a3c e2f8 e03d
00000120: 1325 2cbb 4fc1 4fbe 0b83 54be fc41 8fbd
00000130: b2a7 2fbd c8f4 b0bd d35f d2bd d0ca a1bc
00000140: 659d 313e 8194 793e d9f5 403e 79d4 f9bd
00000150: 78f3 753e 367e a0bc 9b3e 07be b609 1bbd
00000160: 0e00 3b3d 6b53 b2bd 5e20 43be 64ed f0bd
00000170: 83fa 35bd 3cbc b8bd 81d7 0c3d 9b43 37be
00000180: 4352 bfbc c6c2 00be c853 1f3e af22 273e
00000190: 074b ee3d ffd0 a63d 1891 10be 0d04 ae3d
000001a0: 7622 0bbe 24d8 a9bd 9116 a8bd 66c6 863e
000001b0: 6afe 08bd 9a20 d4bd d8b7 c8bd a0f8 8d3e
000001c0: 10c8 da3d 41e7 8cbe d3f3 37be c4bd 84be
000001d0: cc3d 33be 9bae 06be 3786 d03e de2b 9bbe
000001e0: a52c 80bd deac 63be 1031 af3e 1eed 533d
000001f0: ed15 e4bb 3ad3 6b3e 89c5 a23d 23bd dbbc
00000200: 23e1 d23e ab92 4f3f 644c 96bd 2e63 1f3e
00000210: e75a 92bc 64f5 9e3d 3da3 503b 9214 363d
00000220: 5d5c 283d c6d4 203e 26ac e13d 5098 12be
00000230: 37e0 b13d 0cda e03b 9ed8 a8bd dcf1 9cbe
00000240: e94f 553e 1b56 f23e efb3 d1bd e823 d5bb
00000250: 4ebc 913d c50b 23bd 18ee 093e 7802 7abe
00000260: bfdf 333e 954d 4e3d 3ff3 7b3c dfee 443d
00000270: a313 42bd cbac 403d a042 5cbe afe5 ac3d
00000280: a33d 48be c2fb f43c dfb4 823d 98ee 513d
00000290: 2c69 243e 3a41 2c3e 5ed4 433d 3cf0 06bc
000002a0: 38cd 10be c882 6f3e cacd 0ebe eaab 563e
000002b0: ea5d f7bd ee1d 403d 7e6f 52be 6846 14be
000002c0: af45 a0bd 3ae6 95bd 803c 453d 7b5f 97be
000002d0: 660a e43d 033f 98be bd7a c53d ef55 e73b
000002e0: b036 ce3d f8ac 9abe 7b6c 96be dc8c 883e
000002f0: 3c89 98be 1d80 32be 5238 573e a7a8 a93d
00000300: 4545 cb3d 39c4 6ebe a5d8 66be cb4f a53e
00000310: 6f3f cebd d713 2fbc 8b53 9dbd e1e8 2d3e
00000320: f793 903e ff9d 283c 6255 9cbc 40cb 34be
00000330: 0966 8cbc 6beb 11bd 3579 473e 332d 9ebe
00000340: 5884 08be 4725 823e 9861 07be cf10 40bd
00000350: 56dc 893d 0e04 123d 7d57 27be bc54 933d
00000360: 37e5 4c3e ccee 46bd 55ca 0cbe 5d79 8d3e
00000370: 873d 69ba 4ef9 31be 1bc3 eebc bdac 4abe
00000380: 2dbf 673c 22ea b6bd 079d 6abd 60be 55bc
00000390: 91fb 143d 838f 31be 304b d5bd 57d7 223d
000003a0: 9bf3 293e 1737 85be cb99 723c f79a 87bc
000003b0: 85c1 98bd b39e af3e 1768 27be 5855 0ebe
000003c0: 53b1 4d3d 239a 9bbc 067d 9ebe 60f8 033e
000003d0: 9c06 a43d e112 f0bd 1588 d8bd 6e1f 1a3d
000003e0: 2e31 3b3e b23c d9bd c88b b2bc 6c44 9e3e
000003f0: 48c0 89bd 6cf6 9dbe 03f8 07be 6964 9dbd

linear_stack.0.bias f4 [16]
0.15542479 -0.078930706 0.14562334 0.15518685 0.062050905 -0.20055945 0.04374307 -0.21702632
0.009163933 -0.112958364 -0.09145857 -0.14119683 0.05921258 0.0464752 0.08702424 0.27642953
00000000: ad27 1f3e 6ca6 a1bd 491e 153e 4de9 1e3e
00000010: 1729 7e3d 755f 4dbe ef2b 333d 263c 5ebe
00000020: 5224 163c b756 e7bd a14e bbbd e795 10be
00000030: e488 723d c85c 3e3d c439 b23d 2c88 8d3e

linear_stack.3.weight f4 [8, 16]
0.0048568044 0.016815627 -0.036454078 -0.14640407 -0.080159225 -0.21999785 -0.12634125 0.20042393
-0.1824658 -0.30349097 -0.3310044 -0.16911706 -0.17904411 0.009781551 0.27745214 -0.22045642
0.28419796 0.28219378 -0.15018032 0.29561076 -0.020043626 -0.044493202 0.08921108 -0.14430587
0.3993137 0.09975128 0.17429948 0.30907577 0.015542151 0.17320101 0.02051761 -0.037555557
0.22106129 0.31872025 0.030588947 0.12566109 -0.12723807 -0.0055237813 -0.21505928 -0.27813655
0.3414207 0.3601401 -0.013473208 -0.27483964 -0.022741342 -0.08170821 -0.10498349 0.20915769
0.35992214 0.25700948 0.031334843 0.27450654 -0.0041406625 0.08953764 -0.113230236 -0.078028224
0.23545246 0.3136378 -0.0783367 -0.32253405 -0.04486054 -0.013686255 0.024782958 -0.11638483
0.1630089 0.3328917 -0.16204475 -0.22432728 0.07477165 -0.18670307 0.19626807 -0.012984035
0.17728901 -0.008547959 0.008283753 -0.034859404 -0.22187932 0.13248539 0.03481755 -0.1341006
-0.18704733 0.005871139 -0.14103088 -0.18477266 0.07166999 0.17630813 0.10089933 0.47493687
-0.20315309 -0.032036744 0.13092233 -0.14392436 0.18549639 -0.29353678 -0.10426672 -0.27734193
-0.1173291 -0.020151736 -0.068231516 -0.168383 -0.23968163 -0.16400155 -0.13399902 0.2185666
-0.12979901 -0.14500038 -0.17071857 -0.052665506 0.071682364 -0.19588202 0.084646516 -0.09758448
0.17674166 0.31179926 0.037406605 0.31087634 -0.06627773 -0.065426745 0.1183084 -0.22144137
0.3898898 0.33775768 0.11085728 0.24573997 -0.1056625 0.08785057 -0.013313618 -0.11073814
00000000: d425 9f3b edc0 893c df50 15bd f3ea 15be
00000010: 852a a4bd 1e47 61be 9a5f 01be ee3b 4d3e
00000020: 51d8 3abe 2b63 9bbe 6979 a9be 062d 2dbe
00000030: 5757 37be cc42 203c 350e 8e3e 54bf 61be
00000040: 6582 913e b47b 903e dfc8 19be 4b5a 973e
00000050: 8832 a4bc 813e 36bd 4cb4 b63d ebc4 13be
00000060: d872 cc3e 664a cc3d 907b 323e 2e3f 9e3e
00000070: 82a4 7e3c 9b5b 313e 8c14 a83c dbd3 19bd
00000080: e45d 623e 4d2f a33e ac95 fa3c 4dad 003e
00000090: b24a 02be d600 b5bb 8038 5cbe ea67 8ebe
000000a0: b2ce ae3e 4864 b83e bbbe 5cbc c8b7 8cbe
000000b0: 0d4c babc a256 a7bd 9601 d7bd 6f2d 563e
000000c0: b747 b83e bf96 833e f758 003d 1f8c 8c3e
000000d0: 65ae 87bb 835f b73d 41e5 e7bd 43cd 9fbd
000000e0: 731a 713e 2295 a03e fe6e a0bd 2f23 a5be
000000f0: b0bf 37bd 503c 60bc a105 cb3c 2b5b eebd
00000100: ceeb 263e c870 aa3e 0fef 25be 0db6 65be
00000110: e121 993d 172f 3fbe 7ffa 483e fdba 54bc
00000120: 408b 353e bd0c 0cbc 94b8 073c bcc8 0ebd
00000130: 5534 63be 40aa 073e d99c 0e3d ab51 09be
00000140: 5689 3fbe af62 c03b 666a 10be 0b35 3dbe
00000150: b7c7 923d 1e8a 343e 4fa4 ce3d ed2a f33e
00000160: 5d07 50be f638 03bd 8110 063e e860 13be
00000170: c4f2 3d3e 744a 96be ca89 d5bd c3ff 8dbe
00000180: 3d4a f0bd 4115 a5bc f7bc 8bbd 986c 2cbe
00000190: 1a6f 75be 06f0 27be 0a37 09be eccf 5f3e
000001a0: 08ea 04be fb7a 14be d9d0 2ebe c9b7 57bd
000001b0: 34ce 923d 4c95 48be 275b ad3d 5fda c7bd
000001c0: c4fb 343e 27a4 9f3e ab37 193d 2f2b 9f3e
000001d0: 9ebc 87bd 75fe 85bd ad4b f23d 87c1 62be
000001e0: a39f c73e 93ee ac3e 2409 e33d 42a3 7b3e
000001f0: 9565 d8bd 00eb b33d 5c21 5abc aeca e2bd

linear_stack.3.bias f4 [8]
0.319848 -0.044351425 0.11261735 -0.087469146 -0.116795935 0.15707365 0.23685333 0.062915295
00000000: 1ec3 a33e d7a9 35bd eda3 e63d 0623 b3bd
00000010: b532 efbd ead7 203e ae89 723e bcd9 803d

linear_stack.6.weight f4 [2, 8]
0.2447776 0.05255826 -0.37049904 -0.46705607 -0.31105134 0.3596495 0.47194633 0.18617965
-0.021768443 0.33297107 -0.06953595 -0.032257203 0.23530203 -0.041766033 -0.26359612 0.374586
00000000: fba6 7a3e 5447 573d 0db2 bdbe f921 efbe
00000010: 1f42 9fbe fb23 b83e f3a2 f13e e1a5 3e3e
00000020: bc53 b2bc 2f7b aa3e dd68 8ebd 2120 04bd
00000030: 04f3 703e dc12 2bbd 12f6 86be bcc9 bf3e

linear_stack.6.bias f4 [2]
-0.06691217 0.023196222
00000000: 3f09 89bd 0106 be3c
