models/model_sq_c2_s0.1_b16_lr0.001_d0.5_e20.pth (torch, 4255 bytes, 6 tensors)

linear_stack.0.weight f4 [16, 16]
000000 29 7a 24 be a1 2f 0a 3e 60 72 b2 3d 1e 2e 1e 3d
       -0.16062225 0.13494731 0.087132215 0.0386182
000010 f6 0f 0d be 70 f0 3e bd 29 c7 d6 3d fa 69 0e 3d
       -0.1377562 -0.046616018 0.104872055 0.034769036
000020 52 12 9f bc a2 c6 33 3e 68 25 96 bd e5 4c 5a be
       -0.019417915 0.17556241 -0.073313534 -0.21318395
000030 ff e4 bb 3d 60 29 00 3f 61 f6 d2 3d 8f 1d bd 3d
       0.09174537 0.50063133 0.10300899 0.092341535
000040 77 b8 60 3e bf 34 9b bd 9c 7b 9b 3e a0 60 fc bd
       0.21945368 -0.0757842 0.30367744 -0.12323117
000050 47 43 3b 3e 87 35 89 bb 3f 27 ce 3d 7d a4 fc bd
       0.18287383 -0.004187289 0.10066079 -0.12336061
000060 1f ec cd 3d 48 b4 32 be 56 53 7d be 57 56 06 3d
       0.10054802 -0.17451584 -0.24738821 0.032797184
000070 07 81 da bd 73 bd ee bd fc be 99 3d 09 e2 90 bd
       -0.10669141 -0.11657228 0.075071305 -0.07074363
000080 66 c1 2f 3e d9 56 9f bd cc 8a c3 3d b0 cc b1 bd
       0.1716362 -0.07780237 0.09547958 -0.08681619
000090 45 a0 6e bd f9 3d 82 be f6 c7 4a 3d 1c b8 3c 3e
       -0.058258314 -0.25437906 0.049507104 0.18429607
0000a0 32 df 96 bd 0d c7 ca 3d 05 1a 6d 3e 4b 08 bc 3d
       -0.0736679 0.09901247 0.23154457 0.09181269
0000b0 42 4e cb bd 63 82 61 be 76 f6 04 3e bb 97 9c bc
       -0.09927036 -0.22022395 0.12984642 -0.01911532
0000c0 41 64 e5 3d 95 7e a5 3e 6f 04 65 be 97 e1 20 3e
       0.112007625 0.32323137 -0.22364973 0.15711056
0000d0 ea 06 fe bd 27 a1 8e bd 4c ac 52 bd ba 4b 48 3e
       -0.124036625 -0.06964331 -0.051433846 0.19560137
0000e0 91 c9 9f be 0e 87 06 3e 55 ad 85 3d f9 54 60 3e
       -0.3120847 0.13137457 0.06527201 0.21907414
0000f0 2c 91 a6 bd 0d bd a3 3e 9e d0 1e 3e 9b 36 db 3c
       -0.08133158 0.31980172 0.15509269 0.026759436
000100 80 6a 08 3e fc bf 93 3e 65 16 3f 3d 41 b6 3b 3d
       0.13321877 0.2885741 0.046652216 0.045828108
000110 ce 63 16 be af d4 9e bd 42 0f 17 bb 9d a5 79 bd
       -0.1468651 -0.0775541 -0.0023049866 -0.060948957
000120 fa 2d 3c 3d ea 92 46 be 0e 5f 85 bd 6d 6e 6f bd
       0.045942284 -0.19391981 -0.06512271 -0.05845492
000130 b7 2a 54 3d aa cc e0 bd a4 77 38 be cb de 55 bd
       0.05179855 -0.109765366 -0.1801439 -0.052214425
000140 3e 9e 8e 3e 3a e7 dc 3c fd c0 96 3e 26 90 ab bd
       0.27855104 0.026965726 0.29444113 -0.083771035
000150 ea ee 87 3e 63 2b b0 3c 8a 2a aa bd 87 fc 02 be
       0.26549464 0.021505063 -0.08308895 -0.12791644
000160 25 09 48 3e 94 7e 00 be 1b 4f 0d be c0 e5 2b be
       0.19534738 -0.12548286 -0.13799708 -0.16786861
000170 0f bb 1e bd d9 fb c9 bd 1a 0c 96 3d 61 fe 07 be
       -0.03875261 -0.09862489 0.07326527 -0.13280632
000180 4f a0 25 3d b4 3a 96 be ca c2 94 3e 09 fe 5c 3e
       0.040436085 -0.29341662 0.29054862 0.21581282
000190 ba ce 12 3e e8 39 37 3e d9 74 11 be 71 3d 19 3d
       0.14336672 0.17893183 -0.1420473 0.03741211
0001a0 be 77 27 3c 92 ac d5 bd 6d 36 d4 3c 9e 47 67 3e
       0.01022142 -0.10433306 0.025904858 0.22585914
0001b0 9b 40 db 3c 23 61 0a be 96 7a 09 be b2 2b c1 3d
       0.026764205 -0.13513617 -0.13425669 0.09432162
0001c0 85 cd 9a 3e fc c2 7d 3c 29 06 82 be 7b c9 1b be
       0.30234924 0.015488382 -0.25395325 -0.15213577
0001d0 df 56 82 bd 4f 73 08 be c2 6a 4b 3e 00 70 ed bd
       -0.063642256 -0.13325237 0.19864944 -0.11593628
0001e0 b5 b7 d4 3d ba 0b 9a be 8e 04 4b 3d 96 71 5a bd
       0.10386602 -0.30087072 0.04956489 -0.05333098
0001f0 83 a3 f7 bd db a1 14 be de c4 35 3e 17 c8 7e be
       -0.12091734 -0.14514868 0.1775088 -0.24881016
000200 d3 6e 51 3e 90 b9 33 3e e1 2b 0d 3e e3 27 8a bd
       0.20452432 0.17551255 0.1378627 -0.06745889
000210 7b 33 a0 be 67 67 91 3e dc dd a4 3d 84 55 da 3c
       -0.31289276 0.28399202 0.08050129 0.026652105
000220 a9 6d 18 bd ff 1a 63 3e 04 6b ce 3e b9 8d 2f 3d
       -0.037213955 0.22178267 0.4031602 0.042859767
000230 e2 84 9d 3d f9 02 75 3e 2e ef e0 3d 65 d3 46 be
       0.07691361 0.23926915 0.1098312 -0.19416578
000240 8f 37 d2 3e 56 8e ed bd 46 22 04 3e e8 ed 96 bd
       0.41058013 -0.11599414 0.129037 -0.07369596
000250 cf 54 5a bc ee 51 7d 3b 7f 07 66 3d 32 f0 70 be
       -0.013325884 0.003865357 0.056159493 -0.23529127
000260 01 37 53 3e 9c a5 3a be b5 16 05 3e 93 4f 28 3d
       0.20626451 -0.18227237 0.12996943 0.041091513
000270 d1 94 89 3b bf 74 5f 3d 90 e6 84 bd a8 b0 fb 3d
       0.0041986485 0.054554697 -0.06489289 0.12289554
000280 84 20 4b be 9c cf 16 bd e3 23 62 bd b1 65 46 3a
       -0.19836622 -0.036819085 -0.055210005 0.0007568254
000290 48 ba ea 3d 50 18 1b 3e 05 1c 3b 3d 0e 3f aa bd
       0.114613116 0.15145993 0.04568102 -0.08312808
0002a0 9d 16 ea bd 9f 52 e4 3e f8 c8 45 bd f9 17 0e 3e
       -0.114300944 0.44594285 -0.04828736 0.13876332
0002b0 ed e7 06 be d3 02 46 3e 7b 57 a4 be df f6 79 be
       -0.1317441 0.19337015 -0.32097992 -0.2441058
0002c0 57 f2 98 bd e6 0e 71 be 53 1c 30 3e af 6d 16 be
       -0.07468098 -0.2354084 0.17198305 -0.14690278
0002d0 db 2b 64 3e 40 17 3e be a4 ef 18 3e 1e 34 9f bd
       0.22282355 -0.18563557 0.14935166 -0.077736124
0002e0 d5 d5 7a 3e c5 d2 08 be 32 f0 60 be d6 f8 da 3a
       0.24495633 -0.13361652 -0.21966627 0.0016706239
0002f0 0f 44 8f be c0 e4 7f be a9 da d9 3d 31 91 11 be
       -0.27981612 -0.24989605 0.10637409 -0.14215542
000300 9b 50 ac 3d 2d 0e bb be 28 6b 5f be 3d 5e 5c 3e
       0.08413812 -0.36534253 -0.2181822 0.21520324
000310 41 79 58 be 4b 35 eb bc e5 2c 57 bd 81 0b 7a 3b
       -0.21140005 -0.028711936 -0.05253305 0.003815383
000320 3b b8 63 3e e4 15 d7 bd cc e6 f3 3d d0 a7 7e bd
       0.22238247 -0.10502222 0.119092554 -0.062171757
000330 6e 05 ff bd 21 1e fa 3b 3e d0 51 3e e6 64 f4 be
       -0.124522075 0.007632986 0.20489594 -0.4773323
000340 92 d3 bb bd 27 54 76 be 7f e5 1b be 66 1e 55 ba
       -0.09171213 -0.24055539 -0.15224265 -0.0008129835
000350 1d 63 13 3e af b0 bf bc db 39 b2 bd 67 62 71 ba
       0.14393277 -0.023399679 -0.08702441 -0.00092080835
000360 1d fb 06 3e 41 1b 8d be 33 a7 b3 be 03 19 8c 3d
       0.1318173 -0.27559856 -0.350885 0.06840708
000370 3c a1 be 3d 43 64 c8 3e fb f5 a2 3d 29 5c e7 3d
       0.09308097 0.39138994 0.07957073 0.11296875
000380 5d 51 8b bd 02 96 9a 3e d2 ec 03 be ea 28 a0 3c
       -0.06802628 0.30192572 -0.12883309 0.01955076
000390 e8 8b e1 3d 02 b3 9e be bc 09 1e be fe 09 47 3e
       0.11013013 -0.30995947 -0.15433401 0.19437405
0003a0 48 bf 29 bc 8c f8 81 be cb 4f f8 bc 59 c2 e2 3d
       -0.010360546 -0.2538494 -0.030311486 0.11072225
0003b0 0c b5 4d be f8 96 3a 3e 73 a4 a5 bd f8 17 80 3d
       -0.20088595 0.18221653 -0.08088007 0.06254572
0003c0 cb 3b ec bc 49 09 80 bd db 6e e9 be d8 21 f2 3d
       -0.028837105 -0.06251771 -0.4559239 0.118228614
0003d0 bb 24 fb 3d 42 83 80 be bc 80 15 be 42 f5 dc 3d
       0.12262865 -0.25100142 -0.1459989 0.10788967
0003e0 58 6d 35 3c b9 1e bf bd c7 30 e6 3c 58 56 6b 3e
       0.011073433 -0.09332032 0.02809943 0.22982156
0003f0 5b 66 57 3d d1 de 65 be aa fb 15 be 69 12 56 3d
       0.05258785 -0.22448279 -0.14646783 0.05226365

linear_stack.0.bias f4 [16]
000000 67 c2 b1 3d 43 95 b2 be 04 26 4e 3e ff 33 80 3e
       0.086796574 -0.34879503 0.2013169 0.2503967
000010 bf 1d 67 3c d5 b1 a7 be 99 9a 1b be d4 cc 83 be
       0.014106213 -0.32752863 -0.15195693 -0.2574221
000020 c1 42 e6 3a 0e 60 30 be 47 46 49 be cb ad 64 be
       0.0017567502 -0.17224142 -0.19655715 -0.22331922
000030 d5 92 97 3c be 8e 9c 3b af f7 fd 3d dd a5 86 3e
       0.018502632 0.0047777584 0.124007575 0.2629842

linear_stack.3.weight f4 [8, 16]
000000 06 00 02 3e 86 b8 02 3d af e8 21 3e 9a ff 46 3d
       0.12695321 0.031914257 0.15811418 0.048583604
000010 d3 f6 ba bb 01 29 85 be db eb df bd 05 c9 88 bd
       -0.0057056933 -0.26007846 -0.10933658 -0.066789664
000020 f7 c9 f0 3a db 4b c8 be 59 59 b0 be 09 79 7c be
       0.0018370737 -0.39120373 -0.34443167 -0.24655546
000030 8b 4e 94 be 59 82 c5 3e 7c 1d 0f 3e ba e3 bb bd
       -0.28966174 0.3857601 0.13976091 -0.09174295
000040 1f 43 33 3e 17 51 ad bd 7f af a5 be 41 70 db 3d
       0.17506073 -0.08462732 -0.32360455 0.1071477
000050 3f 0d 78 be 2e e0 4f be a3 1e 8d 3c 3f 0e ae be
       -0.24223803 -0.20300362 0.017226523 -0.33995244
000060 4e bc e9 3d c5 24 ba be 83 0d dc 3e 26 c3 1c 3e
       0.114128694 -0.36356178 0.4297906 0.15308818
000070 8c 91 bc bc a1 60 9e 3e 94 c9 12 be 8a 76 3b 3a
       -0.02301862 0.30933097 -0.14334708 0.00071511476
000080 60 ad ee 3d 41 36 10 be d4 38 9c 3d 61 24 a7 3d
       0.116541624 -0.14083196 0.076280266 0.081612356
000090 1b e0 c8 be 6a d7 dd bd 9a fc 33 be 8e 0a 8c be
       -0.3923348 -0.108321026 -0.17576829 -0.27351803
0000a0 1b 2a e0 3c 2f e3 a8 bd d9 45 55 3e 14 83 3d be
       0.027363827 -0.08246457 0.20827426 -0.18507034
0000b0 d7 8a 93 bd df 4a 26 3e 9d a1 22 be af 9d 40 3e
       -0.07204216 0.16239499 -0.15881963 0.18810152
0000c0 dd 40 96 3e 94 49 bc bd 04 3b 35 3d 29 8b 46 3e
       0.29346362 -0.091937214 0.044245735 0.19389023
0000d0 77 35 e0 bd c4 9e 3b 3b 93 48 1e be f0 2c 96 bd
       -0.109476976 0.0028628567 -0.15457372 -0.0733279
0000e0 7d 85 13 be 1c c3 26 bd b6 99 4e be 3e 69 8f bd
       -0.1440639 -0.040713415 -0.20175824 -0.07002495
0000f0 cc 87 18 3b f5 e1 46 3e c7 73 ba 3d b2 e3 27 be
       0.00232743 0.19422133 0.09104114 -0.16395453
000100 44 d7 45 3e 9e 58 a1 bd e9 5d 9f be e0 81 02 be
       0.19320399 -0.078782305 -0.31126335 -0.12744856
000110 09 64 e7 3c 62 b7 5e be f5 c7 ce 3d f5 20 9a bd
       0.028245943 -0.21749642 0.100967325 -0.07525817
000120 03 51 27 bd bd 85 41 be ce cb a4 bd 24 52 b2 bd
       -0.040848743 -0.18898673 -0.08046685 -0.08707073
000130 f3 a6 75 be 51 3b 08 3e df ff 0b 3e ee 01 54 bd
       -0.23989467 0.13303877 0.13671826 -0.051759653
000140 2d 8f 1d be bd ad 7c 3e 3a b1 82 bc aa c5 d6 be
       -0.15386648 0.24675651 -0.015953649 -0.4194768
000150 9d c5 cc 3d c4 9d 86 3e 09 b1 5a 3e 19 97 88 3e
       0.09998629 0.2629224 0.21356596 0.26677778
000160 85 34 46 be a4 1a 37 3e 41 b0 ea bc af 85 d5 3d
       -0.19355972 0.17881256 -0.028648498 0.10425889
000170 5d ca 06 3e 52 20 2d be 49 be 9b be 89 d1 b9 be
       0.13163133 -0.1690686 -0.30418614 -0.36292675
000180 80 4c b0 bd be 34 95 3e f9 75 a8 3c c9 5f d6 be
       -0.08608341 0.29141802 0.020564066 -0.41869953
000190 7b 6d 99 bd a0 21 4c 3d 0b a4 07 3d 4c 1f 24 3e
       -0.07491585 0.049836755 0.033115428 0.16027564
0001a0 a3 71 63 be e5 87 11 3e d0 7a 63 bd ab 26 11 3e
       -0.22211318 0.14211996 -0.055537045 0.14174907
0001b0 1e b6 21 3e 16 61 c3 bd bd 88 4f bd 5d a1 68 bd
       0.15792128 -0.09540002 -0.050667513 -0.056794513
0001c0 5a 31 d3 bd 2a 69 29 3e 48 64 b4 bc 25 30 31 be
       -0.103121474 0.16544023 -0.022020474 -0.17303522
0001d0 fa a1 51 bc ee dc bf 3e e8 40 ae 3e e2 9d d9 3d
       -0.012794966 0.37473243 0.34033895 0.10625817
0001e0 bb 75 cc 3c 12 15 98 3e c0 80 1b bd 97 33 8d 3e
       0.024958482 0.29703575 -0.037964582 0.27578422
0001f0 d1 63 a7 3e 88 65 d3 bd 52 da e4 bd a1 7d bc be
       0.3269334 -0.103221 -0.11174454 -0.36814597

linear_stack.3.bias f4 [8]
000000 21 81 73 3e 63 79 44 bd 01 81 2a 3e 58 f5 6e bd
       0.23779728 -0.047967326 0.16650774 -0.058339447
000010 0b ad 93 bd 2c 8e 02 3e 5d c7 0d 3e 1f e5 b3 3d
       -0.0721074 0.12749547 0.13845582 0.08783936

linear_stack.6.weight f4 [2, 8]
000000 68 02 e6 3c d4 94 8b 3c fa c6 a7 be 0e 91 ba be
       0.02807732 0.01703874 -0.32768995 -0.36438793
000010 08 af 77 be d4 8a d2 3e a7 0d ca 3e da c4 de 3e
       -0.24187863 0.41121542 0.3946354 0.4350956
000020 10 9c 47 3e c2 aa bc 3e ed 14 e6 bd ab 29 0a be
       0.19493127 0.36849028 -0.1123446 -0.13492458
000030 d4 1d 2a 3e db 24 bf bd 52 c1 3e be 68 af 00 3e
       0.16612941 -0.093332015 -0.18628433 0.12566912

linear_stack.6.bias f4 [2]
000000 84 6f 49 bc bf b3 00 bd
       -0.012294654 -0.03142142
