models/model_zs_c2_s0.1_b16_lr0.001_d0.5_e100.pth (torch, 4255 bytes, 6 tensors)

linear_stack.0.weight f4 [16, 16]
0.3504133 0.67549205 0.091735564 0.09925404 -0.10273252 0.0055270474 -0.035483208 0.12438376
-0.013171572 0.23671924 -0.10117374 -0.06107387 0.010103145 0.20926476 -0.005903581 -0.19707413
0.18940125 0.42450988 0.17190057 -0.017975988 0.27647737 0.03681753 0.30855086 -0.09313855
-0.016294602 -0.111161955 -0.36248106 0.39709267 -0.09360964 -0.041454285 -0.12372885 -0.076425605
0.17101969 0.10475147 -0.026817879 0.084436305 0.10915569 -0.2004211 0.052469607 0.30938435
-0.34254345 0.12016655 -0.29232532 0.145064 -0.019682426 -0.4315476 0.104820706 -0.18928024
0.5160758 0.54994565 -0.23484316 0.14916931 -0.17288327 -0.006983169 -0.013964786 0.031373568
0.07550383 0.23437518 -0.3576712 0.18431108 0.016320424 0.10630768 -0.104281195 -0.11440648
0.28856316 0.48475245 0.047080867 0.19074938 0.038025502 -0.17473662 -0.11641645 0.14421229
-0.13030894 -0.19171159 -0.3719137 0.046773974 -0.12041413 -0.42126566 -0.08486872 -0.03919478
0.12812345 0.41895115 0.03833667 -0.059320774 0.33725837 -0.08809944 -0.1689367 0.20251372
0.01256467 -0.12488611 -0.21134087 -0.36358428 -0.23244435 -0.42992833 -0.0432671 -0.2715564
0.027583016 -0.031466935 -0.07122563 0.03238484 -0.0030586557 -0.00066561816 0.0019224212 -0.20196077
-0.25952062 -0.28373086 -0.29590723 0.2823217 -0.15838589 -0.086577125 -0.05885592 0.46648216
-0.090130106 -0.4185967 -0.19962884 -0.11751383 -0.052616533 -0.046566885 0.27855828 -0.010334253
-0.14613552 -0.3204884 0.48389244 -0.07850408 -0.17067462 0.24366271 -0.32772171 0.10761432
0.76258826 0.7920746 0.056605827 0.101535894 -0.05767864 -0.025578186 0.047824915 0.11351951
-0.0033253084 0.1313004 -0.0016554856 -0.014527733 0.10268354 0.35982484 -0.04299966 -0.15926188
0.37565655 0.60571223 -0.13268653 -0.026534365 0.009026489 0.055270348 0.06911712 -0.08432615
0.15656158 0.11619875 0.109932415 -0.06984982 -0.009244247 0.3545799 -0.10708038 -0.058392126
0.18472007 0.22151792 -0.027747529 -0.05689478 0.07342927 0.06719322 0.06239025 -0.017936489
0.065613165 0.3156085 -0.45241806 0.24337696 0.03382247 -0.23150608 -0.11225718 -0.331169
-0.047079396 -0.015929025 0.015559147 -0.27225596 0.030897578 -0.023473367 0.01039633 -0.1093416
-0.18382436 -0.37586918 -0.4513707 0.42464712 -0.2134017 -0.31385025 0.21043552 0.235221
-0.090297595 -0.27336133 -0.15373796 0.29236448 -0.024832737 -0.29949018 -0.08683986 0.10965391
0.30161187 0.03722654 0.051601857 -0.5003929 -0.16757499 -0.116576605 0.20641975 -0.540835
0.15567784 0.5540892 0.032112293 -0.024597783 0.09708053 -0.0059991414 -0.03775552 0.0298006
0.14312023 0.2304047 -0.46221346 0.25305313 -0.057483424 -0.24142492 -0.13648418 -0.19810912
0.16255112 -0.3177905 0.12339939 -0.046791736 0.007767647 -0.19325948 0.098124616 -0.07039009
0.1186835 -0.12803303 0.077353224 -0.4298245 0.10264957 0.41459623 -0.17935725 -0.08329321
0.28731006 0.22277388 -0.24667406 0.0838167 0.032273613 -0.13260366 -0.20276372 0.12498422
0.010376191 -0.242181 -0.4930552 0.17973882 -0.14619471 -0.42114723 -0.04148642 -0.0067883837
00000000: 5f69 b33e 0ced 2c3f dbdf bb3d b445 cb3d
00000010: 6d65 d2bd 3c1c b53b d756 11bd eabc fe3d
00000020: 94cd 57bc 8766 723e 2e34 cfbd 9828 7abd
00000030: a987 253c 8049 563e d472 c1bb cdcd 49be
00000040: 67f2 413e 5c59 d93e b406 303e 6142 93bc
00000050: 718e 8d3e facd 163d 61fa 9d3e 6dbf bebd
00000060: 427c 85bc e1a8 e3bd 1e97 b9be bb4f cb3e
00000070: 69b6 bfbd f8cb 29bd 8d65 fdbd 0785 9cbd
00000080: c91f 2f3e f087 d63d 2bb1 dbbc f1ec ac3d
00000090: 058d df3d 303b 4dbe 5fea 563d a067 9e3e
000000a0: db61 afbe e119 f63d aaab 95be a88b 143e
000000b0: 0a3d a1bc cff3 dcbe 3dac d63d aed2 41be
000000c0: 8b1d 043f 3dc9 0c3f ba7a 70be d7bf 183e
000000d0: 5008 31be 11d3 e4bb 8fcc 64bc 9281 003d
000000e0: c1a1 9a3d 0c00 703e ae20 b7be 0bbc 3c3e
000000f0: 69b2 853c d7b7 d93d 6191 d5bd f24d eabd
00000100: 8dbe 933e 7931 f83e ded7 403d ce53 433e
00000110: a1c0 1b3d 28ee 32be bf6b eebd 63ac 133e
00000120: b56f 05be 0b50 44be 796b bebe 1196 3f3d
00000130: af9b f6bd 22b0 d7be a7cf adbd b58a 20bd
00000140: cb32 033e c480 d63e e906 1d3d 57fa 72bd
00000150: 21ad ac3e 7b6d b4bd befd 2cbe c25f 4f3e
00000160: 0cdc 4d3c 4ac4 ffbd be69 58be b827 babe
00000170: e405 6ebe 911f dcbe d838 31bd 7109 8bbe
00000180: c7f5 e13c 79e3 00bd bede 91bd f7a5 043d
00000190: ba73 48bb e17c 2eba c0f9 fb3a cece 4ebe
000001a0: e3df 84be 2c45 91be 2781 97be 788c 903e
000001b0: e92f 22be 594f b1bd e812 71bd c0d6 ee3e
000001c0: 2296 b8bd 4f52 d6be 816b 4cbe 17ab f0bd
000001d0: 6f84 57bd ebbc 3ebd 319f 8e3e 0051 29bc
000001e0: 8da4 15be 0e17 a4be c0c0 f73e bfc6 a0bd
000001f0: 54c5 2ebe b882 793e 24cb a7be e664 dc3d
00000200: fc38 433f 67c5 4a3f 83db 673d 0df2 cf3d
00000210: 7040 6cbd 5889 d1bc 0fe4 433d eb7c e83d
00000220: 6bed 59bb 9d73 063e e1fc d8ba bb05 6ebc
00000230: bf4b d23d f63a b83e 6920 30bd 8c15 23be
00000240: 0e56 c03e f50f 1b3f fade 07be 995e d9bc
00000250: d7e3 133c 2963 623d 478d 8d3d 30b3 acbd
00000260: ae51 203e 9cf9 ed3d 3f24 e13d 6c0d 8fbd
00000270: 2f75 17bc 7f8b b53e f54c dbbd 952c 6fbd
00000280: 4227 3d3e 98d5 623e c94e e3bc 800a 69bd
00000290: 1662 963d 999c 893d eb8c 7f3d 8bef 92bc
000002a0: 3260 863d 7097 a13e 57a3 e7be cf37 793e
000002b0: 6e89 0a3d ee0f 6dbe 18e7 e5bd fc8e a9be
000002c0: 53d6 40bd 967d 82bc cbeb 7e3c 2265 8bbe
000002d0: eb1c fd3c 384b c0bc 5e55 2a3c 7dee dfbd
000002e0: 743c 3cbe ed71 c0be 0f1a e7be 596b d93e
000002f0: fa85 5abe fbb0 a0be 697c 573e c6dd 703e
00000300: f2ed b8bd 04f6 8bbe 7c6d 1dbe ccb0 953e
00000310: 066e cbbc c756 99be 19d9 b1bd 3b92 e03d
00000320: df6c 9a3e db7a 183d 785c 533d c019 00bf
00000330: c798 2bbe b7bf eebd b35f 533e 2a74 0abf
00000340: 036a 1f3e cad8 0d3f 2e88 033d 4a81 c9bc
00000350: 28d2 c63d 7294 c4bb 88a5 1abd 6320 f43c
00000360: 1c8e 123e 36ef 6b3e 3ea7 ecbe 2e90 813e
00000370: bd73 6bbd 1838 77be 82c2 0bbe 1edd 4abe
00000380: cd73 263e 70b5 a2be d2b8 fc3d b1a8 3fbd
00000390: bf87 fe3b d0e5 45be 8ff5 c83d ae28 90bd
000003a0: 5610 f33d 171b 03be 5e6b 9e3d f511 dcbe
000003b0: f039 d23d f545 d43e 6da9 37be a195 aabd
000003c0: 4e1a 933e d61e 643e 2098 7cbe 17a8 ab3d
000003d0: 5631 043d 41c9 07be 4ba1 4fbe baf7 ff3d
000003e0: e600 2a3c 4cfe 77be bb71 fcbe 740d 383e
000003f0: 11b4 15be 9ca0 d7be aaed 29bd 1771 debb

linear_stack.0.bias f4 [16]
-0.09842074 -0.3289808 -0.03407378 -0.11683045 0.035718888 -0.21572241 -0.26286295 -0.39992335
-0.3648745 -0.45434928 -0.22686352 -0.45248845 -0.28688133 0.1040918 -0.274109 0.07486038
00000000: d090 c9bd 2c70 a8be f390 0bbd ce44 efbd
00000010: f84d 123d 56e6 5cbe f995 86be c1c2 ccbe
00000020: d5d0 babe 78a0 e8be e94e 68be 91ac e7be
00000030: 1ce2 92be 152e d53d 0458 8cbe 6650 993d

linear_stack.3.weight f4 [8, 16]
-0.48306623 -0.5242496 -0.38277552 -0.72144586 -0.6447061 -0.51701 -0.33312553 0.39342794
-0.35351935 -0.38796577 -0.5335334 -0.2883625 0.027213573 -0.67422026 0.1580717 -0.4198271
0.21066307 0.41229853 0.036158137 0.33934078 -0.08591518 -0.24181882 0.313159 -0.15455657
0.6507854 0.47784886 0.36358735 0.30651918 -0.5723079 0.09662026 -0.28483826 -0.07808604
0.1679295 0.4509253 0.0688368 0.25208268 0.023750387 -0.08027263 -0.30139142 -0.19070917
0.5338253 0.44775277 0.29703328 -0.8277207 -0.70379406 0.004722123 -0.5218408 0.0010746741
0.1090286 0.48413923 0.15616548 0.33081165 -0.17630157 -0.34760913 -0.12764291 -0.016433682
0.43113717 0.42449212 0.09169526 -0.84731764 -0.6033263 0.05372649 -0.26076454 -0.124483906
0.22348566 0.4262601 -0.034894634 0.09414602 -0.08111776 -0.43935454 0.31724837 -0.30194575
0.4496171 0.3282244 0.29300427 -0.0057362164 -0.43576083 0.10497374 -0.2503061 -0.0683909
-0.38011795 -0.40623382 -0.3284171 -0.59957945 -0.32614264 -0.11518282 -0.116252966 0.5418171
-0.24685346 -0.2853793 -0.39519387 -0.16454816 4.8177353e-05 -0.8460115 0.22643265 -0.25927404
-0.33015656 -0.39252582 -0.36420974 -0.48618427 -0.6290973 -0.48862427 -0.28100136 0.26751113
-0.25194886 -0.23931873 -0.42537278 -0.35117114 0.05657482 -0.67374825 0.13583088 -0.41289914
0.14674829 0.4687673 0.08608348 0.41345575 -0.07145879 -0.17218664 0.25106713 -0.22427791
0.6566014 0.62212193 0.356483 0.19863898 -0.63921 0.10603381 -0.52576405 0.018646186
00000000: 7554 f7be 3935 06bf 27fb c3be adb0 38bf
00000010: 750b 25bf c45a 04bf 6e8f aabe 636f c93e
00000020: 7d00 b5be 73a3 c6be a595 08bf 40a4 93be
00000030: 00ef de3c b399 2cbf 8cdd 213e 94f3 d6be
00000040: 0fb8 573e cb18 d33e 8e1a 143d 13be ad3e
00000050: 4cf4 afbd 5a9f 77be 6056 a03e 1444 1ebe
00000060: df99 263f 9ba8 f43e 1f28 ba3e 15f0 9c3e
00000070: c582 12bf d8e0 c53d 52d6 91be 93eb 9fbd
00000080: b6f5 2b3e aedf e63e 4ffa 8c3d fb10 813e
00000090: 2c90 c23c fa65 a4bd fa4f 9abe 4449 43be
000000a0: c6a8 083f da3f e53e bf14 983e 81e5 53bf
000000b0: d92b 34bf 0abc 9a3b 5c97 05bf 14dc 8c3a
000000c0: 634a df3d 19e1 f73e d8e9 1f3e 2560 a93e
000000d0: 6688 34be d3f9 b1be d3b4 02be ee9f 86bc
000000e0: 03be dc3e 0857 d93e b9ca bb3d cfe9 58bf
000000f0: 9873 1abf 4f10 5c3d ee82 85be 6bf1 febd
00000100: 6dd9 643e c43e da3e aded 0ebd a1cf c03d
00000110: 1121 a6bd 14f3 e0be 616e a23e a298 9abe
00000120: 3634 e63e 070d a83e a804 963e dff6 bbbb
00000130: 0b1c dfbe 79fc d63d 1f28 80be 8710 8cbd
00000140: d29e c2be e1fd cfbe 4926 a8be 0a7e 19bf
00000150: 2bfc a6be f8e4 ebbd 0916 eebd 87b4 0a3f
00000160: 27c7 7cbe 3c1d 92be da56 cabe 507f 28be
00000170: 0a12 4a38 3694 58bf f6dd 673e 91bf 84be
00000180: 480a a9be 25f9 c8be b379 babe 25ed f8be
00000190: 850c 21bf f62c fabe 69df 8fbe 38f7 883e
000001a0: 71ff 80be f80f 75be 76ca d9be b4cc b3be
000001b0: 00bb 673d c47a 2cbf 4017 0b3e 8467 d3be
000001c0: 2f45 163e 4402 f03e 894c b03d 79b0 d33e
000001d0: fc58 92bd b251 30be df8b 803e 1ca9 65be
000001e0: 0817 283f 6243 1f3f f184 b63e 0468 4b3e
000001f0: 44a3 23bf 4128 d93d 7998 06bf e3bf 983c

linear_stack.3.bias f4 [8]
0.26091906 0.016248997 0.0115397815 -0.0041467156 0.0038596871 0.22666578 0.1909616 0.00814959
00000000: 2f97 853e 9e1c 853c 5a11 3d3c 2ce1 87bb
00000010: cef2 7c3b 131b 683e 708b 433e dc85 053c

linear_stack.6.weight f4 [2, 8]
0.72886956 -0.15321042 -0.5814242 -0.7314936 -0.6034746 0.66750234 0.97128844 -0.03848603
-0.5058598 0.5387379 0.14138916 0.23218058 0.5277229 -0.34961617 -0.7629399 0.5992522
00000000: 3297 3a3f 31e3 1cbe 37d8 14bf 2a43 3bbf
00000010: 507d 1abf 6fe1 2a3f 5ca6 783f 87a3 1dbd
00000020: 0780 01bf baea 093f 52c8 103e bfc0 6d3e
00000030: d918 073f e400 b3be 0750 43bf 9868 193f

linear_stack.6.bias f4 [2]
-0.062368188 0.018652255
00000000: c975 7fbd 9dcc 983c
