models/model_zj_c2_s0.1_b16_lr0.001_d0.5_e100.pth (torch, 4255 bytes, 6 tensors)

linear_stack.0.weight f4 [16, 16]
-0.16078867 0.51160014 0.19016586 0.007066791 -0.022312503 0.045875397 0.19451115 -0.16293591
-0.110434584 -0.17137249 -0.12601145 -0.44718045 0.1527142 0.11209913 0.19186367 -0.052166305
-0.049170457 -0.004560302 -0.10884046 -0.1285054 0.20056292 -0.013062693 0.2483087 -0.114100784
-0.1189559 -0.2597477 -0.37413007 0.6116928 -0.09544771 -0.27150983 0.25674614 -0.019342713
0.03523627 -0.43229195 -0.23148192 -0.14743297 -0.26120573 0.10468605 0.050343424 -0.03997858
-0.008294552 0.3070553 0.3123464 0.023019942 0.04366512 -0.42359197 -0.016036175 0.15133856
0.14931655 0.45912474 0.10663121 0.21697915 0.015277052 -0.13244788 0.060896076 -0.028619774
-0.31574243 -0.23898686 -0.100402035 0.08529569 -0.26088157 0.15977554 0.14296183 -0.25799525
0.33376107 0.6050057 -0.105693944 0.26123524 0.07416422 0.01880914 -0.015430422 -0.017293284
0.02104618 -0.22947975 -0.32338926 -0.18175873 -0.20815729 0.0038909886 0.07983047 -0.16926429
-0.11681388 0.34564665 0.19231237 -0.16285351 0.31825244 0.08708087 -0.19349635 -0.049722932
0.10110511 -0.1207617 -0.049153745 -0.35840163 0.23754312 0.0852539 0.012675048 -0.1900257
0.08383455 -0.1475592 -0.06694147 -0.022622304 -0.16320361 0.16776992 0.020082105 0.22488096
-0.10656138 0.35698444 0.19766049 0.20632878 -0.13511361 -0.544059 0.051971365 0.09324912
0.11186504 -0.4780915 -0.25619325 -0.08131631 -0.28604028 -0.061667982 -0.006776192 -0.21820351
-0.18759984 -0.18180932 0.12730294 0.14915186 -0.05573711 0.07654772 0.23168415 -0.042237364
-0.072827645 0.38797057 0.08015445 0.0582294 -0.24155532 0.19241653 0.06977445 -0.074928485
0.034030728 0.16413368 0.14295433 -0.30720508 -0.14130501 0.04064126 0.10584914 -0.22248963
0.040047303 0.17596026 -0.015547417 -0.08807977 0.02380941 -0.08680591 0.017412659 -0.0069725746
-0.008620602 -0.16773766 0.08613979 0.4116784 -0.18896754 -0.7029724 -0.07169867 0.109349735
-0.2887164 -0.3376926 0.19243728 0.05228101 -0.00946597 0.03485551 0.011484876 0.19527376
-0.2809002 0.01368961 -0.20198597 -0.18784146 -0.1829258 0.6233075 -0.12737793 0.07331288
-0.23496364 -0.1606612 0.141514 -0.09219714 0.26092917 -0.39704603 0.050565217 0.14508785
0.011285794 -0.094101794 -0.13738035 -0.1536028 -0.3711301 0.36646053 -0.05447568 -0.12400124
0.116498575 0.29263335 -0.30030283 0.3451122 -0.085989326 -0.009565132 0.05837063 0.00872946
-0.049383786 -0.36918926 -0.3139092 0.26938078 -0.28924185 -0.09956549 0.2639685 -0.25098315
0.15802498 0.2707728 -0.02257383 -0.06727002 0.08347483 -0.044522427 -0.041012503 -0.037077937
0.069426335 -0.3202396 -0.09954893 0.5102941 -0.19774923 -0.42510036 0.036438685 0.0043659895
0.34637776 0.19213429 -0.24034995 0.06641584 0.19474871 -0.31162924 -0.096516185 0.13998963
0.3018276 -0.16158798 0.0855288 0.23346867 -0.40753675 -0.17853889 -0.42522532 -0.17811358
0.23740666 -0.30749848 -0.35902202 0.18393804 0.23551193 -0.23847121 0.0027185588 0.14878076
0.221918 -0.13357814 0.08475694 0.3582912 -0.2134994 -0.2825238 -0.4158406 -0.18022111
00000000: c9a5 24be 3af8 023f d7ba 423e 8a90 e73b
00000010: b6c8 b6bc d7e7 3b3d ee2d 473e acd8 26be
00000020: 872b e2bd 457c 2fbe 2509 01be d6f4 e4be
00000030: 1c61 1c3e 3b94 e53d e977 443e 56ac 55bd
00000040: f666 49bd 966e 95bb bfe7 debd eb96 03be
00000050: 5e60 4d3e e804 56bc a344 7e3e acad e9bd
00000060: 279f f3bd a7fd 84be fa8d bfbe e697 1c3f
00000070: 177a c3bd 5603 8bbe 3b74 833e 9c74 9ebc
00000080: e853 103d 5f55 ddbe 9909 6dbe abf8 16be
00000090: c2bc 85be a465 d63d e834 4e3d 94c0 23bd
000000a0: dfe5 07bc 5a36 9d3e deeb 9f3e 5194 bc3c
000000b0: 32da 323d 0ce1 d8be 4c5e 83bc 7ff8 1a3e
000000c0: 70e6 183e 6612 eb3e 7761 da3d c82f 5e3e
000000d0: 9a4c 7a3c 6ba0 07be 2a6e 793d 0474 eabc
000000e0: fea8 a1be f9b8 74be 959f cdbd 82af ae3d
000000f0: 4592 85be 339c 233e 9664 123e f417 84be
00000100: bbe2 aa3e a7e1 1a3f 1176 d8bd a0c0 853e
00000110: 69e3 973d a015 9a3c e1cf 7cbc a5aa 8dbc
00000120: 0a69 ac3c bdfc 6abe 4793 a5be f61e 3abe
00000130: 2f27 55be f5ff 7e3b 287e a33d 9e53 2dbe
00000140: 1e3c efbd 99f8 b03e 89ed 443e 12c3 26be
00000150: fcf1 a23e 7557 b23d e823 46be 46aa 4bbd
00000160: 3210 cf3d e951 f7bd 7055 49bd 6b80 b7be
00000170: 813e 733e 9999 ae3d 01ab 4f3c 1996 42be
00000180: 73b1 ab3d c219 17be 9c18 89bd 6952 b9bc
00000190: d91e 27be e1cb 2b3e 3a83 a43c 3247 663e
000001a0: da3c dabd aac6 b63e 8367 4a3e da47 533e
000001b0: 395b 0abe 7347 0bbf eddf 543d 65f9 be3d
000001c0: 8019 e53d 69c8 f4be c32b 83be 2a89 a6bd
000001d0: df73 92be 9197 7cbd d20a debb be70 5fbe
000001e0: 2c1a 40be 392c 3abe b45b 023e 44bb 183e
000001f0: 994c 64bd 0dc5 9c3d 9c3e 6d3e 1601 2dbd
00000200: a926 95bd 14a4 c63e 0428 a43d f481 6e3d
00000210: 475a 77be d708 453e e8e5 8e3d 1b74 99bd
00000220: ce63 0b3d a912 283e 9f62 123e fc49 9dbe
00000230: 43b2 10be 7377 263d 6fc7 d83d 52d4 63be
00000240: a408 243d ed2e 343e 98ba 7ebc 2b63 b4bd
00000250: f40b c33c 4cc7 b1bd fea4 8e3c 327a e4bb
00000260: 6d3d 0dbc 6cc3 2bbe 0f6a b03d 83c7 d23e
00000270: b580 41be 00f6 33bf c1d6 92bd c1f2 df3d
00000280: a3d2 93be 0be6 acbe 470e 453e 9d24 563d
00000290: 2817 1bbc a7c4 0e3d 102b 3c3c d8f5 473e
000002a0: 27d2 8fbe 634a 603c 69d5 4ebe 8359 40be
000002b0: e750 3bbe 1591 1f3f 5c6f 02be 1025 963d
000002c0: 4f9a 70be 5f84 24be 0ce9 103e dbd1 bcbd
000002d0: 8298 853e 9e49 cbbe 791d 4f3d e991 143e
000002e0: 0de8 383c 71b8 c0bd 6fad 0cbe 0d4a 1dbe
000002f0: c404 bebe b7a0 bb3e e421 5fbd 5df4 fdbd
00000300: ce96 ee3d 0ad4 953e 4bc1 99be 8cb2 b03e
00000310: 2c1b b0bd 12b7 1cbc 0b16 6f3d 0206 0f3c
00000320: a746 4abd 6006 bdbe b5b8 a0be 47ec 893e
00000330: 8217 94be fee8 cbbd e126 873e dd80 80be
00000340: 4dd1 213e bca2 8a3e c1ec b8bc ddc4 89bd
00000350: daf4 aa3d 265d 36bd bafc 27bd 09df 17bd
00000360: 652f 8e3d 72f6 a3be 4fe0 cbbd a2a2 023f
00000370: c67e 4abe c1a6 d9be bb40 153d 9310 8f3b
00000380: 6d58 b13e dabe 443e 4c1e 76be 0705 883d
00000390: 356c 473e de8d 9fbe 47aa c5bd 7159 0f3e
000003a0: 2689 9a3e 5277 25be b929 af3d 6912 6f3e
000003b0: a8a8 d0be e6d2 36be 22b7 d9be 6863 36be
000003c0: bb1a 733e 7170 9dbe bcd1 b7be 415a 3c3e
000003d0: 0a2a 713e cc31 74be d929 323b fc59 183e
000003e0: 793e 633e b5c8 08be 0c95 ad3d f271 b73e
000003f0: 969f 5abe f6a6 90be 0fe9 d4be e28b 38be

linear_stack.0.bias f4 [16]
-0.33042517 -0.37599692 -0.33237264 -0.20072009 -0.10149176 -0.47972852 -0.40592638 -0.8481681
-0.20632832 -0.16505235 -0.61752456 -0.5894672 -0.23564617 -0.039915785 -0.17085871 -0.37893635
00000000: 7d2d a9be ab82 c0be bf2c aabe 9189 4dbe
00000010: e9da cfbd fa9e f5be 95d5 cfbe 8b21 59bf
00000020: bb47 53be 7c03 29be 1716 1ebf 53e7 16bf
00000030: 3b4d 71be bc7e 23bd 96f5 2ebe f203 c2be

linear_stack.3.weight f4 [8, 16]
-0.36619708 -0.60443515 0.42311603 -0.0597544 -0.6700819 -0.51738566 0.41089326 0.5127049
-0.016579838 -0.6423068 0.17495471 0.68419284 -0.60573214 -0.3107938 -0.3953708 -0.5076675
-0.409832 -0.54526186 0.16679978 -0.014165379 -0.77012855 -0.61230487 0.5243842 0.24042006
-0.022299124 -0.46237296 0.7604301 0.5537068 -0.62544525 -0.30902562 -0.68355256 -0.5506965
0.21195939 0.62194985 -0.19996174 -0.3771665 -0.092456765 0.42737767 -0.19112521 -0.4151267
-0.23333798 0.391275 -0.22821182 -0.27029324 0.101906076 -0.009797654 -0.023007458 0.54850453
0.27115393 0.66518927 -0.13468532 -0.31724268 -0.014097258 0.5061933 -0.11397962 -0.36358428
-0.43173808 0.25851908 -0.20987551 -0.34351283 0.023180723 0.042044062 0.08746366 0.46065587
0.29177085 0.4803544 -0.14268236 -0.6528352 0.029768674 0.15785451 -0.120563135 -0.35950232
-0.35700172 0.21837518 -0.240714 -0.27543268 0.08666541 -0.014798387 0.07816735 0.36691695
-0.33459112 -0.37003618 0.40320587 -0.06426124 -0.64879584 -0.36293915 0.40026507 0.47117227
0.017897887 -0.40245745 0.70414174 0.40137577 -0.541982 -0.27379596 -0.64184445 -0.5317902
-0.3370801 -0.369134 0.3097208 -0.02185934 -0.59604955 -0.4087594 0.34022295 0.4064682
-0.016286116 -0.45087585 -0.452312 0.5207201 -0.41447896 -0.2428338 -0.3680888 -0.3065335
-0.3249818 -0.54520905 0.42576152 -0.01955048 -0.7208087 -0.47325888 0.44550747 0.43303445
-0.046384353 -0.42979738 0.7938633 0.5715403 -0.60980135 -0.3476909 -0.7032328 -0.61146414
00000000: 2f7e bbbe 43bc 1abf aaa2 d83e 08c1 74bd
00000010: 7d8a 2bbf 6373 04bf 9a60 d23e a140 033f
00000020: 71d2 87bc 386e 24bf 5427 333e 4327 2f3f
00000030: 4311 1bbf 5d20 9fbe 0b6e cabe 7ff6 01bf
00000040: 80d5 d1be 4896 0bbf 90cd 2a3e e815 68bc
00000050: 2527 45bf 03c0 1cbf 0b3e 063f ad30 763e
00000060: a7ac b6bc 26bc ecbe 8cab 423f bbbf 0d3f
00000070: 2e1d 20bf 9b38 9ebe 4dfd 2ebf 72fa 0cbf
00000080: e20b 593e 1b38 1f3f c5c2 4cbe f81b c1be
00000090: f959 bdbd 3fd1 da3e 54b6 43be 7d8b d4be
000000a0: 27f0 6ebe 3255 c83e 5cb0 69be e063 8abe
000000b0: 22b4 d03d 5786 20bc 237a bcbc cb6a 0c3f
000000c0: b0d4 8a3e d849 2a3f f3ea 09be a26d a2be
000000d0: 30f8 66bc e295 013f 266e e9bd b827 babe
000000e0: c60c ddbe 9d5c 843e 9be9 56be eae0 afbe
000000f0: 80e5 bd3c 6536 2c3d 2620 b33d 16db eb3e
00000100: fd62 953e 03f1 f53e 531b 12be 3520 27bf
00000110: 6fdd f33c 9da4 213e cee9 f6bd b010 b8be
00000120: eec8 b6be be9d 5f3e bb7d 76be 8305 8dbe
00000130: a27d b13d ef74 72bc 3416 a03d 8adc bb3e
00000140: 874f abbe 6275 bdbe 0071 ce3e 669b 83bd
00000150: 7c17 26bf 29d3 b9be 8bef cc3e 7e3d f13e
00000160: 979e 923c e70e cebe a242 343f 2081 cd3e
00000170: 55bf 0abf fc2e 8cbe eb4f 24bf 6723 08bf
00000180: c395 acbe 22ff bcbe ba93 9e3e 5c12 b3bc
00000190: b496 18bf e948 d1be b431 ae3e 9a1c d03e
000001a0: 766a 85bc 33d9 e6be 7095 e7be ea4d 053f
000001b0: 9636 d4be 6ca9 78be 2376 bcbe f5f1 9cbe
000001c0: 0464 a6be d292 0bbf 6afd d93e 5428 a0bc
000001d0: eb86 38bf fd4e f2be 8e19 e43e b1b6 dd3e
000001e0: 85fd 3dbd 670e dcbe a03a 4b3f 7750 123f
000001f0: f11b 1cbf 8b04 b2be 1107 34bf ea88 1cbf

linear_stack.3.bias f4 [8]
0.16917554 0.15601386 0.049788546 0.044003043 0.07747231 0.12551022 0.12938546 0.15535305
00000000: 5a3c 2d3e 19c2 1f3e 13ef 4b3d 893c 343d
00000010: cda9 9e3d c085 003e 9f7d 043e df14 1f3e

linear_stack.6.weight f4 [2, 8]
0.7101727 0.917716 -0.5465865 -0.61770284 -0.48777592 0.87760764 0.8814677 0.9298957
-0.4871637 -0.5321876 0.10654984 0.11838907 0.4120268 -0.55972224 -0.67311776 -0.36912385
00000000: e1cd 353f 70ef 6a3f 18ed 0bbf c621 1ebf
00000010: c4bd f9be e5aa 603f dea7 613f a50d 6e3f
00000020: 856d f9be 723d 08bf cd36 da3d f875 f23d
00000030: 2df5 d23e f549 0fbf 7251 2cbf cdfd bcbe

linear_stack.6.bias f4 [2]
-0.35127667 0.30756032
00000000: 89da b3be 8c78 9d3e
