models/model_sk_c2_s0.1_b16_lr0.001_d0.5_e20.pth (torch, 4255 bytes, 6 tensors)

linear_stack.0.weight f4 [16, 16]
-0.14731012 0.2420411 0.24222587 -0.034605347 -0.19091961 -0.055714957 0.21153228 0.097912505
0.006375816 0.0880374 -0.065493494 -0.28711236 0.2457488 0.03913129 0.34112358 -0.03701545
-0.028590836 0.15463719 0.081635065 0.013754142 0.38885912 -0.20700751 0.1683121 0.10394535
-0.026235357 -0.04817831 -0.07863176 0.13970888 -0.39317983 -0.12676673 0.09961283 -0.300715
0.4498063 -0.14967357 0.12938647 -0.052077606 -0.07438044 -0.08261822 0.16151647 0.1341554
0.09392748 0.18807136 0.19867672 0.078728914 -0.014602608 -0.21009624 -0.015850302 0.014290439
0.12589268 0.24122454 -0.18057236 0.21588023 -0.08316728 -0.010695319 -0.022350011 0.13822456
-0.13706234 -0.060816597 0.12651835 0.18247199 -0.26027817 0.023771884 -0.03457787 -0.027556216
0.06207545 0.26038304 0.032058097 0.13227652 -0.07319437 -0.021743644 0.09969717 0.10349107
0.11482757 -0.25402984 -0.26953 -0.09511294 0.005734654 -0.07499908 -0.33655357 0.032504063
0.26014838 0.11313015 0.20015216 -0.22321159 0.08900117 0.118416324 -0.22847955 -0.044244304
-0.035980742 -0.11588866 -0.100178085 -0.084144674 -0.10992639 0.27846172 0.13506773 -0.18288848
-0.13178933 -0.2562924 0.19128081 0.17516501 0.0927284 0.21603441 -0.11422525 0.16488673
-0.084997915 -0.069322154 -0.109108105 0.15252352 0.0069850977 -0.1365562 -0.008452257 0.19153649
0.08679157 -0.10091138 -0.15511824 -0.2701156 -0.24383116 0.05457978 0.10616349 -0.22456694
-0.115473725 -0.4390483 0.005262426 0.052343592 -0.04639263 0.23667726 0.19772862 0.031090247
0.11375655 0.022396574 -0.04741614 -0.01699177 -0.30023706 0.3808579 -0.16010083 -0.2085743
-0.1250047 -0.35900876 0.20843868 -0.08680716 -0.067323625 0.3840752 0.19635767 -0.09979219
0.15982597 -0.060033087 0.09891018 -0.15916598 -0.1186285 -0.011058552 0.1784504 -0.070928775
0.17429939 -0.04449315 0.19876887 0.0909183 0.008072261 -0.0032924009 -0.1432448 0.26523814
-0.15033157 -0.302938 0.03225672 -0.008574038 0.05360644 0.25496924 -0.09036811 -0.16226399
-0.20825799 0.14882304 0.055163827 0.20370637 -0.24607897 0.3621594 -0.21491484 -0.14044462
-0.04220956 0.10385114 -0.022421582 -0.31772175 0.102910556 -0.3167577 0.08331653 -0.12576891
0.14033301 -0.08340779 -0.14683649 0.28427315 0.10293718 0.0751393 0.32510462 0.12340078
-0.027128318 -0.31299827 -0.20511672 0.17184578 -0.3399339 0.22441256 0.0047892886 0.083994135
0.30540743 -0.12166588 -0.17079379 -0.13303003 -0.07599883 -0.27166662 0.07079937 -0.25073713
-0.36324093 -0.39645982 0.014605255 -0.037167825 0.067995846 0.08579876 -0.17293613 0.0032102359
0.20765543 -0.15581365 -0.27447182 0.07016461 0.056664314 -0.35349175 0.040256765 -0.04058669
-0.06725431 0.16837691 -0.16894633 0.000969867 0.0835291 -0.27086347 -0.06726991 0.08821085
0.16892366 -0.25907072 -0.100087434 -0.006767793 -0.08095051 0.006724421 -0.11856829 -0.035044253
0.044972584 -0.28997958 -0.16178967 0.19470158 0.114697 0.06587334 0.043625418 -0.050660502
0.33583793 -0.32726645 -0.2255439 0.06349025 0.11151903 -0.1738026 -0.19953333 0.03814428
00000000: 77d8 16be 9fd9 773e 0f0a 783e 56be 0dbd
00000010: 6e80 43be 5e35 64bd eb9b 583e 5a86 c83d
00000020: 39ec d03b f44c b43d 7421 86bd 6400 93be
00000030: 93a5 7b3e 2248 203d c0a7 ae3e 839d 17bd
00000040: 5437 eabc 3659 1e3e 4930 a73d 0e59 613c
00000050: 8b18 c73e c7f9 53be 025a 2c3e 4de1 d43d
00000060: 88eb d6bc 9f56 45bd b009 a1bd d80f 0f3e
00000070: de4e c9be 23cf 01be d001 cc3d 51f7 99be
00000080: 034d e63e 0744 19be e37d 043e 544f 55bd
00000090: c654 98bd be33 a9bd 9364 253e 0860 093e
000000a0: 0d5d c03d c795 403e e971 4b3e a03c a13d
000000b0: c73f 6fbc 7823 57be 7ed8 81bc 7222 6a3c
000000c0: 03ea 003e 9103 773e f6e7 38be b50f 5d3e
000000d0: 9b53 aabd 6b3b 2fbc 5f17 b7bc bd8a 0d3e
000000e0: 125a 0cbe d31a 79bd 078e 013e f0d9 3a3e
000000f0: 2e43 85be 41bd c23c 86a1 0dbd 93bd e1bc
00000100: d442 7e3d ed50 853e 5a4f 033d 7f73 073e
00000110: eee6 95bd ba1f b2bc 082e cc3d 20f3 d33d
00000120: b82a eb3d 3310 82be d6ff 89be 93ca c2bd
00000130: c4e9 bb3b 1e99 99bd c050 acbe fb22 053d
00000140: 2b32 853e c8b0 e73d b0f4 4c3e 9491 64be
00000150: 3f46 b63d 4284 f23d 8bf6 69be 8439 35bd
00000160: 8b60 13bd 0957 edbd 2b2a cdbd 0b54 acbd
00000170: 1621 e1bd 8992 8e3e 324f 0a3e 1e47 3bbe
00000180: c8f3 06be c238 83be 1edf 433e 755e 333e
00000190: 63e8 bd3d 2038 5d3e eeee e9bd 11d8 283e
000001a0: 6313 aebd c6f8 8dbd 1274 dfbd 202f 1c3e
000001b0: 3fe3 e43b 63d5 0bbe 567b 0abc 2422 443e
000001c0: c7bf b13d a0aa cebd 51d7 1ebe 984c 8abe
000001d0: e0ae 79be 0c8f 5f3d 3e6c d93d e0f4 65be
000001e0: 7d7d ecbd f0ca e0be 6e70 ac3b 3c66 563d
000001f0: 3306 3ebd 865b 723e 5f79 4a3e f9b0 fe3c
00000200: 32f9 e83d 0579 b73c 6d37 42bd 5332 8bbc
00000210: acb8 99be cfff c23e 79f1 23be 8094 55be
00000220: 3b01 00be ffcf b7be f370 553e f4c7 b1bd
00000230: f8e0 89bd 81a5 c43e fc11 493e d95f ccbd
00000240: 6ba9 233e 41e5 75bd 6c91 ca3d 68fc 22be
00000250: 80f3 f2bd ee2e 35bc b4bb 363e 1b43 91bd
00000260: 8a7b 323e 733e 36bd 118a 4b3e 6033 ba3d
00000270: 8441 043c 52c5 57bb c4ae 12be 4bcd 873e
00000280: 85f0 19be b11a 9bbe 9f1f 043d 1f7a 0cbc
00000290: 6d92 5b3d 548b 823e ea12 b9bd 8828 26be
000002a0: 9541 55be 1165 183e 77f3 613d 6798 503e
000002b0: 20fc 7bbe f56c b93e a312 5cbe b7d0 0fbe
000002c0: eee3 2cbd e8af d43d 77ad b7bc 6dac a2be
000002d0: c5c2 d23d 112e a2be dba1 aa3d 91c9 00be
000002e0: 75b3 0f3e b4d1 aabd 4e5c 16be 408c 913e
000002f0: bad0 d23d a2e2 993d 1d74 a63e 8cb9 fc3d
00000300: 353c debc 4f41 a0be 1e0a 52be 57f8 2f3e
00000310: d10b aebe 68cc 653e 77ef 9c3b 1e05 ac3d
00000320: 5d5e 9c3e f62b f9bd 91e4 2ebe 0639 08be
00000330: 46a5 9bbd e317 8bbe 43ff 903d 9e60 80be
00000340: b7fa b9be c8fc cabe e14a 6f3c 4a3d 18bd
00000350: 6841 8b3d 43b7 af3d 2b16 31be d262 523b
00000360: a0a3 543e 9d8d 1fbe 9287 8cbe 77b2 8f3d
00000370: d718 683d dffc b4be 47e4 243d 3b3e 26bd
00000380: a1bc 89bd ff6a 2c3e 4400 2dbe ac3e 7e3a
00000390: 4e11 ab3d 9eae 8abe cec4 89bd e4a7 b43d
000003a0: 53fa 2c3e eba4 84be a4fa ccbd 5dc4 ddbb
000003b0: 62c9 a5bd 8858 dc3b eed3 f2bd 908a 0fbd
000003c0: 2c35 383d 3478 94be 31ac 25be da5f 473e
000003d0: 43e6 ea3d 9ae8 863d 91b0 323d 6381 4fbd
000003e0: f3f2 ab3e 788f a7be fbf4 66be 2d07 823d
000003f0: 1764 e43d 4ff9 31be 7752 4cbe 2d3d 1c3d

linear_stack.0.bias f4 [16]
-0.11030323 -0.16416632 0.11334981 0.17542501 0.14831312 -0.13975216 0.12759681 -0.22456525
-0.0188444 -0.20705822 -0.049400803 -0.32060274 -0.014692384 -0.014440409 0.057572186 0.18058045
00000000: a9e6 e1bd 371b 28be f223 e83d 9da2 333e
00000010: 65df 173e 311b 0fbe bda8 023e 6ff4 65be
00000020: 925f 9abc 1207 54be 7f58 4abd 0b26 a4be
00000030: 53b8 70bc 7797 6cbc d0d0 6b3d 15ea 383e

linear_stack.3.weight f4 [8, 16]
0.0012923599 0.44879633 0.04505373 0.088334315 -0.20833337 -0.23762174 -0.20828484 -0.04580654
0.12061349 -0.12632403 -0.1641265 -0.19792452 -0.2926057 -0.033000782 0.1546535 -0.3212475
0.24666572 -0.15548576 -0.35587308 0.049234044 -0.15383951 -0.31072354 0.13886437 -0.20379913
-0.13173889 -0.36598083 0.0043798536 0.37864134 0.17272103 0.4311631 -0.24993508 -0.07604342
0.21738654 -0.2663817 -0.23649083 -0.1591183 -0.04061487 -0.14253691 -0.26775798 -0.37272215
-0.104595855 -0.018123882 -0.08269438 -0.17658825 0.23216999 0.1212657 -0.030451955 0.240284
0.36437252 -0.21704924 -0.043074675 0.07154335 0.089474365 0.07106335 -0.1746361 -0.09966783
-0.17470245 -0.0722307 -0.080367036 0.09080402 0.21506627 0.21256979 0.13545679 -0.05943535
0.1332496 -0.062002853 -0.27621594 -0.35386556 0.2136457 -0.16936618 0.18873824 -0.04264917
-0.12824494 -0.22448154 -0.1238983 0.11364528 -0.07441417 0.26543167 0.009433463 -0.050488513
-0.23302227 0.24039838 -0.10435051 -0.009196606 -0.0317786 0.18426381 0.030138098 0.2703196
0.15354468 0.20254916 0.282273 -0.28228372 -0.15823115 -0.17190212 -0.16639201 -0.3322357
-0.040828273 0.22299688 0.07964302 -0.23799086 -0.18192513 -0.1496271 -0.025548913 -0.0034438656
-0.18336548 0.02419677 -0.2443377 -0.050070886 -0.10269202 -0.05416053 0.030867087 -0.10012291
-0.20957245 0.23339586 0.07839757 0.07627045 -0.2564639 0.17709556 0.026426794 0.008307635
0.27656546 0.289944 0.27391335 -0.16560988 -0.22464795 -0.049883213 0.0072163576 -0.2436333
00000000: 6764 a93a a2c8 e53e 438a 383d 9fe8 b43d
00000010: 5855 55be 1d53 73be 9f48 55be a39f 3bbd
00000020: 3504 f73d 165b 01be c710 28be baac 4abe
00000030: 6ad0 95be d42b 07bd 7d5d 1e3e 8d7a a4be
00000040: f095 7c3e a937 1fbe ff34 b6be a3a9 493d
00000050: 1b88 1dbe 2817 9fbe 7632 0e3e b8b0 50be
00000060: 8fe6 06be d761 bbbe e084 8f3b 47dd c13e
00000070: c8dd 303e 69c1 dc3e fbee 7fbe a7bc 9bbd
00000080: 949a 5e3e 2f63 88be a72a 72be e8ef 22be
00000090: c75b 26bd 32f5 11be 9317 89be 70d5 bebe
000000a0: 5a36 d6bd 8978 94bc ac5b a9bd 8dd3 34be
000000b0: f8bd 6d3e 275a f83d 6176 f9bc 020d 763e
000000c0: 098f ba3e 2842 5ebe 126f 30bd 5285 923d
000000d0: 563e b73d a989 913d ced3 32be a61e ccbd
000000e0: 33e5 32be b0ed 93bd 7997 a4bd 75f7 b93d
000000f0: 553a 5c3e e5ab 593e 2fb5 0a3e 7b72 73bd
00000100: 9572 083e b4f6 7dbd 2d6c 8dbe de2d b5be
00000110: f0c5 5a3e 546e 2dbe 9944 413e e5b0 2ebd
00000120: a452 03be 7dde 65be 64be fdbd dbbe e83d
00000130: 7566 98bd a9e6 873e d08e 1a3c 0bcd 4ebd
00000140: 649d 6ebe fe2a 763e b8b5 d5bd 5dad 16bc
00000150: 472a 02bd a7af 3c3e 2ce4 f63c 5567 8a3e
00000160: d13a 1d3e 0c69 4f3e 1686 903e 7e87 90be
00000170: 5907 22be 1c07 30be ab62 2abe cc1a aabe
00000180: 8c3b 27bd 4b59 643e e11b a33d e0b3 73be
00000190: 954a 3abe d937 19be f44b d1bc 7ab2 61bb
000001a0: 29c4 3bbe 4e38 c63c a933 7abe 2117 4dbd
000001b0: 3250 d2bd 6fd7 5dbd f9dc fc3c 3e0d cdbd
000001c0: 299a 56be 53ff 6e3e e88e a03d af33 9c3d
000001d0: 3c4f 83be 8a58 353e 017d d83c bf1c 083c
000001e0: fd99 8d3e 8a73 943e 5f3e 8c3e a395 29be
000001f0: 1d0a 66be 5752 4cbd 3277 ec3b 027b 79be

linear_stack.3.bias f4 [8]
0.23299825 -0.1225436 0.16341898 -0.011862823 -0.010736667 0.17318079 0.07773165 0.17564175
00000000: 1897 6e3e 24f8 fabd 4e57 273e 495c 42bc
00000010: d8e8 2fbc 4e56 313e c531 9f3d 6edb 333e

linear_stack.6.weight f4 [2, 8]
0.18541855 0.0025366175 -0.3837479 -0.3987803 -0.34809372 0.3754031 0.27304015 0.38888454
0.03759081 0.3829928 -0.056287058 -0.1005332 0.27234536 -0.057519373 -0.06469035 0.17188112
00000000: 5cde 3d3e 613d 263b 9b7a c4be ee2c ccbe
00000010: 5739 b2be d634 c03e ebcb 8b3e e01b c73e
00000020: d2f8 193d a217 c43e 428d 66bd 5ae4 cdbd
00000030: da70 8b3e 6f99 6bbd 607c 84bd 9b01 303e

linear_stack.6.bias f4 [2]
-0.09578353 0.0520673
00000000: 282a c4bd 8544 553d
