models/model_zj_c2_s0.1_b16_lr0.001_d0.5_e30.pth (torch, 4255 bytes, 6 tensors)

linear_stack.0.weight f4 [16, 16]
00000000: 90ac 1fbe 73b7 c93e be27 fd3d 0fd0 e1bc
00000010: 31ef 04be bae4 6abd 66e5 533e 1ab5 ccbd
00000020: 3fc3 18be 51b0 1abe 8f85 0bbe 7b21 8fbe
00000030: 1386 333e b2f7 343d c040 763e 7ffe 3f3d
00000040: 13d8 43bc f141 1e3e 511b 15be 3e43 51be
00000050: 2e5a 073e b355 aabd e1b3 893e 7972 52bd
00000060: 7cbb 0ebe 27d5 6dbe 3bc1 96be 5f52 f43e
00000070: dc0d 0fbe 93d2 7ebe 29f4 753e 6185 5d3c
00000080: 39dd 1a3e 4118 66be a3a5 83bc d794 13be
00000090: de24 69be b6b6 95bd 1511 e03d 2ffe 6d3e
000000a0: a244 e43d e528 983e 6b03 853e 4cde b93b
000000b0: 73c9 6e3d ec74 87be 6cc2 7a3b cdeb 103e
000000c0: e822 5a3e 1d9e b63e 7ddc f5bd fb94 3d3e
000000d0: 97d8 57bd 2004 b2bc c4b6 34bd bf6e ca3c
000000e0: 8b58 43be ceba 2abe 8de0 b6bd ec22 253e
000000f0: 0887 98bd 01da f33d 9c1c 0bbe 8a2f 3f3d
00000100: f081 833e 0363 d53e 77c0 8bbd 2c0c 7f3e
00000110: 14b7 9f3d 3055 5fbd b162 32bd 616a c6bd
00000120: 4870 833d cc49 8abe b17d 86be bd89 cebd
00000130: 1848 7cbd 6176 debd 5313 afbd 680f f0bc
00000140: b456 2b3d de53 a03e 558a 073e 7d59 04be
00000150: 2f90 923e f669 453d 3432 e8bd 6b5b 93bd
00000160: 3194 d73d eb03 a4bd 33b2 cdbd 5f01 2cbe
00000170: fcdf 793e 382c ed3d 6369 5fbd 4abf 16be
00000180: 7c83 4ebd 6ade 96be f738 443d 0867 133d
00000190: e0b7 95bd 544d 193e d951 d5bd ccda d73e
000001a0: 3d4b a6bd 279b e03d 4213 db3d cf7a f63d
000001b0: d0bc 2dbd ac2f 58be b083 38be 471f 023e
000001c0: 9b28 1e3e 56b8 84be d9fa c4bd 4c54 67be
000001d0: 70d1 8dbe 18b1 12be 2f2a 943d 22dd 1cbe
000001e0: be72 4dbe 7bd2 3abe 039e dd3d 44aa e5bb
000001f0: 63ed 8e3c abd1 c4bc e59d 593e aff0 bfbd
00000200: ac6e 1bbe ae72 123e bcbf 2a3d 7aca 25bd
00000210: 21e1 abbe a425 603e 1944 5d3d 40b1 01bd
00000220: c529 623c b579 b439 62b7 803e 5c96 63be
00000230: 872a 243c 9404 043e e72e 0c3d 9a4f 62be
00000240: b34f cf3d 5211 5a3e 75ac 5fbd 6a08 ccbd
00000250: 2201 f9bb f930 cebd 6d47 1e3e d4b7 dfbd
00000260: 6b16 a4bc 0e17 61be 4688 85bd 94ad 9c3e
00000270: 5af2 88be d63e a4be 8c37 5dbd 41f2 013e
00000280: 25cc ebbe 4cc6 d8be bbc8 b83d ca2e 9cbd
00000290: 1b5e eebc 379d 583d e5fb 26bd 26ec e73d
000002a0: 6441 bcbe 9378 263e 4c16 8dbd e4d4 04be
000002b0: 3876 04be 7f37 ad3e f214 bcbd 9d7b 14be
000002c0: 6f59 73be 39f3 7bbe ba1f 033e 065e dcbd
000002d0: 55a6 9c3e 505c b0be 9477 0ebd 47ff 5d3e
000002e0: 4991 503e 280e 2b3d 986c a3bd 023c 913d
000002f0: 7c11 61be e0c2 b13d 8997 6c3b 4e86 a9bd
00000300: 039b eb3d 408f d53d e60a b3be efb5 943e
00000310: 2f6b 17be 1897 dbbc 2ba0 b53c 11e6 3e3c
00000320: 36fb bc3d afa7 73be 8297 28be f1b6 083e
00000330: bbe4 24be a096 b93b edb5 7e3e 1393 93be
00000340: f34b a43d 5c20 d63d fe37 c5bd 8c45 69bd
00000350: d60a be3d d97a 3fbd 7662 8fbd 7d4a 3ebd
00000360: 6373 3e3e c52e a5be c479 c2bd 42e3 e53e
00000370: 2974 39be 4453 afbe f740 113b fa83 81bd
00000380: ccd4 673e ecf8 793e 6bc4 5dbe a98c c93d
00000390: 99b8 4e3e db25 82be a822 96bd 7b76 083e
000003a0: 4ba0 6f3e 03c8 61be dd0f 0c3d 9721 d53d
000003b0: 07fc 8fbe e3de d8bd 1342 c8be cd8e 4bbe
000003c0: db7b 8b3e e0f3 3fbb 63e8 93be 3d43 523e
000003d0: 857d 733e 6898 37be b002 67bd fe3f d33d
000003e0: 076e 733e d0cb 44be 202f f4bc e11a b83e
000003f0: 3968 dabd 6abb 3bbe 1816 e2be 0332 1cbe
-0.15593171 0.39397773 0.12361096 -0.02756503 -0.1298187 -0.057347037 0.20692977 -0.0999548
-0.1491823 -0.15106322 -0.13625167 -0.2795523 0.17531614 0.044181533 0.24048138 0.046873566
-0.011953372 0.15454842 -0.14561202 -0.20435807 0.13217995 -0.08317127 0.2689505 -0.0513787
-0.13938707 -0.23225842 -0.29444298 0.47719094 -0.1397013 -0.24885015 0.24018921 0.01352057
0.15123452 -0.2247019 -0.016070193 -0.14412247 -0.2276797 -0.0731024 0.10940758 0.23241495
0.11145903 0.297187 0.2597917 0.005672252 0.058297586 -0.26456392 0.0038262857 0.14152451
0.21302378 0.35667506 -0.120049454 0.18513863 -0.05269679 -0.021730483 -0.04411961 0.024711011
-0.19076745 -0.16672823 -0.089295484 0.16126603 -0.0744763 0.11906815 -0.13585132 0.046676196
0.25685072 0.41677102 -0.06823819 0.24906987 0.07798591 -0.0545246 -0.04355115 -0.09688259
0.064179 -0.27009428 -0.2626777 -0.10084865 -0.06159219 -0.10862423 -0.08548608 -0.029304221
0.041830733 0.31313986 0.13236363 -0.12924762 0.28625628 0.048196755 -0.113377005 -0.07195171
0.10526312 -0.0800856 -0.100437544 -0.16797398 0.2440185 0.115807 -0.054543864 -0.14721408
-0.050418362 -0.29466563 0.04790589 0.03598693 -0.07310462 0.14970905 -0.10416002 0.42159116
-0.08119819 0.10967093 0.106970325 0.12035143 -0.042416394 -0.21111935 -0.18018985 0.12707244
0.15445177 -0.25921887 -0.09618158 -0.2259075 -0.2769885 -0.14325368 0.072346084 -0.1531873
-0.20063302 -0.18244354 0.10821154 -0.0070088226 0.01744718 -0.024025759 0.21251638 -0.093720786
-0.15178937 0.1430156 0.04168676 -0.0404763 -0.33570197 0.21889359 0.05402002 -0.03166318
0.013803904 0.00034422954 0.2513991 -0.22225326 0.010019905 0.12892371 0.034224417 -0.22100678
0.10122623 0.2129567 -0.054607827 -0.09962542 -0.007599012 -0.100679345 0.15456934 -0.10923734
-0.020030221 -0.21981451 -0.06520133 0.3060118 -0.267474 -0.3207919 -0.05400805 0.12690069
-0.46054187 -0.42338789 0.09022661 -0.07626112 -0.029097607 0.052884307 -0.04076757 0.113243386
-0.3676864 0.16256933 -0.068890184 -0.12971836 -0.12935722 0.33831403 -0.091836825 -0.1450028
-0.23764585 -0.24604501 0.12805071 -0.10760121 0.3059565 -0.3444543 -0.034782007 0.21679412
0.20367922 0.041761547 -0.07979697 0.07091524 -0.21979326 0.086797476 0.0036101064 -0.0827757
0.115041755 0.104277134 -0.34969252 0.29045054 -0.14786981 -0.026805446 0.0221711 0.011651532
0.09227602 -0.23794435 -0.16464046 0.13351037 -0.16102879 0.005663708 0.24874087 -0.28823146
0.08022299 0.10455391 -0.0962982 -0.05695109 0.092794105 -0.046748016 -0.07001202 -0.046457756
0.18598704 -0.32262245 -0.09495881 0.44899946 -0.18110718 -0.34243214 0.0022163966 -0.06324001
0.2263977 0.24411362 -0.21656959 0.09841282 0.20187606 -0.25419506 -0.07330829 0.13326447
0.2340099 -0.22048955 0.034194816 0.104067974 -0.2812197 -0.10589387 -0.3911291 -0.19878693
0.27242932 -0.0029289648 -0.28888234 0.20533462 0.2377835 -0.17929232 -0.056399047 0.1031494
0.23772441 -0.19218373 -0.029807627 0.35958007 -0.1066441 -0.18333212 -0.4415748 -0.15253453

linear_stack.0.bias f4 [16]
00000000: 2bf9 2abe 1423 52be e5a1 28be d85d 403c
00000010: 083c b33d ea70 97be b675 31be f77f 1ebf
00000020: abcc 04bd f46b 753d 41cd 5fbe 5fb4 75be
00000030: 306a 9cbd a544 bd3d ba85 c03c 4e9a 9ebc
-0.16696613 -0.20521194 -0.16468008 0.011741124 0.087516844 -0.29578334 -0.1733006 -0.6191401
-0.03242175 0.059917405 -0.21855642 -0.23994587 -0.07637441 0.092416085 0.023501266 -0.019360688

linear_stack.3.weight f4 [8, 16]
00000000: 4f41 ebbd 8199 95be c50b 713e 2f84 07bb
00000010: e1a1 9ebe 171a dcbe 0b9e 363e 5a02 573e
00000020: 4964 cebc 2df6 c5be 2df2 d1be ad1e c83a
00000030: 1eb7 5bbe a479 5fbe 6285 46be c535 dbbe
00000040: 0371 32be 57d2 8abe 34f8 c7be d7e2 ef3d
00000050: 09f2 bbbe 6168 c4be ee5e 893e e906 cfbd
00000060: 9364 9e3d 99ee dcbe eece cf3e 21ac 433e
00000070: 09b0 4abe 6693 48be 9876 dbbe 7e95 9ebe
00000080: 3064 483e a331 153f c71d 28be a350 afbc
00000090: 73ee edbd 4025 803e 1ca1 29be ff76 71be
000000a0: 031c 0fbe 243e 8c3e 021d c4bd 103c 93be
000000b0: 6fc5 1c3e 5b99 9a3d 54ab 1abd b282 ce3e
000000c0: 6568 933e 658b ec3e 416f 4dbe db86 393d
000000d0: c5d9 ce3d 0ea2 af3e ca89 d9bd 858d 4dbe
000000e0: 8493 56be d059 713e d514 46bd efb8 94be
000000f0: c531 fd3d 087f 363e a599 b13d b939 8b3d
00000100: c4be 733e efb1 d53e bd60 23be a4f2 91be
00000110: 1ff8 3f3e 6f59 bebd ebc1 03bc b742 1fbe
00000120: ad65 67be 34cf 9cbc 0128 bdbc f3f0 33be
00000130: 3a1e b3bd cd72 ff3d c8df 463e 9eba 3f3e
00000140: 4ea3 6abe 0622 5fbe c647 ee3d 4938 3cbe
00000150: a6e9 25be 0007 4ebe 165a 833e e854 b63e
00000160: f2f1 28bd 58e6 14be 7142 783e c3be 1e3d
00000170: 63a7 12be 6fc7 a4be 1c86 dcbe 3708 c9be
00000180: d950 45be 1890 2bbe af60 073e 3509 3abe
00000190: 28b4 4fbe 34e4 81be 96de a33d 9859 633e
000001a0: 207b f5bb aeaf 0ebe 6c60 bbbe dad5 473d
000001b0: 0305 46be f593 8cbe 54b3 7fbe b8bf 63be
000001c0: 7434 2abe 124d bcbe f17f 883e 9de0 663c
000001d0: 9231 52be 8e1e 81be 21ba a03e 67ba 083e
000001e0: fa37 603b 5b2f 81be 5fc0 9a3e 92bc 1f3e
000001f0: 7f93 8dbe 3b70 90be 87d5 c8be 1fe5 e2be
-0.11487066 -0.29218677 0.23539646 -0.0020678153 -0.3098288 -0.42988655 0.17833726 0.20996991
-0.025194304 -0.3866438 -0.41005078 0.0015267931 -0.21456572 -0.21823746 -0.19386819 -0.4281446
-0.17425923 -0.27113602 -0.3905655 0.11713188 -0.36708096 -0.38360885 0.26830238 -0.1010874
0.07734027 -0.43150786 0.40587562 0.1910863 -0.19793715 -0.19587478 -0.42863917 -0.30973428
0.19569468 0.58278865 -0.16417609 -0.021400755 -0.11617746 0.2502842 -0.16565365 -0.2358055
-0.1397553 0.2739116 -0.09575845 -0.28756762 0.1530969 0.075487815 -0.037761047 0.40334088
0.28790584 0.462001 -0.20061971 0.045294624 0.1010013 0.34303325 -0.10621984 -0.20073517
-0.2095471 0.23569417 -0.04835971 -0.29047343 0.123630084 0.17821896 0.086718835 0.06798119
0.2380324 0.41737315 -0.15954871 -0.28505433 0.18746994 -0.09294402 -0.008041839 -0.15552793
-0.2259738 -0.01914177 -0.023090364 -0.17572384 -0.08746 0.124730684 0.19421303 0.18723533
-0.22913858 -0.21790323 0.116347834 -0.18380846 -0.16202411 -0.20119858 0.25654668 0.35611653
-0.041246362 -0.14540994 0.24244095 0.038756143 -0.14321665 -0.32183406 -0.43071067 -0.3926408
-0.19269122 -0.16754186 0.13220476 -0.18167575 -0.20283568 -0.25369418 0.08001439 0.22202146
-0.0074914843 -0.13934204 -0.36597002 0.04878793 -0.1933785 -0.27456632 -0.24970752 -0.22241104
-0.16621572 -0.3677755 0.26660112 0.014091638 -0.20526722 -0.25218624 0.31392005 0.13352357
0.0034213052 -0.25231442 0.30224892 0.15599278 -0.27651593 -0.28210625 -0.39225408 -0.4431543

linear_stack.3.bias f4 [8]
00000000: 5838 9b3e a62b ac3d 6802 d93d bd94 593d
00000010: b7af ee3c 20a9 6c3e a781 533e ed03 613e
0.30316424 0.08406763 0.10596162 0.053120364 0.029136522 0.23111391 0.20654927 0.21974154

linear_stack.6.weight f4 [2, 8]
00000000: 092b ae3e 5193 e23e 6c74 d8be 7405 e4be
00000010: d897 afbe be07 ef3e 05a0 033f 7e34 ee3e
00000020: 14f3 efbd 2f7a 69bd b27d 8dbc b803 5dbd
00000030: 40cf 883e 148c 18be 1d93 9cbe cca0 c33d
0.34017208 0.44253018 -0.42276323 -0.4453541 -0.34295535 0.46685594 0.51416045 0.46524423
-0.11716285 -0.05700129 -0.01727185 -0.053958625 0.2672062 -0.14897186 -0.3058099 0.09552154

linear_stack.6.bias f4 [2]
00000000: 8ab8 61be a1f4 343e
-0.22043052 0.17671444
