models/model_hr_c2_s0.1_b16_lr0.001_d0.5_e10.pth (torch, 4255 bytes, 6 tensors)

linear_stack.0.weight f4 [16, 16]
-0.10401684 0.34736288 0.12792188 0.051367264 -0.099040486 -0.11966562 0.10080248 -0.022217028
-0.00096802186 0.11979691 0.19183297 -0.0687678 0.24550049 0.19181608 0.14852245 -0.028877126
0.08092652 0.13511495 0.047401603 -0.29187304 0.064079605 -0.17445105 0.07628724 0.088592105
-0.18301532 -0.23462382 -0.34924486 0.07149859 -0.17405474 -0.08820298 0.17146064 0.09898747
0.18741862 -0.11031019 0.041279122 -0.095545225 -0.10195414 -0.15048356 0.1236843 0.145976
0.038700808 0.22465211 0.21030231 0.13730857 -0.018221257 -0.18184966 0.06937898 0.07262917
0.09420709 0.3231734 -0.22453253 0.26334968 -0.05252699 0.065783836 -0.0218953 -0.050631564
-0.0902963 0.04430183 0.1759431 0.3151989 0.21873316 0.24269141 0.020333087 -0.014646148
0.22114424 0.17649809 0.11998521 0.048749756 -0.14530629 -0.06663039 0.08157233 0.122199304
0.06798292 -0.2278731 -0.2110328 -0.12918776 -0.07476383 0.002654596 -0.16248833 -0.031516373
0.083346955 0.34158102 0.11102906 -0.13781856 0.22558045 -0.031623084 -0.1568016 -0.08542111
0.05760983 -0.09368896 -0.13241704 -0.085738875 0.09828847 0.07723904 0.013213041 -0.21375956
0.007831536 -0.15843007 0.15804985 0.17871346 0.09408363 0.21121822 -0.10405178 0.23659979
-0.08884692 -0.03628304 -0.044636223 0.2564513 0.098123044 -0.095013365 -0.15675715 0.21439222
0.17378354 -0.034724627 -0.19306603 -0.30641586 -0.19057946 -0.23797008 0.16565043 -0.060637254
-0.19960077 -0.28494713 -0.0045961468 -0.06277835 -0.011700143 -0.21043177 0.31795883 0.059453268
0.0766143 0.3618249 -0.10565608 0.17212279 0.0074793133 0.095057115 0.010058729 -0.15483528
-0.017844288 -0.041672327 0.32787687 -0.09164029 0.2955046 0.28208223 0.11741094 -0.15394619
0.15434147 0.08739314 -0.04586703 -0.1895178 -0.11296326 -0.08855739 0.1462929 -0.1499901
0.11029486 -0.062603354 0.078319095 0.007942824 -0.05815773 0.05484978 0.024535256 0.18318789
-0.22979787 -0.111488804 0.0808797 0.059852645 0.1939443 0.10188711 -0.039458606 -0.08580763
-0.14948337 0.20025158 -0.019849006 0.13563888 -0.03189986 0.20487113 -0.18478489 -0.22885472
-0.12795393 -0.06103338 -0.06274781 -0.32038945 0.033815015 -0.17472012 0.10513806 0.17825769
0.15322128 -0.28278822 -0.40354106 -0.037229124 -0.31387168 -0.03821331 0.13482371 -0.014168713
0.13657698 -0.25520223 -0.17918086 0.31901675 -0.07107921 -0.13867705 -0.08943986 0.023129256
0.20207772 -0.0023436341 0.047668777 0.014507597 -0.16282825 -0.09432648 0.11615387 -0.32056218
-0.17279732 -0.23996496 0.0040708086 0.020945413 0.17313996 -0.058194157 -0.2140259 -0.08069369
0.23231144 -0.08803587 -0.004120546 0.2710913 -0.08433322 -0.14250998 0.009435233 -0.07416444
0.049195237 0.043055814 -0.055734653 -0.04194159 -0.03658261 -0.060644366 -0.02527986 0.20942943
0.20735362 -0.19655514 -0.03730627 -0.004101504 -0.20313385 0.16481274 -0.19766046 -0.15922618
0.09677036 -0.27192807 -0.16734532 0.30179995 0.28914404 -0.18780665 -0.046194192 -0.12496001
0.26267532 -0.1609295 0.029842628 0.2675332 0.058085315 -0.19686902 -0.18751535 -0.07496086
00000000: c806 d5bd 8cd9 b13e f4fd 023e 7b66 523d
00000010: bdd5 cabd 4013 f5bd 8871 ce3d 7c00 b6bc
00000020: d9c2 7dba 1558 f53d dd6f 443e 22d6 8cbd
00000030: 7b64 7b3e 6f6b 443e 4516 183e b98f ecbc
00000040: cebc a53d 935b 0a3e 2f28 423d 6270 95be
00000050: 2b3c 833d 4ca3 32be 7c3c 9c3d c76f b53d
00000060: 5e68 3bbe 3a41 70be 39d0 b2be da6d 923d
00000070: 683b 32be c4a3 b4bd 6193 2f3e f1b9 ca3d
00000080: abea 3f3e 4fea e1bd 4c14 293d 37ad c3bd
00000090: 55cd d0bd 5d18 1abe 324e fd3d bc7a 153e
000000a0: bd84 1e3d 340b 663e 7d59 573e 9e9a 0c3e
000000b0: bf44 95bc cc36 3abe 9116 8e3d 9abe 943d
000000c0: a6ef c03d fc76 a53e dbeb 65be c5d5 863e
000000d0: 8b26 57bd adb9 863d c65d b3bc 0b63 4fbd
000000e0: 44ed b8bd d675 353d 6e2a 343e c061 a13e
000000f0: 96fb 5f3e 1984 783e 9391 a63c 66f6 6fbc
00000100: a373 623e eabb 343e ceba f53d d3ad 473d
00000110: 2ccb 14be 8475 88bd 650f a73d a143 fa3d
00000120: a13a 8b3d 9157 69be fb18 58be cc49 04be
00000130: c71d 99bd bbf8 2d3b 5763 26be 5017 01bd
00000140: cfb1 aa3d b5e3 ae3e 3463 e33d 4f20 0dbe
00000150: 90fe 663e 3587 01bd 9990 20be 43f1 aebd
00000160: 49f8 6b3d ffdf bfbd 5598 07be dd97 afbd
00000170: 774b c93d 802f 9e3d 837b 583c c9e3 5abe
00000180: d84f 003c 7e3b 22be d2d7 213e a900 373e
00000190: ebae c03d 9749 583e 1a19 d5bd 3747 723e
000001a0: 60f5 b5bd 869d 14bd 79d4 36bd 964d 833e
000001b0: bcf4 c83d 5e96 c2bd f284 20be a289 5b3e
000001c0: 50f4 313e 693b 0ebd 1ab3 45be 8ae2 9cbe
000001d0: 4327 43be 6eae 73be 44a0 293e c55e 78bd
000001e0: 2564 4cbe 97e4 91be 469b 96bb f091 80bd
000001f0: f5b1 3fbc 6d7b 57be 80cb a23e 4585 733d
00000200: f5e7 9c3d 1d41 b93e 3762 d8bd f540 303e
00000210: 0715 f53b 4ead c23d 5ecd 243c 248d 1ebe
00000220: 2f2e 92bc 9ab0 2abd 7adf a73e e8ad bbbd
00000230: 614c 973e 156d 903e 2675 f03d 12a4 1dbe
00000240: b10b 1e3e 2dfb b23d 11df 3bbd f410 42be
00000250: 4859 e7bd 945d b5bd cecd 153e 0197 19be
00000260: 46e2 e13d 3036 80bd c365 a03d 9e22 023c
00000270: cd36 6ebd 2aaa 603d 29fe c83c 9b95 3b3e
00000280: 2250 6bbe 3e54 e4bd 42a4 a53d 0c28 753d
00000290: 5699 463e 30aa d03d 599f 21bd e9bb afbd
000002a0: 2b12 19be c00e 4d3e 629a a2bc ebe4 0a3e
000002b0: 6da9 02bd bdc9 513e 4038 3dbe e458 6abe
000002c0: 5b06 03be 23fe 79bd ec81 80bd 160a a4be
000002d0: 9d81 0a3d d5e9 32be a052 d73d 2f89 363e
000002e0: 0ae6 1c3e 9ec9 90be ef9c cebe 917d 18bd
000002f0: cab3 a0be 8f85 1cbd 3a0f 0a3e e423 68bc
00000300: d6da 0b3e dea9 82be 307b 37be 2a56 a33e
00000310: fa91 91bd 5b01 0ebe 3f2c b7bd 9179 bd3c
00000320: 76ed 4e3e a897 19bb 5640 433d 46b1 6d3c
00000330: 73bc 26be 3e2e c1bd 15e2 ed3d ba20 a4be
00000340: c8f1 30be 60b9 75be 6b64 853b b795 ab3c
00000350: 9a4b 313e ff5c 6ebd 9b29 5bbe bc42 a5bd
00000360: 0de3 6d3e 264c b4bd a505 87bb 7bcc 8a3e
00000370: e5b6 acbd 23ee 11be 3c96 1a3c 87e3 97bd
00000380: f280 493d 4b5b 303d 054a 64bd f2ca 2bbd
00000390: a6d7 15bd 3a66 78bd b517 cfbc ab74 563e
000003a0: 8254 543e c045 49be 76ce 18bd e965 86bb
000003b0: 5202 50be acc4 283e 8167 4abe 300c 23be
000003c0: 8a2f c63d 283a 8bbe 925c 2bbe 8685 9a3e
000003d0: b00a 943e 6350 40be 1f36 3dbd 09eb ffbd
000003e0: 617d 863e b4ca 24be 8778 f43c 1dfa 883e
000003f0: deea 6d3d 0898 49be 0604 40be 1485 99bd

linear_stack.0.bias f4 [16]
0.03764325 -0.10849734 0.122472055 0.104562886 0.113124244 -0.15318376 0.0910519 -0.25967672
-0.031600233 -0.123027414 0.027368687 -0.18742086 0.08950532 0.15337022 -0.014921268 0.271819
00000000: cf2f 1a3d da33 debd a1d2 fa3d 1125 d63d
00000010: afad e73d 34dc 1cbe 6b79 ba3d 59f4 84be
00000020: 3f6f 01bd ccf5 fbbd 4c34 e03c 41eb 3fbe
00000030: 914e b73d 150d 1d3e 5678 74bc dc2b 8b3e

linear_stack.3.weight f4 [8, 16]
0.06999567 0.32645473 -0.019811025 -0.082652844 0.03586494 -0.27794898 -0.119187206 0.17379713
-0.1452481 -0.21038762 -0.3398436 0.016600683 -0.26366344 0.055368055 0.29032767 -0.33266816
0.17997801 -0.03951546 -0.18520223 0.19333576 -0.13963228 -0.1179239 0.094593845 -0.09879215
0.16116704 -0.17182751 0.23584971 0.016071655 0.13894156 0.29138613 -0.057360142 0.11991205
0.1270008 -0.058667336 -0.06555784 0.03773158 -0.21112001 0.089890905 -0.23510587 -0.26877898
0.1635559 0.13044697 0.018729413 -0.27563816 0.10351889 0.018990079 -0.026119927 0.23131731
0.33598408 -0.16537352 -0.032418076 0.19373982 -0.10147813 0.21565555 -0.12194537 -0.067675255
0.01641029 0.077945836 -0.09529468 -0.17980668 0.014080453 0.01661535 0.007885069 -0.17559928
0.108650774 -0.019683376 -0.25443655 -0.28062358 0.05231948 -0.20880191 0.16791324 0.005853813
-0.06082025 -0.15117392 -0.062363166 -0.12220746 -0.22350787 0.057488848 0.036043633 -0.1650617
-0.13529865 0.21975364 -0.13461076 -0.24921463 0.18309864 0.119966336 0.1252847 0.371399
-0.08046395 0.09762923 0.044933196 0.12039235 0.024815373 -0.3272749 -0.09488599 -0.36299
-0.05714329 0.23148286 -0.057466824 -0.19960123 -0.18632764 -0.09348387 -0.13275303 0.20651284
-0.111279 0.07895264 -0.1310345 0.1895258 -0.06998456 -0.1730577 0.079707585 -0.15531045
-0.10033187 0.20598091 0.02367909 -0.021701824 0.047978505 -0.0098436205 0.21254595 0.16774786
-0.11179109 0.15198606 0.021154689 0.42768043 0.03308648 -0.14234321 0.0578867 -0.24871878
00000000: e459 8f3d 1325 a73e bb4a a2bc e545 a9bd
00000010: 1ee7 123d 544f 8ebe 6c18 f4bd e0f7 313e
00000020: ebbb 14be da6f 57be fbff adbe 28fe 873c
00000030: e5fe 86be 9dc9 623d d4a5 943e 7b53 aabe
00000040: 284c 383e f7da 21bd a7a5 3dbe cff9 453e
00000050: c4fb 0ebe 1682 f1bd 6bba c13d 8a53 cabd
00000060: f908 253e 8df3 2fbe 9682 713e b4a8 833c
00000070: b246 0e3e 9030 953e 78f2 6abd 7394 f53d
00000080: 7f0c 023e 294d 70bd 3043 86bd 6e8c 1a3d
00000090: d82f 58be b918 b83d 98bf 70be 669d 89be
000000a0: 337b 273e e493 053e 6d6e 993c 7220 8dbe
000000b0: b601 d43d 1591 9b3c 75f9 d5bc 72de 6c3e
000000c0: 1b06 ac3e ad57 29be d1c8 04bd bb63 463e
000000d0: c4d3 cfbd cfd4 5c3e 7fbe f9bd 5399 8abd
000000e0: df6e 863c 11a2 9f3d db29 c3bd 3e1f 38be
000000f0: b3b1 663c ea1c 883c 6030 013c 4cd0 33be
00000100: 4c84 de3d 083f a1bc 8245 82be e5ad 8fbe
00000110: f34c 563d 2bd0 55be 73f1 2b3e 58d1 bf3b
00000120: a81e 79bd 56cd 1abe 8570 7fbd e847 fabd
00000130: 3fdf 64be 6d79 6b3d 7da2 133d ef05 29be
00000140: bb8b 0abe 1907 613e 67d7 09be 1f32 7fbe
00000150: 367e 3b3e e9b0 f53d a24a 003e 0228 be3e
00000160: 49ca a4bd d5f1 c73d df0b 383d 4490 f63d
00000170: 9c49 cb3c 9390 a7be 9653 c2bd d3d9 b9be
00000180: 150f 6abd d809 6d3e 5562 6bbd 4464 4cbe
00000190: accc 3ebe 7974 bfbd 69f0 07be 1a78 533e
000001a0: 3fe6 e3bd ecb1 a13d e82d 06be 0d13 423e
000001b0: 1154 8fbd 0a36 31be bb3d a33d b409 1fbe
000001c0: cc7a cdbd a9ec 523e a7fa c13c 06c8 b1bc
000001d0: 1c85 443d 2347 21bc a5a5 593e 18c6 2b3e
000001e0: baf2 e4bd 3ca2 1b3e 994c ad3c eef8 da3e
000001f0: b085 073d 6bc2 11be 9b1a 6d3d 23b0 7ebe

linear_stack.3.bias f4 [8]
0.20330425 0.012246058 0.22415489 -0.074642055 -0.106725894 0.17057146 0.15269879 0.18323871
00000000: fd2e 503e b1a3 483c dc88 653e efdd 98bd
00000010: 1b93 dabd 49aa 2e3e 125d 1c3e eea2 3b3e

linear_stack.6.weight f4 [2, 8]
0.22363687 0.13482602 -0.3051977 -0.3963565 -0.22496234 0.35482168 0.4116133 0.3495599
-0.0006277645 0.2507034 -0.13483576 -0.10295632 0.1492134 -0.03693773 -0.20326354 0.2112057
00000000: 1001 653e d50f 0a3e df42 9cbe 3def cabe
00000010: 875c 66be 30ab b53e fabe d23e 84f9 b23e
00000020: 9090 24ba 325c 803e 6312 0abe c3da d2bd
00000030: 66cb 183e 044c 17bd 5124 50be 4f46 583e

linear_stack.6.bias f4 [2]
-0.05785586 0.014139735
00000000: 44fa 6cbd 59aa 673c
