models/model_trt_c2_s0.1_b16_lr0.001_d0.5_e100.pth (torch, 4255 bytes, 6 tensors)

linear_stack.0.weight f4 [16, 16]
0	0x3e97e50c	0.29666936
1	0x3db1203f	0.086487286
2	0xbdd3dab2	-0.10344447
3	0x3e0429da	0.1290659
4	0xbbd40f98	-0.0064715855
5	0xbd0a3eed	-0.033751417
6	0xbd0e0d9b	-0.034680944
7	0x3e2cf8b8	0.16891754
8	0x3ce4af0e	0.027915504
9	0xbdbecdae	-0.09316574
10	0x3d2300c6	0.03979566
11	0xbef07489	-0.4696391
12	0x3e0320b0	0.12805438
13	0x3f081235	0.5315278
14	0x3de7816a	0.11303981
15	0x3d2266fd	0.039649
16	0x3d856f90	0.065154195
17	0xbdd9032f	-0.1059631
18	0x3bf54f55	0.0074862638
19	0xbe1b71e4	-0.15180165
20	0x3e1021d1	0.140754
21	0x3db3eeca	0.0878578
22	0x3da04861	0.07826305
23	0x3d045745	0.03230979
24	0xbd6ac0cc	-0.05731277
25	0x3d548c2f	0.051891502
26	0xbd3f4ec1	-0.046705965
27	0x3ea21143	0.31653795
28	0x3dcc3f8e	0.099730596
29	0xbedaa5bc	-0.4270457
30	0x3e44986f	0.19198774
31	0xbf07e7d6	-0.5308813
32	0x3deb37a3	0.11485221
33	0x3e3285bd	0.1743383
34	0x3e08d96e	0.13364193
35	0xbcbf1ef9	-0.023330199
36	0xbdbbf9a9	-0.09178478
37	0x3daad230	0.08340871
38	0x3aa56b25	0.0012620433
39	0x3d7c69c1	0.061624292
40	0xbde67b45	-0.112539805
41	0x3e8520d4	0.26001608
42	0x3da5a8ce	0.080888376
43	0x3e847ef3	0.25878105
44	0x3e92828c	0.28615224
45	0xbf3fd8de	-0.7494029
46	0x3dd51d05	0.10405926
47	0xbe428417	-0.18995701
48	0xbed8e260	-0.4236021
49	0x3ec01f38	0.37523818
50	0x3c9b9624	0.018992491
51	0x3e578f36	0.21050724
52	0xbdabbb2d	-0.0838531
53	0xbcc621b4	-0.024185993
54	0xbba0a158	-0.004902046
55	0xbca70e6c	-0.02039262
56	0xbe1da0c4	-0.15393358
57	0x3e614699	0.21999587
58	0xbe28dd0f	-0.16490577
59	0xbd945ac4	-0.07243875
60	0xbd5b7452	-0.05357773
61	0x3e977330	0.2958007
62	0xbd83629b	-0.06415292
63	0x3d11e14f	0.03561526
64	0x3d8c4f8f	0.06851112
65	0x3ed8c7c5	0.42339912
66	0x3e4b0ca7	0.19829045
67	0x3d8be011	0.06829847
68	0xbe093cbf	-0.13402079
69	0xbe2ecedb	-0.17071097
70	0x3c9704e7	0.018434955
71	0xbe58ce5f	-0.21172474
72	0x3e34a45c	0.17640823
73	0xbd6bc3af	-0.057559665
74	0xbdb44014	-0.088012844
75	0x3e598f8c	0.21246165
76	0xbd9c5263	-0.076329015
77	0x3e16bfd8	0.1472162
78	0xbec18e9f	-0.37804124
79	0x3e9dd08a	0.30823165
80	0x3e8c9456	0.2745692
81	0x3eebeaeb	0.46077666
82	0x3ea41b82	0.32052237
83	0xbda66f1f	-0.081266634
84	0x3e6497f2	0.22323588
85	0x3db49857	0.08818119
86	0x3d23cec1	0.039992098
87	0x3c1ac29b	0.009445812
88	0x3ccb3e62	0.02481002
89	0xbe3cf5a5	-0.18453081
90	0xbe825686	-0.25456637
91	0xbebf5733	-0.37371215
92	0x3dd14617	0.10218447
93	0x3e9a3f91	0.30126622
94	0x3e186099	0.14880599
95	0xbe12fd67	-0.14354478
96	0xbe62e0b4	-0.2215603
97	0xbd97336e	-0.07382856
98	0x3eacd27c	0.33754337
99	0x3e227419	0.158646
100	0x3e00c9d3	0.1257699
101	0x3d97b8f7	0.07408326
102	0x3d336200	0.043794632
103	0x3cbbc523	0.02292115
104	0xbdfcad6e	-0.123377666
105	0x3ddfefbc	0.109343976
106	0xbc4b62db	-0.012413706
107	0x3d307177	0.04307696
108	0x3d6a97c9	0.05727366
109	0xbf169ec6	-0.5883602
110	0x3d869fc2	0.0657344
111	0xbd909392	-0.07059397
112	0x3e429148	0.19000733
113	0xbe629f90	-0.22131181
114	0xbebf8461	-0.37405685
115	0xbda99d14	-0.082819134
116	0xbd42e511	-0.047581736
117	0x3dedc753	0.11610284
118	0xbd130fb6	-0.035903655
119	0x3a83bfa3	0.0010051619
120	0xbd7f3ec6	-0.062315725
121	0xbec55941	-0.38544658
122	0x3e9e444c	0.3091148
123	0x3ce50039	0.027954208
124	0xbc6f39ea	-0.01460121
125	0xbecea8fb	-0.40363297
126	0x3e4564d2	0.19276741
127	0xbe983e1c	-0.29734886
128	0x3eda5dd3	0.42649707
129	0x3e7b74dc	0.24556297
130	0xbdbba7e0	-0.09162879
131	0x3e077161	0.13226844
132	0x3d33d839	0.043907378
133	0xbd1d4d00	-0.03840351
134	0xbd152f36	-0.036421977
135	0x3e8179fe	0.25288385
136	0xbe0b677f	-0.136137
137	0xbe36659f	-0.17812203
138	0xb9811d12	-0.00024626456
139	0xbee7c463	-0.4526702
140	0x3df195f4	0.117961794
141	0x3ef22cbd	0.47299758
142	0x3e2ce325	0.16883524
143	0x3ce3d09e	0.027809437
144	0x3d4cf818	0.05004129
145	0x3e982e80	0.29722977
146	0xbd138f70	-0.036025465
147	0xbdd66e7e	-0.104702935
148	0xbd983179	-0.07431311
149	0xbe2cc0e3	-0.16870455
150	0x3d83cc25	0.06435422
151	0xbe921388	-0.28530526
152	0x3dee8a80	0.116475105
153	0xbe075833	-0.13217239
154	0xbd221bba	-0.039577223
155	0x3e79c6b9	0.24392213
156	0xbd9bc137	-0.07605212
157	0x3d8d384a	0.06895502
158	0xbeb3fc4c	-0.35153425
159	0x3f036eef	0.51341146
160	0xbef750b5	-0.48303762
161	0xbeb531d0	-0.35389566
162	0xbe4488f7	-0.19192873
163	0x3cdd3dc7	0.027006997
164	0x3dc73d1f	0.09728455
165	0x3ee56400	0.44802856
166	0xbdb4d014	-0.0882875
167	0xbdd16b3e	-0.10225533
168	0xbde01ede	-0.109433874
169	0x3ec07fe4	0.37597573
170	0x3dae343b	0.08506056
171	0xbe03fbf9	-0.12889089
172	0xbe905da3	-0.2819644
173	0xbd158ae6	-0.036509417
174	0xbd714d03	-0.058911335
175	0xbda9ebf8	-0.082969606
176	0xbdfb0234	-0.122562796
177	0xbe3c176e	-0.18368313
178	0x3e177260	0.14789724
179	0xbbd1ad79	-0.0063988534
180	0x3ea73af5	0.32662168
181	0xbd18fa9e	-0.037348382
182	0xbd81a584	-0.06330398
183	0x3d4cd220	0.05000508
184	0x3e83cfb0	0.2574439
185	0x3e07b82d	0.13253851
186	0xbe525c69	-0.20543064
187	0x3e683f2f	0.22680353
188	0x3e075826	0.1321722
189	0xbf4d80cd	-0.8027466
190	0x3dfb79e3	0.122791074
191	0xbe9f2ff7	-0.31091282
192	0xbdaf990a	-0.08574112
193	0xbe7b8f99	-0.24566497
194	0xbee47dc3	-0.446272
195	0x3e5631c9	0.20917429
196	0xbe0cdc53	-0.13755922
197	0x3c217f5a	0.009857023
198	0xbcb7b28c	-0.022424005
199	0x3b8aba0a	0.0042336034
200	0xbcc2b414	-0.023767509
201	0x3ea797d5	0.32733026
202	0x3ea7ad21	0.32749274
203	0xbeca75b5	-0.39542928
204	0xbe59e644	-0.21279246
205	0x3ba6eeec	0.0050943997
206	0x3e52fef8	0.20605075
207	0xbe63297c	-0.22183794
208	0xbf4c1853	-0.79724616
209	0xbe90a145	-0.2824804
210	0xbe05aac8	-0.13053429
211	0xbdd75072	-0.105133906
212	0x3d1fdd83	0.03902961
213	0x3cfcf617	0.030879064
214	0xbc99a59d	-0.018755728
215	0xbcd379ee	-0.025814977
216	0xbd200227	-0.039064553
217	0x3d515d7a	0.051114537
218	0xbd98f3e8	-0.074683964
219	0x3e52c7d6	0.20584044
220	0xbd4925e3	-0.049108397
221	0xbdf0adb7	-0.117518835
222	0x3d00cb50	0.031443894
223	0xbda02855	-0.07820193
224	0x3ea05819	0.31317213
225	0xbd817064	-0.06320265
226	0xbebb5227	-0.36586115
227	0x3de6a6e9	0.11262304
228	0x3e0514a4	0.12996155
229	0xbdb42a8d	-0.087971784
230	0xbd9e65e1	-0.077342756
231	0x3cf5cd09	0.030004995
232	0x3e84a67b	0.25908265
233	0xbec80349	-0.39065006
234	0x3def4768	0.116835415
235	0x3e736f4b	0.23772924
236	0xbea4c427	-0.32180902
237	0x3deb753c	0.1149697
238	0x3cf4ec5d	0.029897863
239	0xbe2360d8	-0.15954912
240	0xbcb09cf7	-0.021559222
241	0xbe1c6b10	-0.15275216
242	0x3e0e0126	0.13867626
243	0x3e39c114	0.1814006
244	0x3e3fe8ee	0.187412
245	0xbebbfb04	-0.36714947
246	0x3d30b6e8	0.043143183
247	0x3c86ab76	0.01643918
248	0x3e0a844e	0.13527033
249	0x3d6b99d8	0.057519764
250	0xbea42d3f	-0.3206577
251	0x3eb56ea9	0.3543599
252	0xbe16f8f2	-0.14743403
253	0xbe2b51b0	-0.1673038
254	0x3e24e8fb	0.161045
255	0xbda38164	-0.07983664

linear_stack.0.bias f4 [16]
0	0x3bb89330	0.0056327805
1	0xbe96fd56	-0.29490155
2	0xbed0b373	-0.4076191
3	0xbdd8c089	-0.10583598
4	0xbe5d3212	-0.21601132
5	0xbe8c639a	-0.2741974
6	0xbe933800	-0.28753662
7	0xbec4d22a	-0.38441592
8	0x3ba51cff	0.005038857
9	0xbeafbdad	-0.343244
10	0xbede0182	-0.43360525
11	0xbef289f8	-0.47370887
12	0xbeb3bb67	-0.35103914
13	0xbed4fa84	-0.41597378
14	0xbe8b5676	-0.27214402
15	0xbeb9e0cb	-0.36304316

linear_stack.3.weight f4 [8, 16]
0	0xbf0534be	-0.52033603
1	0x3e5a74b7	0.21333586
2	0x3f676b01	0.9039765
3	0xbeed5ed9	-0.46361426
4	0xbe64b469	-0.22334446
5	0xbf3df832	-0.7420684
6	0x3e4fb15d	0.20282502
7	0x3e6a9b25	0.22910745
8	0xbf02efa0	-0.5114689
9	0xbf0543a0	-0.5205631
10	0xbf1bc8f2	-0.60853493
11	0x3f105bee	0.56390274
12	0xbedcee6e	-0.43150657
13	0xbf524dd3	-0.8215
14	0x3ebb168b	0.36540636
15	0x3db25ba5	0.08708886
16	0x3cd5ad4b	0.02608361
17	0xbf0af8cd	-0.5428589
18	0xbf09db59	-0.5385032
19	0x3c828310	0.015931636
20	0xbedf14d0	-0.43570566
21	0xbd367a13	-0.044550013
22	0xbebb7663	-0.3661376
23	0xbeb6a8f2	-0.3567577
24	0x3de8abea	0.11360915
25	0xbef7b45f	-0.483798
26	0x3eef30b5	0.46716848
27	0xbef5d27b	-0.48012146
28	0x3ea58ace	0.32332462
29	0x3eaa163d	0.3322009
30	0xbe88856b	-0.2666429
31	0xbeb1de57	-0.34739944
32	0x3a2198f6	0.00061644556
33	0xbf1ee5e5	-0.6206954
34	0xbf267bd5	-0.650327
35	0x3bc322e6	0.005955088
36	0xbeca166b	-0.3947023
37	0xbd070fd5	-0.032974083
38	0xbefc44ca	-0.49271232
39	0xbf136c25	-0.5758689
40	0x3cdff24b	0.027337214
41	0xbea90b88	-0.3301661
42	0x3ebfe278	0.3747747
43	0xbf262986	-0.6490711
44	0x3e8ebb02	0.2787705
45	0x3e758042	0.23974708
46	0xbeb73790	-0.35784578
47	0xbe9155de	-0.28385824
48	0x3d49391d	0.049126733
49	0xbf28285d	-0.6568659
50	0xbf1ec627	-0.62021106
51	0x3d08b6eb	0.03337757
52	0xbee47fba	-0.44628698
53	0xbd4fcfd5	-0.050735313
54	0xbeef14cc	-0.46695554
55	0xbf07f06d	-0.53101236
56	0x3d811b88	0.06304079
57	0xbecf45af	-0.40482852
58	0x3e928b1b	0.28621754
59	0xbf058ec8	-0.5217099
60	0x3e81d161	0.25355056
61	0x3e806bc5	0.25082222
62	0xbe5a3a24	-0.21311241
63	0xbe954605	-0.29154983
64	0x3e0a0359	0.1347784
65	0xbeafe459	-0.34353903
66	0xbec4a50f	-0.3840718
67	0x3cc11f11	0.023574384
68	0xbe95f6d2	-0.2928987
69	0xbce7ab2d	-0.028279865
70	0xbe90e067	-0.28296205
71	0xbe361188	-0.17780125
72	0x3c2e4cf2	0.010638462
73	0xbea103cc	-0.3144821
74	0x3eec713c	0.4618014
75	0xbee8cab3	-0.45467147
76	0x3e518f7d	0.20464893
77	0x3ea7a4f9	0.32743052
78	0xbe16d39f	-0.14729165
79	0xbe9e759e	-0.3094911
80	0xbea6bee4	-0.32567513
81	0x3e2c891c	0.16849178
82	0x3f5cb06d	0.86206704
83	0xbe9baa49	-0.30403355
84	0xbe2a4294	-0.1662696
85	0xbe8dde23	-0.2770854
86	0x3e89b440	0.26895332
87	0x3e878b2b	0.26473364
88	0xbe7192d2	-0.23591164
89	0xbdeb44ba	-0.11487718
90	0xbef4a18c	-0.477795
91	0x3f7952e9	0.97392136
92	0xbee3d47c	-0.4449805
93	0xbf4051c1	-0.75124747
94	0x3ed096ab	0.4073995
95	0x3db3e7e5	0.08784465
96	0xbeceec89	-0.40414837
97	0x3e032712	0.12807873
98	0x3f235a69	0.6380983
99	0xbef263ac	-0.4734167
100	0xbe58ffa3	-0.21191268
101	0xbf180946	-0.5938915
102	0x3e355631	0.1770866
103	0x3e168eea	0.14702955
104	0xbef3bc03	-0.4760438
105	0xbea76939	-0.32697466
106	0xbf02ed05	-0.51142913
107	0x3f11122a	0.5666834
108	0xbec2117b	-0.37903962
109	0xbf2db484	-0.6785357
110	0x3e946148	0.2898047
111	0x3d90d00d	0.070709325
112	0x3d62c61a	0.055364706
113	0xbf23e1dd	-0.64016515
114	0xbf1ebba1	-0.6200505
115	0xbbf4297b	-0.007451234
116	0xbecbc8bf	-0.39801595
117	0xbda52044	-0.08062795
118	0xbec6cdd6	-0.38828915
119	0xbef1f3d6	-0.47256345
120	0x3cb4e8b7	0.022083623
121	0xbebcb073	-0.3685337
122	0x3ee3b181	0.44471362
123	0xbf0f531c	-0.5598619
124	0x3e72763e	0.23677918
125	0x3eb8244d	0.35965195
126	0xbeaf35be	-0.3422069
127	0xbe75c364	-0.24000317

linear_stack.3.bias f4 [8]
0	0x3dfc3593	0.12314906
1	0x3e194e46	0.14971265
2	0x3e431841	0.19052221
3	0x3e30c39d	0.1726212
4	0x3dfbf6b3	0.123029135
5	0x3db9dd7d	0.09075449
6	0x3dff6f93	0.12472453
7	0x3e477489	0.19478048

linear_stack.6.weight f4 [2, 8]
0	0x3f46b017	0.7761244
1	0xbe1b085c	-0.15139908
2	0xbf2636fd	-0.64927655
3	0xbf26c179	-0.65138966
4	0xbef8f3b3	-0.48623428
5	0x3f646fa0	0.89232826
6	0x3f7f9886	0.9984211
7	0xbd837104	-0.064180404
8	0xbf0d9913	-0.553117
9	0x3f09742b	0.53692883
10	0x3e564349	0.20924105
11	0x3e1bba5c	0.15207809
12	0x3ed22af0	0.41048384
13	0xbf130f04	-0.5744479
14	0xbf4a4219	-0.79007107
15	0x3f1ffc7d	0.6249464

linear_stack.6.bias f4 [2]
0	0xbd97122c	-0.07376513
1	0x3cf627fb	0.030048361
