models/model_yt_c2_s0.1_b16_lr0.001_d0.5_e20.pth (torch, 4255 bytes, 6 tensors)

linear_stack.0.weight f4 [16, 16]
00000000: 20f5 81bd f725 353e 41a0 1e3e f16a 013c
00000010: a2f0 44be 7c63 853c e302 083e eaf1 6dbc
00000020: 3228 b53d 933b be3d 704d aebd 5cdd a2be
00000030: 0f97 6b3e 1d4f ac3e 13ca fb3d a3d8 b83c
00000040: 0a46 7b3e 7b54 d4bc 043f d83d eeac 3abe
00000050: 45db 033e b1e6 4fbd 5950 7b3e 4272 06bc
00000060: bb69 ab3b 7abc 82bd 51b4 c6bd 4628 9c3d
00000070: 6af0 6ebe 5123 36be 613e 7fbd 021f 08be
00000080: c503 e73e 286b 82bd 1da7 d8bc 10e0 16be
00000090: 0cee 38be cc5d a5bd 85f8 873d 66e4 3f3d
000000a0: 21de 193c c5a1 8b3e 8b1f 643e 4fa6 093d
000000b0: bbd3 41bd cc66 7bbe 9c2e 96bd 709a 11bc
000000c0: 43b9 683c 06a9 133e 35f1 11be 0d41 443e
000000d0: 47d0 2dbe b5a2 3b3e d291 993d ca2b 353e
000000e0: 85a1 63bd 29c6 b6bd 4ef4 aebc a0e5 883e
000000f0: 30a9 713c d115 4c3e 67b6 ca3d 5c16 2e3b
00000100: 3a83 3a3e fbfc dd3d 838d 503e 2e88 193e
00000110: eb19 1abd 3f11 a4bd 7c59 9e3d 10c4 4b3d
00000120: 3342 2e3d 8f26 e5bd 3b0e 67bd 9696 02be
00000130: 131d e3bc 468b 26be 112b 3cbe 9f25 76bc
00000140: e447 933e e4c8 263d 5a69 a43e 42c8 e3bd
00000150: 26af 633e 235a 873d 46ee 8fbc 2724 41bd
00000160: c7ee ec3d ae49 7d3b 22e4 1bbd cbf5 73be
00000170: 05d8 0cbe 83a5 56be c048 c5bd f288 4dbe
00000180: 8be3 b33c c81d 96be 9a5b 343e 35de 293e
00000190: fb4c 8f3d 006c 7a3e 5551 46be b2c6 ee3d
000001a0: 98a4 7cbd 8c02 55bd 472b 61bd 5069 e13c
000001b0: 6e35 5b3d a15a b5bd 46cf 65be 740a e03d
000001c0: 6761 4a3e ce0c 643d 3955 ebbe f5d4 80be
000001d0: 744f 09be bd9b 61be d262 843e 2a40 08be
000001e0: 92c4 58bd 3745 31be ff82 3c3e 129c 033e
000001f0: 40a2 b6bd 12d8 04bb 2186 b03d 1369 253d
00000200: a1ac 373d 87a8 5f3e b5ec 64bd d28b 643d
00000210: d442 2bbe bafd 823e 2816 803d dc53 55bd
00000220: 8cab 943d 323d 1cbe ebf3 77bc cfd6 94be
00000230: 1777 9e3e 1260 d23e ff2c e33d 9266 0cbe
00000240: 3606 4b3e 9c24 abbc 0647 1abc 1daa 00be
00000250: 59d7 37bd d416 a8bd cef4 033e 6f2d 3cbe
00000260: 5625 333e 6c8b 953c 6917 cc3d 0ee8 4fbd
00000270: 14b8 af3c d3ab 9ebb e640 583b c889 863e
00000280: 3974 45be a915 bfbe 6ace ad3d f527 553d
00000290: 384b 1d3e b94e 483e 8581 15bb 9eb6 c6bd
000002a0: b77a ecbd 686a 5b3e da88 2cbd e403 b7bc
000002b0: 45c6 aebd 4908 863d e590 6cbe fb8c b4bd
000002c0: f376 c6be 4f32 72be b392 1b3d 3df0 3dbe
000002d0: f4ce 813e 8885 c7be 79d2 e13c fb40 903c
000002e0: 63e0 053e 6c6e 80be b265 0ebe a6a4 943e
000002f0: 88f9 0dbe 2237 973d 1327 913d ca66 903d
00000300: bb21 2d3e 44d1 87be ff2a 18be fe1c 5b3e
00000310: 6cce 69be 21d8 463c fdba afbd 31ba c43d
00000320: c019 2a3e e905 1ebc 2a86 c3bc 93b5 b2bd
00000330: 36e8 a7bd acac 49bd bc11 9a3e 30e6 7abe
00000340: 045d 3bbe f285 37bd b991 e7bd 5ba0 16bd
00000350: 98c5 7a3d 7235 d43d 71ef bcbd 7dfa 0f3d
00000360: 7dd3 b53e f02d 65be cc13 8ebe 61ea a13d
00000370: 1ada 4b3d c3f7 a53d 4ece 593d 8689 aebc
00000380: 6f88 06be c19f 693e a67b d7bd 8f0a 5e3d
00000390: 4702 a93d 5e3d d0bd 53c3 cdbd a3ad 453e
000003a0: 8480 493e 3689 b4be 2417 6dbe 929d 8fbd
000003b0: c0a8 e8bc 1ddb dd3e a333 73be 0aae d7bd
000003c0: d7e8 e1bd c250 1abe 5e8e 82be 6ff5 223e
000003d0: 374f 1a3e 6e18 55be 0801 84bd 59cf 333e
000003e0: c4fb 463e e21a 95be 3d1e 9cbd 1cbc 823e
000003f0: 1ed0 d13c f4e4 efbd edeb d3bd 5cc3 163d
-0.06345582 0.17690264 0.1549082 0.007899032 -0.19232419 0.01628279 0.13282351 -0.014523009
0.08845557 0.09288707 -0.08510864 -0.3180951 0.23006843 0.3365411 0.12294402 0.022564238
0.24538437 -0.02591919 0.10558894 -0.1823003 0.12876613 -0.050757114 0.24542369 -0.008205952
0.00523111 -0.06383605 -0.097023614 0.07624869 -0.23333898 -0.1778691 -0.06231535 -0.13293079
0.45120063 -0.06368095 -0.026446873 -0.1473391 -0.18059558 -0.08074531 0.06639198 0.046848677
0.009391339 0.27271858 0.22277658 0.03360587 -0.047321063 -0.24550933 -0.07333109 -0.008886918
0.014204326 0.14419946 -0.1425217 0.1916544 -0.16973983 0.18323787 0.07498516 0.17692485
-0.05557396 -0.08924515 -0.021356728 0.2673769 0.01474981 0.19930197 0.09898072 0.002656362
0.18214121 0.10839268 0.20366482 0.14993355 -0.037622374 -0.08011102 0.077319115 0.049747527
0.0425436 -0.11188995 -0.056410056 -0.12752756 -0.027723825 -0.16264066 -0.18375804 -0.015023618
0.28765786 0.040718928 0.32111627 -0.111221805 0.22234783 0.06608989 -0.017569672 -0.04715362
0.11568981 0.0038648653 -0.03805936 -0.23824231 -0.1375428 -0.20961575 -0.096330166 -0.20071772
0.021959087 -0.29319596 0.17613068 0.16588672 0.06997105 0.24455261 -0.19366963 0.11658992
-0.061680406 -0.052004382 -0.054972913 0.027516037 0.05351775 -0.08855177 -0.2244235 0.10939494
0.19763719 0.055676274 -0.45963457 -0.25162473 -0.13409215 -0.22032066 0.25856644 -0.13305727
-0.05292184 -0.1731156 0.18409346 0.12852505 -0.089176655 -0.002027039 0.08619333 0.04038341
0.044842366 0.21841632 -0.055889804 0.055797406 -0.16724712 0.25584203 0.06254226 -0.052081928
0.072592825 -0.15257719 -0.015133838 -0.29070136 0.30950233 0.4108892 0.11092567 -0.13711002
0.19826588 -0.02089148 -0.009416347 -0.12564893 -0.044883106 -0.08207479 0.12886354 -0.18376707
0.17494711 0.018254958 0.09965403 -0.050758414 0.02145008 -0.0048422604 0.0032997667 0.26276994
-0.19282617 -0.37321213 0.08486636 0.05204006 0.15360725 0.1956128 -0.0022812795 -0.097028
-0.115468435 0.2142731 -0.0421227 -0.022340722 -0.08533911 0.06544549 -0.23102148 -0.088159524
-0.38762626 -0.23652004 0.0379817 -0.18548675 0.25353205 -0.38969064 0.027566181 0.01760911
0.13073878 -0.25084245 -0.13905981 0.29031867 -0.1386472 0.073835626 0.07087531 0.070508555
0.16907398 -0.26526845 -0.14860152 0.21397778 -0.2283265 0.01213649 -0.08580587 0.09605826
0.16611385 -0.009644964 -0.023867685 -0.08726039 -0.081985876 -0.04923694 0.30091655 -0.24501872
-0.18297201 -0.044805475 -0.11307091 -0.03677402 0.061223596 0.103617564 -0.09225357 0.035150994
0.35512915 -0.22380805 -0.2774948 0.07906032 0.049768545 0.081038974 0.053175263 -0.02130581
-0.13137983 0.22814848 -0.10521631 0.05420929 0.082523875 -0.10167955 -0.10047021 0.19304518
0.19677931 -0.35260934 -0.23153359 -0.07012476 -0.028400779 0.43331233 -0.23750167 -0.10531242
-0.11030739 -0.15069869 -0.25499243 0.15913938 0.1506928 -0.208101 -0.06445509 0.17559566
0.19431978 -0.29122072 -0.07622955 0.2553414 0.025611933 -0.11713591 -0.10347734 0.036807403

linear_stack.0.bias f4 [16]
00000000: 7853 aa3d bf01 cdbd 295e 363e ac00 403e
00000010: 262c 373d c95e d3bd a509 9abd 536a 44be
00000020: 8a11 f3bb d790 ffbd f115 55bd ef09 8fbe
00000030: fc1a 313e 26bf c43d 75a2 78bd cfe2 273e
0.08316702 -0.10010099 0.17809357 0.18750256 0.044719838 -0.10320813 -0.07521371 -0.19181184
-0.0074178623 -0.12478798 -0.052022878 -0.27937266 0.1729545 0.09606771 -0.060701806 0.16395114

linear_stack.3.weight f4 [8, 16]
00000000: 8fe6 5f3e f1ad fa3d 8c66 8e3c d82d 773d
00000010: 9f0e 59bd 2d51 bbbe eeb3 e8bc ec96 96be
00000020: 0124 39bd 69dc d7bd bc70 8fbe d02c babe
00000030: 23c6 5abe c706 6c3e 7e87 743e 7586 68bd
00000040: db4d 533e 80f8 2abe 496a a7be 6422 e53d
00000050: b9cb 00be a90e b3be f044 763d e340 9cbe
00000060: 1db3 503e 826c ac3b 2a75 243e d9cc 52be
00000070: ae4d 273e a11c 5e3e c10b c9bc f05b 5f38
00000080: 4dc5 183e 4ed9 f3bd d504 c4be 28a7 f23c
00000090: 8f40 52be 8b34 06be b5c2 36be d779 eabe
000000a0: 1e61 233e eec7 7e3e 363b 19be b06b d7be
000000b0: 9fe6 4d3e fd27 313b fc7e 093a 10fb e33d
000000c0: 301a 853e e0ef 30be e422 2ebe b18e e03b
000000d0: 7906 7fbd a991 a63d 11cc 8fbe b9d5 1cbe
000000e0: fde9 b1bd 9e83 593e cd58 aebd 145f 49be
000000f0: 1bfd b33d acd5 563d 7310 433e e3f2 40be
00000100: 7e9a 0f3e 4d31 d5bb 7404 a2be d939 0fbe
00000110: 4997 ce3d 05ad 6abe 999a b23d 391f e6bd
00000120: ce1b 853d 29df b4bd 8626 95bc fd4d 19be
00000130: 1dd7 37be 8d86 183d 141a 8a3e 6dca 99bc
00000140: 915c 5fbe 2386 603d 2690 65bd 3b4c 84be
00000150: 675f 1b3e 5da9 413e d0c6 3d3e ec67 553e
00000160: f2e8 f5bd 982d 153e 7bad 2f3e e82c 353e
00000170: 9908 853c 6c79 a7be bc56 56be 2482 a4be
00000180: 40ee 89bd 2ee7 0c3e 6a5b 673d d403 7fbe
00000190: 8758 7bbc 2712 6e3c 3011 413c 4947 d43d
000001a0: 977e e1bd b4dc 1b3d ed4c 1cbd 228e 853e
000001b0: 18f3 3f3c 0b4b f1bd 7a13 7dbd 1143 a6bd
000001c0: 537d e6bd 3a46 e0bc e05f 3e3e 5343 3abd
000001d0: f001 a23b fc76 6a3e efcf ac3e 957c 683c
000001e0: 1173 a8bd 263f c83d f302 6c3e 563b 143f
000001f0: 8bfe b93b c10e babd e3d3 a0bd b9e1 47be
0.21865295 0.12240208 0.017382883 0.060346454 -0.05299246 -0.3658537 -0.02840611 -0.2941202
-0.04520035 -0.10540087 -0.28015697 -0.36362314 -0.21364646 0.2304946 0.23879811 -0.056768853
0.20635168 -0.16696358 -0.32698277 0.111882 -0.12577714 -0.34972122 0.060124338 -0.30518255
0.20380826 0.0052619586 0.1606032 -0.20585956 0.16338226 0.21690609 -0.024541738 5.3252967e-05
0.14919014 -0.11906682 -0.38284937 0.029620722 -0.2053244 -0.13105981 -0.17847712 -0.4579608
0.15955016 0.24880955 -0.14963993 -0.42074347 0.20107506 0.0027031892 0.00052450574 0.11131871
0.25996542 -0.17279005 -0.17005497 0.0068529476 -0.062262032 0.08133251 -0.28085378 -0.15315904
-0.08687208 0.21241614 -0.08513031 -0.19665176 0.087885104 0.052449867 0.19049244 -0.18842654
0.14023778 -0.0065061213 -0.31644022 -0.13986911 0.10087449 -0.22917564 0.087208934 -0.11236424
0.06499444 -0.08831627 -0.018206846 -0.14971156 -0.17953153 0.037237693 0.2697302 -0.018773282
-0.21812655 0.054815423 -0.056045674 -0.2583941 0.15173112 0.18912263 0.18532872 0.20840424
-0.120073214 0.14568174 0.17156021 0.17692912 0.016239451 -0.32709825 -0.20931524 -0.3213054
-0.06734896 0.13760063 0.056483664 -0.24903804 -0.015340931 0.014530695 0.011783883 0.10365159
-0.11010473 0.038052276 -0.0381593 0.26085 0.011715673 -0.117818914 -0.061786152 -0.08118261
-0.112543724 -0.027377237 0.18591261 -0.04547436 0.0049440786 0.22896951 0.3375239 0.014189859
-0.08225072 0.097776696 0.23048 0.5790304 0.005676096 -0.09084845 -0.07852914 -0.195197

linear_stack.3.bias f4 [8]
00000000: e6b3 933e a5b8 22bc ab1d 233e 8438 9bbd
00000010: 9c3b e9bd f8d6 423e 2624 383e ec89 273e
0.2884819 -0.009931718 0.15929286 -0.07579139 -0.11388323 0.19027317 0.1798254 0.16361207

linear_stack.6.weight f4 [2, 8]
00000000: e0e3 643c 5363 ef3d a6a8 b9be a772 b6be
00000010: 7b8a 8abe a67d b33e c230 8d3e 6275 c83e
00000020: 480e 563e 3f8b 893e 6e8e 9ebd a966 12be
00000030: bd83 473e 26e0 05bd a50f 8abd a64e 2d3e
0.013970345 0.116888665 -0.3626148 -0.35634348 -0.27058777 0.350568 0.27576262 0.39152056
0.20903885 0.2686405 -0.0774201 -0.14296974 0.19483848 -0.032684468 -0.06741265 0.16924533

linear_stack.6.bias f4 [2]
00000000: dd90 ccbb 957d 19bd
-0.006242855 -0.03747328
