models/model_pa_c2_s0.1_b16_lr0.001_d0.5_e100.pth (torch, 4255 bytes, 6 tensors)

linear_stack.0.weight f4 [16, 16]
-0.11327873 0.30571696 -0.12954685 0.056955803 -0.070399955 -0.15524243 0.18492623 -0.09598527
-0.05629634 -0.26443803 0.0887691 0.09223806 0.09405397 -0.033866458 0.40257463 -0.34212655
0.3310022 0.00086331484 0.2484985 -0.012108591 0.27788556 0.035601463 0.036456905 0.07884948
-0.06414223 -0.049163673 -0.29388508 0.42462772 -0.04929614 0.30589047 0.33545917 -0.38498482
0.46184134 0.029069677 0.3906124 -0.047154732 -0.10765823 0.055852108 0.0038341729 0.009715199
0.024714291 0.39200604 -0.018195007 -0.16194569 0.26167348 0.15626284 0.23819232 -0.105629764
0.2630413 0.13602051 -0.5111856 0.2277612 -0.033608172 -0.039414868 0.10875328 0.09029846
-0.108660884 -0.26125747 0.04455486 0.14506286 0.28682867 -0.12757598 -0.05662133 -0.31265974
-0.029619273 0.26433405 0.16889693 0.04549285 -0.1505907 -0.06433899 0.09213613 -0.06591024
0.10249342 -0.23082885 0.24536687 0.011338913 -0.30144686 0.020268105 -0.33170784 0.31458354
0.15463431 0.52024704 0.16164161 -0.122781545 0.29677525 -0.18199983 -0.054735698 0.016714416
-0.09692899 -0.12849833 -0.37027258 -0.22360265 0.019978542 -0.20337671 -0.020657292 0.18448664
0.28807193 -0.39860684 0.052976493 0.23987673 0.1829509 0.06295014 -0.08046056 -0.10521154
-0.114555895 0.09018715 -0.18896817 0.2681896 0.11015959 0.14600837 -0.0755432 0.2208346
0.051988408 0.054745767 -0.60710186 -0.16806123 -0.056262735 -0.18345273 0.14567897 -0.16540731
0.10322208 -0.3825285 -0.15854277 0.21241118 0.16548109 -0.15565386 0.41532803 -0.25179785
-0.04530949 0.16861701 -0.3870183 0.0062103732 -0.098267 -0.10905674 0.20931631 0.019213352
-0.088036574 -0.3587068 0.25008503 0.051510938 0.18883696 -0.20540555 0.4112984 -0.4040481
0.20645271 -0.084168255 -0.0028657403 0.0264712 0.10447168 -0.09640981 0.24116687 -0.2079971
0.0041485755 0.07590096 -0.028386746 0.10170061 -0.22883177 0.078388795 -0.21641983 0.41286564
-0.3277803 0.23763563 0.1473837 0.08640999 0.20398441 0.1883691 0.10668971 0.22493614
-0.14084023 0.021209346 0.015145608 0.24912354 0.20220132 0.058331948 -0.17562602 -0.3751777
-0.5373556 -0.37456435 -0.079728305 -0.15019457 0.25255302 -0.35174352 0.054440763 0.023961
0.25337458 0.13333961 -0.22910446 0.07779756 -0.040295247 -0.18128993 -0.13968359 -0.18658386
0.18900342 -0.17150122 -0.61847824 0.13081849 -0.3043585 -0.047091883 -0.060871795 -0.16073918
0.23174615 -0.42950934 -0.13947968 0.18873014 -0.013448887 0.12778352 0.29738548 -0.119776726
-0.25239956 0.013353855 -0.09121868 0.04440756 0.13269652 0.12561877 -0.13805382 -0.20940216
0.068125196 -0.0874414 0.020192632 0.24789892 -0.0115355635 -0.23214622 0.13771006 -0.48343042
0.12585224 0.20549557 -0.32834557 -0.059306756 -0.007720078 -0.22765002 0.14998552 -0.035456404
0.16432561 -0.3898952 0.00034107835 0.06292816 0.06279898 0.102763385 0.34443656 -0.27131563
0.056312565 -0.3763399 -0.37891048 -0.08342749 -0.18663637 0.085173585 -0.100620344 0.0350251
0.08490342 -0.17114669 -0.061027613 0.047904957 -0.17172149 0.05847542 -0.21496429 0.24888247
00000000: aefe e7bd ef86 9c3e eea7 04be 7d4a 693d
00000010: da2d 90bd dff7 1ebe 4d5d 3d3e ed93 c4bd
00000020: fe96 66bd 6c64 87be 93cc b53d 4fe7 bc3d
00000030: 5e9f c03d 8eb7 0abd 431e ce3e 362b afbe
00000040: 1f79 a93e 1450 623a 6476 7e3e 1d63 46bc
00000050: 0447 8e3e d7d2 113d d653 153d d67b a13d
00000060: 005d 83bd d95f 49bd 1b78 96be ce68 d93e
00000070: c0ea 49bd ad9d 9c3e 4ec1 ab3e bb1c c5be
00000080: 7876 ec3e 8823 ee3c 59fe c73e 5225 41bd
00000090: eb7b dcbd 2ec5 643d bf46 7b3b 7f2c 1f3c
000000a0: a075 ca3c 04b5 c83e b20d 95bc 17d5 25be
000000b0: 11fa 853e 5e03 203e b0e8 733e 6b54 d8bd
000000c0: 59ad 863e f648 0b3e 0fdd 02bf 3b3a 693e
000000d0: b9a8 09bd 7c71 21bd 0aba de3d 66ee b83d
000000e0: 9989 debd 8ac3 85be 287f 363d 5c8b 143e
000000f0: 35db 923e 47a3 02be c5eb 67bd f014 a0be
00000100: 1ea4 f2bc cb56 873e 51f3 2c3e b656 3a3d
00000110: 7334 1abe 29c4 83bd deb1 bc3d f3fb 86bd
00000120: 12e8 d13d 665e 6cbe 7441 7b3e d9c6 393c
00000130: 3e57 9abe 4c09 a63c 9cd5 a9be 1811 a13e
00000140: 7558 1e3e e92e 053f 6185 253e e474 fbbd
00000150: edf2 973e 2a5e 3abe 8a32 60bd acec 883c
00000160: b582 c6bd 1195 03be 5e94 bdbe 18f8 64be
00000170: 0aaa a33c fc41 50be 7b39 a9bc 11ea 3c3e
00000180: 2a7e 933e 3216 ccbe e1fd 583d 3fa2 753e
00000190: 7b57 3b3e 01ec 803d 82c8 a4bd 2679 d7bd
000001a0: 489c eabd 0ab4 b83d df80 41be 2650 893e
000001b0: 5a9b e13d 3883 153e 65b6 9abd 7722 623e
000001c0: ccf1 543d 193d 603d 076b 1bbf 3e18 2cbe
000001d0: c173 66bd 08db 3bbe de2c 153e 8960 29be
000001e0: 1966 d33d c7da c3be 0959 22be 5182 593e
000001f0: e073 293e ba63 1fbe e0a5 d43e a6eb 80be
00000200: 7296 39bd f0a9 2c3e 4327 c6be 6380 cb3b
00000210: 3540 c9bd 2459 dfbd 0457 563e 5265 9d3c
00000220: 854c b4bd 6ba8 b7be 250b 803e 22fd 523d
00000230: 7a5e 413e d555 52be b495 d23e 64df cebe
00000240: 5768 533e 6860 acbd 25cf 3bbb 21da d83c
00000250: 40f5 d53d 8272 c5bd 73f4 763e 31fd 54be
00000260: c6f0 873b f671 9b3d 528b e8bc 6948 d03d
00000270: e052 6abe 4e8a a03d 299d 5dbe 2063 d33e
00000280: d2d2 a7be c156 733e c1eb 163e b9f7 b03d
00000290: 4ae1 503e d4e3 403e 2280 da3d a955 663e
000002a0: 6c38 10be 39bf ad3c 4925 783c 3e1a 7f3e
000002b0: dd0d 4f3e 7bed 6e3d 4fd7 33be 4b17 c0be
000002c0: 2390 09bf e6c6 bfbe 9848 a3bd 9bcc 19be
000002d0: a14e 813e ba17 b4be 47fd 5e3d dc49 c43c
000002e0: 50ba 813e 2e8a 083e 5c9a 6abe 5454 9f3d
000002f0: a10c 25bd 11a4 39be 3709 0fbe d70f 3fbe
00000300: 1d8a 413e 049e 2fbe 9754 1ebf 48f5 053e
00000310: e1d4 9bbe 6be3 40bd b454 79bd d098 24be
00000320: dd4e 6d3e a6e8 dbbe c3d3 0ebe 7942 413e
00000330: b858 5cbc afd9 023e e942 983e 804d f5bd
00000340: 843a 81be 21ca 5a3c dcd0 babd b4e4 353d
00000350: 99e1 073e 35a2 003e fb5d 0dbe 856d 56be
00000360: 3985 8b3d 7a14 b3bd 056b a53c 37d9 7d3e
00000370: a9ff 3cbc bdb7 6dbe de03 0d3e 3184 f7be
00000380: 69df 003e 6e6d 523e e91c a8be a4eb 72bd
00000390: b5f8 fcbb 161d 69be ce95 193e bc3a 11bd
000003a0: f944 283e 58a0 c7be c3d2 b239 7be0 803d
000003b0: c09c 803d 9c75 d23d fd59 b03e e2e9 8abe
000003c0: 01a8 663d a0af c0be 8e00 c2be 08dc aabd
000003d0: 9b1d 3fbe 7d6f ae3d 0a12 cebd 7b76 0f3d
000003e0: d8e1 ad3d 1441 2fbe 17f8 79bd fd37 443d
000003f0: c2d7 2fbe ec83 6f3d 991f 5cbe 0cdb 7e3e

linear_stack.0.bias f4 [16]
-0.18870823 -0.4039211 -0.3717722 -0.24766955 -0.25780785 -0.468862 -0.6628946 -0.25866205
-0.19995745 -0.4747935 -0.7760445 -0.50975245 -0.33256617 -0.35416195 -0.23532772 -0.31655625
00000000: bb3c 41be bfce cebe ed58 bebe 169d 7dbe
00000010: 64ff 83be ae0e f0be 76b3 29bf 5a6f 84be
00000020: a5c1 4cbe 2218 f3be daaa 46bf 237f 02bf
00000030: 1d46 aabe b754 b5be c0f9 70be a913 a2be

linear_stack.3.weight f4 [8, 16]
-0.31033066 0.8290561 0.28497162 -0.41882288 0.25885102 -0.46624535 0.518376 -0.63702315
-0.50337034 0.39960337 -0.39878064 0.47162 -0.24900049 -0.24470094 -0.3662373 -0.37927136
0.25841716 -0.4949581 -0.41789502 0.10187359 -0.25260484 -0.64299744 -0.48365763 0.28924486
0.13996923 -0.122502364 0.6869633 -0.2849615 0.5160602 0.2431063 0.04040759 0.07775561
0.16977794 -0.7818788 -0.7398159 0.088990554 -0.44779703 0.24283017 -0.6068846 0.2261005
0.11226731 -0.21130708 0.5849595 -0.4565202 0.45377603 0.27537608 0.0987569 0.096392594
0.18050362 -0.69814926 -0.6124421 0.022043359 -0.44819453 0.2949436 -0.52799696 0.31602257
0.11623546 -0.16631576 0.6534308 -0.34663206 0.43477 0.28905296 0.099239305 0.1431121
0.17925507 -0.37242132 -0.28063488 0.08120562 -0.15175188 -0.64046353 -0.48402095 0.26883993
0.045799747 -0.14664827 0.5533047 -0.27023545 0.3584342 0.28596348 0.18290794 0.14592852
-0.22444974 0.62939894 0.18050915 -0.4101459 0.2421675 -0.3114001 0.58677214 -0.57264715
-0.43114007 0.3513145 -0.29905087 0.4764657 -0.19515024 -0.21169303 -0.37878937 -0.33182806
-0.3234144 0.58350444 0.21674147 -0.5022194 0.22967242 -0.26524425 0.5611834 -0.5191498
-0.3976549 0.3135061 -0.33994523 0.35279414 -0.14331016 -0.15391374 -0.38953757 -0.26482496
-0.3556461 0.6438367 0.24104844 -0.5075894 0.26517588 -0.33638716 0.61034924 -0.72558403
-0.44478422 0.41142982 -0.33779028 0.5419491 -0.24722221 -0.20576996 -0.41252798 -0.33269262
00000000: a9e3 9ebe 053d 543f cde7 913e f46f d6be
00000010: 1f88 843e b6b7 eebe 4ab4 043f f313 23bf
00000020: e1dc 00bf d098 cc3e fa2c ccbe 2d78 f13e
00000030: fcf9 7ebe e292 7abe 7583 bbbe db2f c2be
00000040: 414f 843e 266b fdbe 56f6 d5be 1aa3 d03d
00000050: 6c55 81be 7b9b 24bf f9a1 f7be e717 943e
00000060: 1854 0f3e 85e2 fabd d4dc 2f3f 79e6 91be
00000070: 851c 043f dcf0 783e 6e82 253d 553e 9f3d
00000080: 45da 2d3e 3629 48bf 9364 3dbf ae40 b63d
00000090: a745 e5be 79a8 783e ca5c 1bbf e486 673e
000000a0: 67ec e53d e260 58be e8bf 153f 04bd e9be
000000b0: 5555 e83e 18fe 8c3e 0f41 ca3d 7b69 c53d
000000c0: f1d5 383e e9b9 32bf 01c9 1cbf 4694 b43c
000000d0: c179 e5be d902 973e cf2a 07bf b6cd a13e
000000e0: db0c ee3d ae4e 2abe 3e47 273f c279 b1be
000000f0: 2c9a de3e c0fe 933e fa3d cb3d fa8b 123e
00000100: a48e 373e 02ae bebe 60af 8fbe 224f a63d
00000110: d864 1bbe 6bf5 23bf 98d1 f7be 63a5 893e
00000120: 8498 3b3d f72a 16be 60a5 0d3f 4d5c 8abe
00000130: b084 b73e ce69 923e 384c 3b3e 496e 153e
00000140: 27d6 65be 4a20 213f 64d7 383e a5fe d1be
00000150: c2fa 773e d56f 9fbe b336 163f 0199 12bf
00000160: 64be dcbe 7fdf b33e 321d 99be 50f3 f33e
00000170: 77d5 47be 0fc6 58be aef0 c1be 5ee5 a9be
00000180: 9296 a5be 8c60 153f 7af1 5d3e 7391 00bf
00000190: 3f2f 6b3e 18ce 87be b7a9 0f3f 00e7 04bf
000001a0: 6c99 cbbe df83 a03e 4d0d aebe 6fa1 b43e
000001b0: e6bf 12be 909b 1dbe 7871 c7be 2397 87be
000001c0: 3f17 b6be 7bd2 243f 67d5 763e 61f1 01bf
000001d0: 22c5 873e f03a acbe d93f 1c3f e0bf 39bf
000001e0: c2ba e3be eea6 d23e d9f2 acbe 2dbd 0a3f
000001f0: d227 7dbe 5cb5 52be de36 d3be b056 aabe

linear_stack.3.bias f4 [8]
0.14858417 0.045321476 0.11706828 0.11030959 0.030808546 0.118740834 0.08037318 0.10810007
00000000: 7326 183e 03a3 393d 7fc1 ef3d ffe9 e13d
00000010: 3462 fc3c 652e f33d b29a a43d 9263 dd3d

linear_stack.6.weight f4 [2, 8]
0.60686815 -0.21051477 -0.59990436 -0.65392053 -0.56746125 0.7636996 0.81705856 0.7953633
-0.3838575 0.5960464 0.15986943 0.15461059 0.49171138 -0.4458145 -0.6087092 -0.23459926
00000000: b65b 1b3f 2f91 57be 5593 19bf 5667 27bf
00000010: 2445 11bf d181 433f c02a 513f ee9c 4b3f
00000020: f888 c4be 7f96 183f d0b4 233e 3d52 1e3e
00000030: 98c1 fb3e cc41 e4be 5ed4 1bbf ca3a 70be

linear_stack.6.bias f4 [2]
-0.13201848 0.08830202
00000000: da2f 07be b1d7 b43d
