models/model_pa_c2_s0.1_b16_lr0.001_d0.5_e30.pth (torch, 4255 bytes, 6 tensors)

linear_stack.0.weight f4 [16, 16]
000000 cf 00 bf bd 4c 4b a2 3e ac fc a7 bd 39 87 36 3c
       -0.09326326 0.31698072 -0.0820249 0.011140638
000010 e0 95 01 be 6e 53 33 be 19 b1 4a 3e 06 55 d1 bc
       -0.12654829 -0.17512295 0.1979412 -0.025553238
000020 14 0f a7 bd cc ce b8 bd 6f 13 b7 3d 51 b1 80 bd
       -0.08157173 -0.090238184 0.089392535 -0.062838204
000030 a0 fe 2c 3e 9f 1f ba bd 85 5a b0 3e ff be 42 be
       0.16894007 -0.090880625 0.3444406 -0.19018172
000040 a1 b6 bb 3e a3 cf 13 3d ad e8 a2 3e 57 bd 23 be
       0.36662772 0.03608669 0.31818143 -0.15990196
000050 37 cc 08 3e d7 68 e4 3c 53 d0 1a 3e ad 46 7e bd
       0.13359152 0.027882023 0.15118532 -0.06207912
000060 56 9f 86 bd 19 60 47 bd 91 a4 43 be 62 ff a8 3e
       -0.0657336 -0.04867563 -0.19105746 0.33007342
000070 ff 5c 2e 3d a3 ec 95 3e 4a 0b 1e 3e 8b 6e 0b be
       0.042569157 0.29282102 0.15433994 -0.13616388
000080 f8 36 03 3f 4f 99 0b bd 40 e5 a4 3e 0b ac 4e bd
       0.5125575 -0.034081753 0.32206154 -0.05045704
000090 df b6 d4 bd 8e 85 07 3d 9f 1b 5d 3d 25 ec 71 bd
       -0.103864424 0.033086352 0.05398142 -0.059063096
0000a0 18 0c bf 3d 13 52 8b 3e e7 02 4f 3d e2 2c 46 bd
       0.093284786 0.27211055 0.050539877 -0.048382647
0000b0 ab 5f 84 3e 88 1e 74 3e 24 be 10 3e 64 55 43 bd
       0.2585424 0.23839772 0.14135033 -0.047688857
0000c0 79 b1 cf 3d 28 3e 81 3e 1e 71 08 bf 25 28 0b 3e
       0.10141272 0.25242734 -0.53297603 0.13589533
0000d0 ea dc 1c be 9b 01 59 bd da 74 8b 3d a6 76 60 3d
       -0.15318647 -0.052980047 0.06809397 0.054800652
0000e0 12 03 23 be 54 19 79 be 21 8b d9 bc 13 76 8e 3d
       -0.1591914 -0.24326068 -0.0265556 0.069561146
0000f0 d8 96 39 3e e3 57 0c be 58 67 69 3d 61 4a d9 bd
       0.18123949 -0.13705401 0.056983322 -0.1060989
000100 23 42 1b 3e 4d 06 72 3e b9 5b 7b 3d e6 69 a6 bb
       0.15161948 0.23635216 0.06136677 -0.005078542
000110 47 85 46 be 1c b6 af bd 93 d2 7d 3a 76 c3 1b 3e
       -0.19386779 -0.085796565 0.0009682562 0.15211281
000120 ab 6f d0 3c ea d1 0a be f3 4b bf 3c 5c 65 5d 3b
       0.025443872 -0.13556638 0.023351645 0.0033782339
000130 bc 66 80 bd 6c 58 12 3e 3a 36 42 be df 65 64 3d
       -0.06269595 0.14291543 -0.18965998 0.055761214
000140 35 eb 5e 3c 1b e8 f4 3e d6 cb bf 3d 7f 68 59 be
       0.013605882 0.47833332 0.093650505 -0.21231268
000150 cd 67 38 3e db 85 e1 bd 04 db 43 be e5 b8 75 bd
       0.18008347 -0.11011859 -0.19126517 -0.059990782
000160 24 28 5d bd b2 fb da bd 1c 2e 75 be 9e 00 08 be
       -0.05399336 -0.10692538 -0.2394337 -0.13281485
000170 0c 2c f1 bd 44 3d 47 be 2c 64 7e 3d 96 4a 97 3d
       -0.117759794 -0.19456965 0.06210725 0.07387273
000180 d6 9f 57 3e 98 f7 68 be e3 de c4 3d 73 f9 80 3e
       0.21057066 -0.227507 0.09612825 0.25190315
000190 26 21 40 3e 4a 63 20 3e b6 c7 8a bd 6d 80 49 bd
       0.18762645 0.15662876 -0.06776373 -0.049194742
0001a0 aa bd d3 bd 3c 53 4d 3d 3f 2d 87 bd 4b 80 82 3e
       -0.1033891 0.050128207 -0.06600427 0.25488505
0001b0 b4 59 e6 3d 4c a6 ef bc 6f 25 4b be 78 ba 7a 3e
       0.11247578 -0.029254101 -0.19838499 0.24485195
0001c0 a6 17 7c 3d 99 e1 c1 3d 57 d9 01 bf 5d 97 30 be
       0.06154599 0.094668575 -0.5072226 -0.1724524
0001d0 7a cb 81 bd 10 78 34 be 7b 18 58 3e 3f d0 33 be
       -0.06337638 -0.17623925 0.21103089 -0.17559908
0001e0 75 62 5b bc 13 ad b3 be c6 f0 b8 bd 5e d2 b9 3d
       -0.013390173 -0.35092983 -0.09030299 0.090733275
0001f0 21 56 35 3e 72 28 35 be 57 24 de 3e cd f8 33 be
       0.17708637 -0.1769121 0.433871 -0.17575379
000200 3b a1 8e 3c b7 31 94 3e 09 e0 b9 be 8d ee 3a 3d
       0.017410865 0.2894418 -0.36303738 0.045637656
000210 ab 17 dd bd 9e 95 29 3c 97 42 09 3e 94 e2 03 be
       -0.1079553 0.010350613 0.13404308 -0.12879401
000220 14 4e cd bd 3f b1 98 be 40 89 59 3e be b3 2d bd
       -0.10024658 -0.29822728 0.21243763 -0.042407744
000230 90 cb 10 3e 6c ee 90 3c 83 1e b1 3e 73 77 9a be
       0.14140153 0.017691813 0.3459359 -0.30169258
000240 e2 23 ab 3e da 13 3c 3d f6 f4 67 bd 61 7e 75 3b
       0.33425814 0.04591737 -0.056630097 0.003745936
000250 44 09 a0 3d 7b 55 b1 bc a6 2b 3a 3e 40 bd 93 be
       0.07814267 -0.021647206 0.18180713 -0.28855324
000260 16 5c e7 3d d0 a5 36 3d b2 fb 0f 3d ad d6 66 3c
       0.11296861 0.044591725 0.035152145 0.014089269
000270 0c 44 f3 bd b2 37 6a 3d c0 82 f6 bd 79 56 9a 3e
       -0.11878213 0.05718202 -0.12036657 0.30144098
000280 b2 a0 a6 be 6a 5b 5d 3d db c1 94 3d 55 fd 1e 3d
       -0.32544476 0.054042257 0.072635375 0.038815815
000290 63 1c 11 3e 36 3f 4f 3e fc 3d 06 3e 52 5a 43 3e
       0.14170985 0.20238957 0.13109583 0.19077423
0002a0 16 59 2b be 35 1b 06 3e c0 5d 68 bb 36 87 5f 3e
       -0.16733202 0.13096316 -0.003545627 0.21828923
0002b0 7f ea b0 3d 57 50 34 3e ff 1f 61 be 80 97 78 be
       0.086384766 0.17608772 -0.21984862 -0.24276543
0002c0 e5 09 be be b5 a6 71 be ff d3 13 bd 0f c1 59 be
       -0.37116924 -0.2359875 -0.036090847 -0.21265052
0002d0 f4 ba 74 3e 20 f1 ec be 95 e3 87 3d 1c f6 6d 3d
       0.23899442 -0.46277714 0.06635205 0.058096036
0002e0 b1 13 ea 3d 9b 9b 0c be b2 64 70 be 79 c5 d2 3d
       0.11429537 -0.13731234 -0.23475912 0.10291571
0002f0 2f 89 86 bd a2 79 1c 3e 9b e8 c1 bd 5d 1e 1b be
       -0.065691344 0.15280774 -0.09468194 -0.15148301
000300 9e ad 20 3d 45 ee 7f bd dd da fc be f6 2f 1a 3e
       0.039228074 -0.06248309 -0.4938573 0.15057358
000310 c9 49 98 be 94 c6 b6 3a 79 b5 12 bd a6 19 0e be
       -0.29743794 0.0013944679 -0.035817597 -0.13876972
000320 38 e4 36 3e 7a a7 7c be 52 e0 1d be 11 a7 b5 3b
       0.17860496 -0.24673262 -0.15417603 0.0055435975
000330 dc af f2 bc 9a 00 9e 3c 82 da b1 3e fe c3 3b be
       -0.029624872 0.019287396 0.3473702 -0.18336484
000340 0e a6 47 be bc 7b e6 3c 3b cf f3 bd bd 66 a5 bd
       -0.19496939 0.028135173 -0.119047605 -0.080762364
000350 94 75 cc 3b e5 9c b1 3d 7e 49 6f be 13 c1 0f be
       0.0062396023 0.086725034 -0.23367879 -0.14038496
000360 8f 7a 13 3e e7 3e 2a be 5f 12 d4 bd 3c 45 55 3e
       0.14402221 -0.16625558 -0.103550665 0.20827192
000370 be d1 f9 3d 4d ad b1 be d5 b0 54 3e 75 77 43 be
       0.12198208 -0.3470253 0.20770581 -0.19088538
000380 8d 7f a3 bc 00 22 92 3e cd 16 c6 be d5 3a 11 bd
       -0.019958282 0.28541565 -0.3868927 -0.035456497
000390 05 86 ba bc 7e 2f bc bd 03 2b ed 3d 99 16 76 3d
       -0.022768984 -0.09188746 0.115804695 0.060080145
0003a0 2f 01 64 3e 52 bd 83 be 8e 5f 32 3d cb 8d df 3d
       0.22266077 -0.25730377 0.04354816 0.10915717
0003b0 bb aa 2b bc cd 55 08 3e 6e af 20 ba 53 8c 96 be
       -0.010477717 0.1331398 -0.00061296567 -0.29403934
0003c0 8a ea be bc 49 d4 0a be ac c4 86 be 7f af cf bc
       -0.023305196 -0.13557543 -0.26321924 -0.025352238
0003d0 32 05 75 bd 62 41 19 be 10 45 8b be b5 83 ec 3c
       -0.059819408 -0.14966348 -0.27201128 0.028871397
0003e0 f8 92 96 3d ba 79 43 be ed 54 1a bc fa cf 13 3e
       0.07352251 -0.19089404 -0.009419662 0.14434806
0003f0 dd 88 3d bc 4b cf 85 be 44 f4 61 be 09 91 a7 3b
       -0.011568275 -0.26134714 -0.22065836 0.005113725

linear_stack.0.bias f4 [16]
000000 0b a9 2c bd e9 1c 82 be cd d7 63 be 76 0b ca 3c
       -0.0421534 -0.25412682 -0.2225029 0.024663668
000010 ed d4 88 bb 26 e6 89 be a4 93 90 be cb fe 40 be
       -0.0041757734 -0.26933402 -0.2823764 -0.18847196
000020 05 a1 1b 3d 87 f8 81 be b0 59 e1 be e4 f1 b0 be
       0.037995357 -0.25384924 -0.4401374 -0.34559548
000030 fa f3 98 bd 39 ca 91 3d c4 4f 92 ba 74 86 be bb
       -0.0746841 0.07118649 -0.0011162688 -0.005814368

linear_stack.3.weight f4 [8, 16]
000000 e8 d0 ea bd 78 9a 0b 3f 59 06 b1 3e c6 60 63 be
       -0.11465627 0.54532576 0.34575155 -0.22204885
000010 fe c8 5b bc 93 e1 d2 be f0 39 3e 3e 87 20 ae be
       -0.0134146195 -0.41187724 0.18576789 -0.3400919
000020 41 7a 14 be 85 2f d7 3d e7 bf 43 be f0 5a 33 3e
       -0.14499761 0.105071105 -0.19116174 0.17515159
000030 33 e1 1e be 3e 4b 3f bd 82 a6 13 be e2 9e 39 be
       -0.15515594 -0.046702616 -0.14418986 -0.18127015
000040 35 50 55 3e 7e 72 c9 bd 17 24 8c be b6 38 41 3e
       0.20831378 -0.09836291 -0.27371284 0.1886929
000050 db 3b 4d be 59 0b cd be 7f 61 ab bd 4a 28 b4 3e
       -0.20042364 -0.4004772 -0.08368205 0.35186988
000060 3c b0 3e 3e 62 d5 03 be 76 0f d2 3e 9e 7b 2f be
       0.18621916 -0.12874368 0.4102742 -0.17137
000070 72 9a aa 3e 05 42 91 3e 16 52 a8 bd a6 c5 24 3d
       0.33320957 0.2837068 -0.08218782 0.040227555
000080 2a 9f fb 3d 0d 2b 84 be db 98 b5 be 53 c7 4d 3d
       0.122862175 -0.25814095 -0.35468182 0.05023892
000090 5d 5d 30 be 2f c5 b3 3d 3f c2 5f be 91 2e d3 3e
       -0.17223115 0.08777844 -0.21851443 0.41246465
0000a0 31 1e 42 3e 71 21 92 bd dd a4 56 3e 3e 7e 01 bf
       0.1895683 -0.07135285 0.20961328 -0.50583255
0000b0 73 52 88 3e 27 84 2c 3d ae d8 68 3d 52 48 f4 3d
       0.26625404 0.042118218 0.056847267 0.119278565
0000c0 90 13 54 3e 8c 81 60 be ab ac 5e be d4 b5 d5 3d
       0.20710588 -0.21924418 -0.21745555 0.104350716
0000d0 36 db 03 be 50 db 67 3e 1b 07 02 be c4 ee d6 3e
       -0.12876591 0.22642255 -0.12698023 0.4197904
0000e0 c5 6b 60 3d c6 88 51 bd 18 92 66 bc 4a 71 91 be
       0.054790277 -0.051155828 -0.014072917 -0.28406745
0000f0 c9 88 76 3e 8a dc 73 3e 9e c3 d6 3d 9d 1f 41 bd
       0.24075617 0.23814598 0.1048653 -0.04714929
000100 d2 cb 4c 3e 7a 65 ee bd e8 5d 83 be 64 2c 9c bd
       0.19999626 -0.11640449 -0.25657582 -0.07625654
000110 4d ae f2 3b 18 bd c0 be 19 0f 23 bd 60 05 8a 3e
       0.007406032 -0.37644267 -0.03980932 0.26957226
000120 f8 f5 8b 3d 84 5b 99 bd a9 44 97 3e 09 a0 00 be
       0.06834024 -0.07488158 0.2954457 -0.12561049
000130 c9 d5 4c bd 20 b2 86 3e 49 16 2a 3e 97 f1 0e be
       -0.05000857 0.26307774 0.16610064 -0.13959347
000140 bf 4f 61 be f2 bc ad 3e 32 09 c0 3d b8 58 80 be
       -0.22003077 0.33933216 0.09376754 -0.25067687
000150 51 18 f4 3d bf 77 3e be 13 ff 9a 3e d8 eb 42 be
       0.119187005 -0.18600367 0.3027273 -0.1903528
000160 93 6d 29 be ad 37 9b 3e bf e4 05 bd 28 31 6c 3e
       -0.16545705 0.30315915 -0.032688852 0.23065627
000170 85 b3 a6 3b de e8 22 be 13 8c 77 be 0e 16 25 be
       0.0050873184 -0.15909144 -0.24174528 -0.16121694
000180 79 bf 51 be ec c9 95 3e 4d 99 35 3e 8b 52 a1 be
       -0.20483197 0.29255617 0.17734261 -0.31508288
000190 ff 94 f7 bd 9e cc 70 be 48 15 0a 3e ab 48 82 be
       -0.120889656 -0.23515555 0.1348468 -0.25446066
0001a0 05 df 16 be 35 01 72 3e 0c 44 f2 bd f2 bb 60 3e
       -0.14733513 0.23633273 -0.11829385 0.21946695
0001b0 9f 94 ca bc b2 5b 5b bd b5 cd 30 be 6c b2 8e bd
       -0.024729071 -0.053554244 -0.17265971 -0.06967625
0001c0 29 5c 11 be 3a 67 9e 3e 59 93 ad 3e 7a c2 58 be
       -0.14195313 0.3093813 0.3390148 -0.21167937
0001d0 9a 73 7b 3c c2 ab 94 be 06 0b b9 3e 93 6e df be
       0.015347386 -0.2903729 0.36141223 -0.4363905
0001e0 0c cd 28 be ce a9 d4 3e ad e8 9f bd e8 08 cb 3e
       -0.16484469 0.415358 -0.07808051 0.39655232
0001f0 dd d8 a3 bd d0 17 83 bd 5a 24 95 be fe 0a e8 bd
       -0.08000348 -0.06401026 -0.29129297 -0.113302216

linear_stack.3.bias f4 [8]
000000 5f b4 9d 3e d1 e3 48 bc dd 28 35 3e 21 c6 5f 3d
       0.30801675 -0.012261347 0.1769137 0.05463231
000010 7d ae 8e bb e6 4f 4b 3e b9 ff 35 3e bc 14 65 3e
       -0.0043542967 0.19854698 0.17773332 0.22371191

linear_stack.6.weight f4 [2, 8]
000000 06 c3 a4 3e 2e 95 08 bd b3 51 cb be 44 d5 cf be
       0.3218004 -0.033345394 -0.3971077 -0.40592396
000010 83 5f ae be b0 1e da 3e 09 a5 f9 3e e1 37 07 3f
       -0.34057245 0.42601538 0.48758724 0.5281964
000020 14 53 ca bd e3 76 d6 3e af d3 2f bd 5f 42 bf bd
       -0.09879127 0.41887578 -0.042926487 -0.09338831
000030 e1 96 87 3e b0 73 dd bd 19 f8 8e be 2e 67 05 3d
       0.264823 -0.10813081 -0.27923658 0.032569103

linear_stack.6.bias f4 [2]
000000 00 5c ea bd 39 d4 90 3d
       -0.11443329 0.07071728
