models/model_mt_c2_s0.1_b16_lr0.001_d0.5_e100.pth (torch, 4255 bytes, 6 tensors)

linear_stack.0.weight f4 [16, 16]
0.15458292 0.5954761 0.1867752 -0.004224811 -0.2121151 0.010170697 -0.07586454 0.0639832
-0.13887212 0.11695422 -0.24776363 -0.095822446 -0.022667494 -0.1523884 -0.003544639 0.12621914
0.00065791095 -0.064439535 0.060145102 0.03596868 0.3662768 -0.008299746 0.05196069 0.052433282
-0.21025217 -0.23396155 -0.16493511 0.08951011 -0.27760932 0.26524732 -0.10461788 0.17449355
0.5032495 0.02470921 0.19788079 0.011644739 0.09790137 -0.38044003 0.013117261 0.17197761
-0.113851234 0.18696593 0.13473012 0.41038486 -0.14676018 -0.21611673 0.27625337 0.1626165
0.3712437 0.5092744 -0.053021915 0.34609282 0.03136298 0.14224851 -0.030822132 0.0028809889
-0.089876875 0.26812926 0.1284802 0.2299937 -0.033285998 0.028411042 -0.13224407 -0.09977207
0.16742224 0.29591006 0.14918159 -0.065863796 -0.2773413 -0.09678155 0.2099873 -0.01999394
-0.0304958 -0.12671009 -0.21384051 -0.64935213 0.14249319 0.043027334 -0.3380939 0.02086492
0.21113478 0.56596446 0.11522814 -0.2388934 0.06889885 0.16392404 0.029494833 -0.16496933
0.11160456 -0.14628236 -0.34374493 -0.10553999 0.10644231 -0.09219474 -0.2203671 -0.047780283
0.07140858 0.29942816 0.09344911 0.008705108 -0.020766664 -0.029219702 -0.24004424 0.2041173
-0.21362601 -0.08239242 -0.27248946 0.4602459 0.14372796 -0.39895284 0.041062098 0.056520212
0.18993042 0.10790215 -0.091642 -0.22089815 -0.15967126 -0.037425674 0.08488992 0.009931095
-0.17136191 -0.5447444 0.42448014 0.15408184 0.04161773 0.25221667 0.3014412 -0.28237364
0.16519038 0.5961509 -0.07426567 0.21654345 0.08855149 0.10262207 0.12573026 -0.31468067
0.122686416 0.14718342 0.39019075 0.018605817 -0.040041104 -0.07885263 -0.06195194 -0.08208601
0.05780647 0.5691161 -0.13434106 0.018681634 0.106546715 0.011579594 0.09592047 -0.18077183
0.12615788 0.082739644 0.36869684 0.08904378 -0.075024225 -0.14338914 0.06622066 -0.01058509
-0.24442516 0.27451682 0.008752993 0.16039486 0.32764715 0.16302969 0.032671195 0.032319758
-0.013013062 0.38492742 0.088326864 0.12186116 -0.07866189 -0.04811157 -0.32244343 -0.228154
-0.16961446 0.24699745 -0.1489503 -0.36775967 -0.05097489 -0.18434049 -0.07582355 -0.03775791
0.23658334 -0.08656167 -0.31710914 0.451098 -0.12545237 -0.15782891 0.45135254 0.108359374
0.35373414 -0.15018524 -0.1595908 0.30533823 -0.12915184 0.098261386 -0.009939767 0.07639305
-0.12608576 0.29202726 -0.079872414 -0.31684375 -0.15132616 0.17249864 0.38458964 -0.3068446
-0.033128854 0.11190927 0.0044164443 0.003341589 0.15778925 -0.04336265 -0.30067503 -0.03929002
0.20307784 0.18222293 -0.037412673 0.36167198 0.003774414 -0.30479208 0.31936303 -0.06542721
0.1857121 0.3284149 -0.026509512 -0.12229815 -0.15168059 0.07619715 0.11212247 -0.21165559
0.2117522 -0.15789923 -0.2599315 -0.10817137 0.043443445 0.15499246 -0.31612313 -0.028338702
0.23674594 0.21729885 -0.30621198 -0.078264475 -0.116943374 -0.11090552 0.115355685 -0.053848475
-0.06605116 -0.073914036 -0.4844673 0.4344156 0.13834228 -0.30604413 -0.08507263 0.10976943
00000000: fc4a 1e3e 1f71 183f ff41 3f3e 4970 8abb
00000010: b334 59be ffa2 263c de5e 9bbd a009 833d
00000020: 7e34 0ebe b285 ef3d c0b5 7dbe 8f3e c4bd
00000030: 2eb1 b9bc b40b 1cbe 2d4d 68bb 973f 013e
00000040: a877 2c3a e0f8 83bd b65a 763d e553 133d
00000050: a288 bb3e a8fb 07bc bcd4 543d 48c4 563d
00000060: 584c 57be 9e93 6fbe c0e4 28be 1451 b73d
00000070: cf22 8ebe 7fce 873e e641 d6bd 70ae 323e
00000080: f6d4 003f f86a ca3c 43a1 4a3e 93c9 3e3c
00000090: 8380 c83d 09c9 c2be c8e9 563c e61a 303e
000000a0: d62a e9bd ff73 3f3e b1f6 093e f71d d23e
000000b0: 4d48 16be b44d 5dbe 1571 8d3e f184 263e
000000c0: a713 be3e cf5f 023f 822d 59bd 1433 b13e
000000d0: 7876 003d 98a9 113e b27e fcbc f9ce 3c3b
000000e0: 5e11 b8bd 3d48 893e 5090 033e 7883 6b3e
000000f0: e656 08bd 46be e83c fd6a 07be 4d55 ccbd
00000100: bc70 2b3e 8681 973e 0fc3 183e 99e3 86bd
00000110: aeff 8dbe 6835 c6bd e906 573e 55ca a3bc
00000120: 54d2 f9bc 4ac0 01be 02f9 5abe f13b 26bf
00000130: bce9 113e 6e3d 303d a51a adbe e9ec aa3c
00000140: b733 583e 0ce3 103f bbfc eb3d 79a0 74be
00000150: d71a 8d3d b4db 273e 269f f13c b8ed 28be
00000160: ee90 e43d 0bcb 15be 56ff afbe 5a25 d8bd
00000170: 6dfe d93d 99d0 bcbd eaa7 61be 42b5 43bd
00000180: a93e 923d a64e 993e 3f62 bf3d df9f 0e3c
00000190: da1e aabc 285e efbc 28ce 75be 2004 513e
000001a0: c7c0 5abe 5bbd a8bd bd83 8bbe 5aa5 eb3e
000001b0: 6c2d 133e 8c43 ccbe bb30 283d bd81 673d
000001c0: 1f7d 423e cdfb dc3d cdae bbbd 2033 62be
000001d0: dd80 23be aa4b 19bd c4da ad3d 08b6 223c
000001e0: 7f79 2fbe 5e74 0bbf 7655 d93e a1c7 1d3e
000001f0: 5a77 2a3d 8b22 813e 8056 9a3e 4793 90be
00000200: ab27 293e 589d 183f 9918 98bd 91bd 5d3e
00000210: 7c5a b53d 852b d23d 6fbf 003e d31d a1be
00000220: 0443 fb3d 40b7 163e 15c7 c73e 3a6b 983c
00000230: 2402 24bd 7d7d a1bd 51c1 7dbd b61c a8bd
00000240: 7ac6 6c3d 98b1 113f b490 09be 3a0a 993c
00000250: 2a35 da3d 56b8 3d3c f471 c43d 401c 39be
00000260: 882f 013e 6773 a93d d5c5 bc3e 965c b63d
00000270: 4da6 99bd 9ad4 12be b39e 873d 166d 2dbc
00000280: 974a 7abe 788d 8c3e b768 0f3c 8d3e 243e
00000290: 5ec1 a73e 41f1 263e 3bd2 053d b961 043d
000002a0: bd34 55bc 3515 c53e b7e4 b43d 5892 f93d
000002b0: 7c19 a1bd a310 45bd 4e17 a5be 34a1 69be
000002c0: 6aaf 2dbe e6ec 7c3e 6d86 18be ff4a bcbe
000002d0: 0ccb 50bd c1c3 3cbe 6149 9bbd 0aa8 1abd
000002e0: e742 723e 3f47 b1bd 215c a2be 51f6 e63e
000002f0: 9676 00be e79d 21be ae17 e73e 85eb dd3d
00000300: a41c b53e 29ca 19be c56b 23be 4b55 9c3e
00000310: 6140 04be 443d c93d 68da 22bc f673 9c3d
00000320: a01c 01be 9984 953e 2694 a3bd 5839 a2be
00000330: 3ff5 1abe 7ca3 303e efe8 c43e bc1a 9dbe
00000340: 1fb2 07bd b030 e53d d2b7 903b 8ffe 5a3b
00000350: 8193 213e 099d 31bd 14f2 99be 92ee 20bd
00000360: a3f3 4f3e a698 3a3e 083e 19bd 122d b93e
00000370: 295c 773b b50d 9cbe 8d83 a33e b3fe 85bd
00000380: 502b 3e3e ff25 a83e 7a2a d9bc 7477 fabd
00000390: 2852 1bbe 400d 9c3d 77a0 e53d 3ebc 58be
000003a0: 92d5 583e 56b0 21be be15 85be f488 ddbd
000003b0: c1f1 313d 58b6 1e3e e4da a1be 9126 e8bc
000003c0: 876d 723e 9783 5e3e d1c7 9cbe 2049 a0bd
000003d0: 0280 efbd 6f22 e3bd 9a3f ec3d 3890 5cbd
000003e0: d545 87bd 3e60 97bd 190c f8be b96b de3e
000003f0: 99a9 0d3e d1b1 9cbe 8f3a aebd cbce e03d

linear_stack.0.bias f4 [16]
-0.055832952 -0.56311756 0.033874843 -0.3162603 0.0054674884 -0.36597857 -0.20530204 -0.334515
-0.6100104 -0.5047086 -0.7570221 -0.2581835 -0.35006684 -0.0169942 -0.3770132 -0.09322262
00000000: 18b1 64bd 7928 10bf 59c0 0a3d dfec a1be
00000010: 9e28 b33b 8b61 bbbe b33a 52be 8d45 abbe
00000020: a429 1cbf 9534 01bf 33cc 41bf a130 84be
00000030: f63b b3be 6c37 8bbc e007 c1be 80eb bebd

linear_stack.3.weight f4 [8, 16]
-0.35447952 0.5354884 -0.74900526 -0.71034974 -0.04012797 -0.5997216 -0.30299965 0.24010254
-0.4385576 -0.46045712 -0.35194808 -0.2986265 -0.50887114 -0.3400104 -0.2862331 -0.195359
0.11087532 -0.07739537 -0.012548375 0.06999591 -0.88578206 -0.6428794 0.16386294 -0.8087743
0.51345104 0.46259624 0.7029007 0.13682246 0.30695722 -0.032423127 -0.571662 0.26563537
0.18757494 -0.09117009 0.00080291 0.08584416 -0.9824543 -0.033136223 0.024372872 -0.65620255
0.40511096 0.5151063 0.66370565 -0.69200027 0.27008072 -0.021486746 0.06569607 0.3112283
0.13987815 -0.04548009 -0.008967174 0.16440456 -0.017544594 0.12635344 -0.80613494 -0.6533301
0.3151613 0.47260648 0.5262737 -0.65573853 0.34241202 0.016407682 0.17462279 0.15672652
-0.029669747 0.025538508 -0.18863858 -0.046218574 0.15666302 0.07960896 0.21995853 -0.4034592
-0.012743743 -0.19176178 0.14570618 -0.66805744 -0.21121132 0.069102235 0.22526318 0.21303955
-0.41024366 0.51572543 -0.66574794 -0.50151265 0.01451894 -0.49651015 -0.22748362 0.3779036
-0.32502392 -0.31379572 -0.24213311 -0.22202645 -0.25091276 -0.2555456 -0.36782485 -0.26836273
-0.2956777 0.384784 -0.5454942 -0.59722805 0.0019156318 -0.47612983 -0.26194695 0.13736574
-0.32851574 -0.3440084 -0.27424294 -0.17351094 -0.4152903 -0.32986104 -0.34223711 -0.09602293
-0.48096848 0.48685345 -0.67875546 -0.78684676 0.03880948 -0.62817997 -0.29118264 0.22206572
-0.41058138 -0.4165236 -0.23121329 -0.023497129 -0.27364287 -0.45345786 -0.37643996 -0.24260613
00000000: 577e b5be c515 093f cfbe 3fbf 7bd9 35bf
00000010: 3a5d 24bd 5b87 19bf c522 9bbe 71dd 753e
00000020: 9f8a e0be 09c1 ebbe 8a32 b4be 93e5 98be
00000030: 6145 02bf d815 aebe 258d 92be 310c 48be
00000040: 9a12 e33d 7781 9ebd b397 4dbc 045a 8f3d
00000050: 9dc2 62bf bf93 24bf b0cb 273e d50b 4fbf
00000060: 8771 033f 6ad9 ec3e 4df1 333f 301b 0c3e
00000070: 7f29 9d3e 1dce 04bd 7158 12bf 5c01 883e
00000080: a513 403e 62b7 babd 617a 523a 10cf af3d
00000090: 2082 7bbf d9b9 07bd 9ea9 c73c e4fc 27bf
000000a0: b46a cf3e 02de 033f 9de8 293f ee26 31bf
000000b0: 0548 8a3e f904 b0bc a98b 863d 5159 9f3e
000000c0: 383c 0f3e 5549 3abd 0eeb 12bc ab59 283e
000000d0: aeb9 8fbc cc62 013e dc5e 4ebf a440 27bf
000000e0: d25c a13e 7af9 f13e e0b9 063f 7bde 27bf
000000f0: a150 af3e 6769 863c 51d0 323e eb7c 203e
00000100: f80d f3bc 2236 d13c 792a 41be b04f 3dbd
00000110: 456c 203e 060a a33d cf3c 613e 3492 cebe
00000120: 22cb 50bc 335d 44be 0034 153e d005 2bbf
00000130: c847 58be 7985 8d3d 64ab 663e 0a27 5a3e
00000140: 750b d2be 9506 043f 756e 2abf 2263 00bf
00000150: d9e0 6d3c 9436 febe 77f1 68be 957c c13e
00000160: 8969 a6be d5a9 a0be bef1 77be e75a 63be
00000170: a377 80be dfd6 82be 8a53 bcbe d766 89be
00000180: 1163 97be 6902 c53e 82a5 0bbf f0e3 18bf
00000190: f015 fb3a 4ac7 f3be e91d 86be 9ba9 0c3e
000001a0: 3733 a8be de21 b0be 9269 8cbe daac 31be
000001b0: eea0 d4be 8ce3 a8be b439 afbe aca7 c4bd
000001c0: 8041 f6be db44 f93e ebc2 2dbf ca6e 49bf
000001d0: b0f6 1e3d 67d0 20bf e415 95be 3265 633e
000001e0: b937 d2be 9542 d5be 2dc3 6cbe 0d7d c0bc
000001f0: eb1a 8cbe a12b e8be bdbc c0be be6d 78be

linear_stack.3.bias f4 [8]
0.24916933 -0.00015302427 0.0056424392 -0.013511432 -0.23129357 0.21359865 0.1808877 0.2691738
00000000: 3f26 7f3e 2475 20b9 36e4 b83b 0e5f 5dbc
00000010: 39d8 6cbe 9bb9 5a3e a03a 393e 26d1 893e

linear_stack.6.weight f4 [2, 8]
0.5596303 -0.31953973 -0.71476835 -0.70588356 -0.439695 0.668957 0.7001089 0.7242959
-0.33662257 0.7050668 0.2747333 0.20657228 0.36394513 -0.35107625 -0.49175906 -0.16352862
00000000: ee43 0f3f b69a a3be 0ffb 36bf c9b4 34bf
00000010: b41f e1be c440 2b3f 563a 333f 756b 393f
00000020: cb59 acbe 427f 343f d8a9 8c3e af87 533e
00000030: 0457 ba3e 44c0 b3be d8c7 fbbe 0c74 27be

linear_stack.6.bias f4 [2]
-0.06376296 0.02004629
00000000: 2896 82bd 1e38 a43c
