models/model_wly_c2_s0.1_b16_lr0.001_d0.5_e5.pth (torch, 4255 bytes, 6 tensors)

linear_stack.0.weight f4 [16, 16]
0.04752062 0.19461137 0.20224732 -0.10779264 -0.29668295 -0.05764931 0.10969026 0.13155575
-0.051515352 0.113634095 0.091635466 -0.13345864 0.04988351 0.0375362 0.15599519 0.027819842
0.0035038143 0.27027372 -0.0031784244 -0.064240634 0.33328816 -0.3262592 0.092968434 -0.006852458
-0.12184587 -0.14083311 -0.22805178 0.15590128 0.02866426 0.15304141 0.09298679 -0.08889883
0.22758915 -0.07942685 0.04570104 -0.13095851 -0.13187142 -0.18529774 0.08226877 0.088014856
0.016240291 0.24220721 0.20166853 0.13744849 -0.023718156 -0.16788153 0.094673686 -0.010816016
0.13669965 0.15006605 -0.20212571 0.14333566 -0.19945927 0.14141753 0.01602269 0.10101047
-0.11112672 0.006778839 0.055980563 0.23406361 -0.06950169 0.07197354 -0.027357321 0.027925046
0.1404944 0.23833534 0.071338646 0.098485895 -0.0837444 -0.080139376 0.10312569 0.07719019
0.029468449 -0.21828349 -0.1576844 -0.11532872 -0.0344623 -0.0050201197 -0.22344488 -0.019501418
0.092088945 0.2717648 0.12394495 -0.12015525 0.24917033 -0.020667454 -0.12588426 -0.12539344
0.069988325 -0.06498466 -0.12489308 -0.09163961 -0.014071041 -0.005027919 0.030493297 -0.17642526
0.09661901 -0.16385263 0.2368125 0.24099395 0.17007288 0.20053512 -0.17596576 0.16129304
-0.10567318 -0.017414032 -0.04321671 0.20422696 0.056664336 -0.14403808 -0.21602005 0.15944076
0.07417984 -0.0252054 -0.22644179 -0.24394594 -0.074330725 -0.3389096 0.15794277 -0.20190004
-0.1350384 -0.2698126 0.0755209 0.050598707 -0.028039156 -0.052850477 0.19563107 -0.07558074
0.14266251 0.2025552 -0.07258269 0.005537643 -0.20275816 0.17405936 0.06465513 -0.028703077
-0.06029886 -0.12984641 0.18749988 -0.19332217 0.1259568 0.15662088 0.040491804 -0.23735765
0.15862212 0.07439025 -0.034870096 -0.10827574 -0.031506572 -0.06456632 0.18510653 -0.13609605
0.16841264 -0.06050783 0.054862663 -0.015436632 -0.118340544 0.0012184221 0.06754071 0.27456203
-0.22560923 -0.14705639 0.0666823 -0.073819034 0.03419297 0.17985277 0.024968652 0.007037819
-0.18913808 0.18813175 -0.086920954 0.13355632 -0.08209908 0.1236098 -0.21554059 -0.19104107
-0.1635968 -0.09806281 -0.016898265 -0.18868421 0.19387423 -0.24926129 0.15239605 0.04767079
0.226065 -0.2834802 -0.3440419 0.14821184 -0.18492866 -0.027062057 0.124734506 -0.021715557
0.121175855 -0.2123405 -0.22500978 0.19810075 -0.25970495 0.090496756 0.028737763 0.17062274
0.23114654 -0.11029735 -0.06383004 -0.05703672 -0.12535608 -0.10949313 0.22610527 -0.23537664
-0.17072645 -0.12079007 -0.04360984 -0.112319246 -0.0022013644 0.036199402 -0.15777192 0.08184652
0.22012441 -0.09829187 -0.044504147 0.22215077 -0.0059049693 -0.10747522 0.042118035 -0.098104015
-0.053065535 0.19943586 -0.14309044 0.040826045 0.112638816 -0.2803984 -0.099574596 0.19159755
0.1486711 -0.2764732 -0.03942079 -0.027458321 0.0046507106 0.39156878 -0.09104366 -0.22172546
0.174228 -0.19051845 -0.1478899 0.08507402 0.036176182 -0.10408075 -0.13513345 0.02758517
0.1474082 -0.06936575 0.07473542 0.30657265 0.016650068 -0.23216727 -0.30386868 -0.09216603
00000000: fba4 423d 3448 473e ec19 4f3e 63c2 dcbd
00000010: d4e6 97be af21 6cbd 49a5 e03d 8db6 063e
00000020: c301 53bd feb8 e83d 60ab bb3d 62a9 08be
00000030: a752 4c3d 8fbf 193d 34bd 1f3e 70e6 e33c
00000040: 40a0 653b 5161 8a3e 1d4d 50bb 9890 83bd
00000050: bfa4 aa3e 720b a7be 3c66 be3d 968a e0bb
00000060: 548a f9bd 8e36 10be 6886 69be 96a4 1f3e
00000070: 4fd1 ea3c e3b6 1c3e dc6f be3d 9710 b6bd
00000080: 210d 693e 8baa a2bd 0431 3b3d fd19 06be
00000090: 4d09 07be b1be 3dbe 877c a83d 2241 b43d
000000a0: 5c0a 853c 2b05 783e 3282 4e3e 4cbf 0c3e
000000b0: 944c c2bc 23e9 2bbe 47e4 c13d a935 31bc
000000c0: fefa 0b3e eaaa 193e 0bfa 4ebe 95c6 123e
000000d0: 0d3f 4cbe c2cf 103e 0442 833c 94de ce3d
000000e0: 6896 e3bd 0621 de3b e04b 653d 5fae 6f3e
000000f0: e756 8ebd dd66 933d 761c e0bc 11c3 e43c
00000100: c4dd 0f3e 2e0e 743e ff19 923d f9b2 c93d
00000110: 2f82 abbd 1d20 a4bd 9033 d33d e415 9e3d
00000120: d167 f13c b585 5fbe 0578 21be 7731 ecbd
00000130: 5728 0dbd d17f a4bb bcce 64be 70c1 9fbc
00000140: 2199 bc3d c224 8b3e dad6 fd3d f513 f6bd
00000150: 8226 7f3e cb4e a9bc cee7 00be 2367 00be
00000160: 0a56 8f3d ad16 85bd f1c7 ffbd 8cad bbbd
00000170: 398a 66bc 3ec1 a4bb 14cd f93c d3a8 34be
00000180: 30e0 c53d fcc8 27be fa7e 723e 1ec7 763e
00000190: 9627 2e3e 1459 4d3e 5e30 34be 012a 253e
000001a0: 2e6b d8bd dfa7 8ebc 0104 31bd df20 513e
000001b0: dd18 683d b87e 13be 5c34 5dbe 7044 233e
000001c0: 9aeb 973d 8e7b cebc 5be0 67be f7cc 79be
000001d0: b53a 98bd 8f85 adbe c0bb 213e e2be 4ebe
000001e0: 8247 0abe e124 8abe b4aa 9a3d 9740 4f3d
000001f0: 5fb2 e5bc be79 58bd 8353 483e 13ca 9abd
00000200: 1f16 123e a16a 4f3e 3ca6 94bd 1e75 b53b
00000210: d69f 4fbe 9e3c 323e e969 843d b722 ebbc
00000220: f0fb 76bd 75f6 04be f8ff 3f3e 3ff6 45be
00000230: d2fa 003e 3961 203e bcda 253d e20d 73be
00000240: d66d 223e ea59 983d f2d3 0ebd acbf ddbd
00000250: 090d 01bd 593b 84bd 918c 3d3e c35c 0bbe
00000260: 5d74 2c3e 0fd7 77bd acb7 603d ede9 7cbc
00000270: 875c f2bd 76b3 9f3a c952 8a3d 6593 8c3e
00000280: 1b06 67be f395 16be bb90 883d 6f2e 97bd
00000290: ed0d 0c3d 532b 383e 0f8b cc3c 819d e63b
000002a0: 6aad 41be 9ca5 403e 9d03 b2bd fdc2 083e
000002b0: 9023 a8bd 2327 fd3d acb6 5cbe 45a0 43be
000002c0: eb85 27be 28d5 c8bd 3b6e 8abc 6f36 41be
000002d0: f786 463e 5a3e 7fbe b60d 1c3e 7242 433d
000002e0: 957d 673e 5124 91be 4326 b0be d8c4 173e
000002f0: f05d 3dbe 3fb1 ddbc ce74 ff3d d3e4 b1bc
00000300: 0c2b f83d ca6f 59be f768 66be ecda 4a3e
00000310: 0cf8 84be 5d56 b93d 756b eb3c bab7 2e3e
00000320: aeb1 6c3e 94e3 e1bd 53b9 82bd 569f 69bd
00000330: 585d 00be ef3d e0bd 2488 673e 9306 71be
00000340: ead2 2ebe c960 f7bd 3ba0 32bd a207 e6bd
00000350: c444 10bb d345 143d f68e 21be 269f a73d
00000360: 4b68 613e 3f4d c9bd fb49 36bd 7e7b 633e
00000370: 797e c1bb f81b dcbd f683 2c3d c2ea c8bd
00000380: 3f5b 59bd ea38 4c3e 4d86 12be 3639 273d
00000390: 2eaf e63d 6190 8fbe c4ed cbbd 2632 443e
000003a0: 3d3d 183e e58d 8dbe b277 21bd 46f0 e0bc
000003b0: fd64 983b b47b c83e 1975 babd 000c 63be
000003c0: d368 323e 4517 43be 7370 17be 4a3b ae3d
000003d0: 7a2d 143d 4a28 d5bd 6c60 0abe 4bfa e13c
000003e0: 2df2 163e a10f 8ebd e20e 993d 17f7 9c3e
000003f0: b965 883c 42bd 6dbe ad94 9bbe 8bc1 bcbd

linear_stack.0.bias f4 [16]
0.1827972 -0.11096205 0.1073067 0.19392118 0.21303208 -0.20585833 0.18996674 -0.19776534
0.048906125 0.0015123738 -0.025826592 -0.12332669 0.114422135 0.08439358 0.098780416 0.26937798
00000000: 302f 3b3e 1240 e3bd 9dc3 db3d 4693 463e
00000010: 1525 5a3e 87cc 52be a486 423e ff82 4abe
00000020: ca51 483d d83a c63a 4a92 d3bc b492 fcbd
00000030: 2756 ea3d 8bd6 ac3d 634d ca3d e9eb 893e

linear_stack.3.weight f4 [8, 16]
0.11601816 0.40241337 -0.03798089 0.035832785 9.2524344e-05 -0.13462375 -0.09727908 0.03508295
-0.016253375 -0.26542804 -0.17738311 -0.08315839 -0.27734646 0.18764949 0.37575382 -0.24866334
0.107044004 -0.015946241 -0.23728397 0.06807537 -0.26427972 -0.19937977 0.11125523 -0.1804728
0.04351277 -0.25509205 0.27103457 0.11235882 0.04629028 0.12495551 -0.23582204 -0.03722238
0.13536774 -0.020116372 0.02347087 -0.042996302 -0.26779142 0.041562885 -0.18758437 -0.1833545
0.027129438 0.20418602 0.028820328 -0.2911725 0.10146337 -0.14800592 -0.10175936 0.21148075
0.2867067 -0.11636957 0.122042485 0.09386479 -0.030101882 0.19447246 -0.15483089 -0.058234427
-0.11343093 0.15557374 -0.15236582 -0.10765625 0.028226662 0.043347638 -0.058015797 -0.2112377
0.09978434 -0.035686024 -0.15237854 -0.27629527 0.12870985 -0.14183992 0.26493144 -0.0077592134
-0.022648606 -0.16499737 -0.056720223 -0.18098275 -0.20688175 0.01156549 0.013350617 -0.07509233
-0.17644922 0.27110067 -0.17304847 -0.085453145 0.14105698 0.15738899 0.11919811 0.28541198
0.038032416 0.06489777 0.10423678 0.04547756 0.07964838 -0.1697107 -0.095364325 -0.27943784
-0.052636337 0.19941993 -0.032519624 -0.16779888 -0.17837265 -0.074386425 -0.09449399 0.07848613
-0.025220182 -0.04729395 -0.15479065 0.024202663 -0.09405512 -0.08050214 0.18705256 -0.03134372
-0.05218027 0.1386751 -0.041374948 0.1507343 -0.056108184 0.045899976 0.15019272 -0.06385226
0.12882444 0.13906367 0.05737154 0.27399644 0.092576094 0.07149112 0.14086889 -0.15543847
00000000: ee9a ed3d 2009 ce3e da91 1bbd 66c5 123d
00000010: a109 c238 cfda 09be 413a c7bd 24b3 0f3d
00000020: cc25 85bc 2fe6 87be eba3 35be f24e aabd
00000030: 5b00 8ebe 3027 403e ce62 c03e 9aa1 7ebe
00000040: e339 db3d b1a1 82bc 92fa 72be 196b 8b3d
00000050: ac4f 87be 362a 4cbe c8d9 e33d ddcd 38be
00000060: 723a 323d 6d9b 82be 0bc5 8a3e 621c e63d
00000070: e09a 3d3d ade8 ff3d 557b 71be 7f76 18bd
00000080: d79d 0a3e 17cb a4bc fb45 c03c e41c 30bd
00000090: f51b 89be d83d 2a3d 1e16 40be 48c1 3bbe
000000a0: 8e3e de3c 2416 513e 9c18 ec3c 9014 95be
000000b0: 07cc cf3d dd8e 17be 3667 d0bd 698e 583e
000000c0: 38cb 923e 2b53 eebd 69f1 f93d 2f3c c03d
000000d0: 3998 f6bc ca23 473e fd8b 1ebe 3987 6ebd
000000e0: 7a4e e8bd b94e 1f3e c905 1cbe e17a dcbd
000000f0: 9a3b e73c 4b8d 313d f9a1 6dbd b24e 58be
00000100: bb5b cc3d 822b 12bd 1f09 1cbe 9376 8dbe
00000110: 84cc 033e 7c3e 11be 18a5 873e 0041 febb
00000120: 9289 b9bc 12f5 28be 7753 68bd 8b53 39be
00000130: cfd8 53be 2e7d 3d3c 8cbc 5a3c 02ca 99bd
00000140: 1baf 34be b5cd 8a3e 9e33 31be 0f02 afbd
00000150: 3e71 103e 942a 213e 241e f43d 8521 923e
00000160: e1c7 1b3d 1fe9 843d 187a d53d ae46 3a3d
00000170: b11e a33d a4c8 2dbe 5f4e c3bd 7a12 8fbe
00000180: 3399 57bd bd34 4c3e 4c33 05bd 78d3 2bbe
00000190: 52a7 36be e957 98bd 1186 c1bd 56bd a03d
000001a0: 8e9a cebc 4db7 41bd 7181 1ebe aa44 c63c
000001b0: f99f c0bd 4ede a4bd b58a 3f3e 4662 00bd
000001c0: fbba 55bd d800 0e3e c778 29bd 185a 1a3e
000001d0: b2d1 65bd 9d01 3c3d 1fcc 193e f9c4 82bd
000001e0: 8eea 033e b566 0e3e 6cfe 6a3d 4349 8c3e
000001f0: 8998 bd3d f069 923d ef3f 103e 432b 1fbe

linear_stack.3.bias f4 [8]
0.24620472 -0.16130643 0.16911975 -0.039217595 -0.06292092 0.20920037 0.13173537 0.21693106
00000000: 171d 7c3e 832d 25be ba2d 2d3e a1a2 20bd
00000010: afdc 80bd 9f38 563e a3e5 063e 2d23 5e3e

linear_stack.6.weight f4 [2, 8]
0.2581697 0.17041941 -0.27012098 -0.35355964 -0.27767017 0.29338762 0.32246712 0.31244564
-0.03516054 0.21510993 -0.1699132 -0.14575294 0.20192082 0.024496455 -0.11411723 0.24832016
00000000: d22e 843e 6d82 2e3e 4c4d 8abe c505 b5be
00000010: c92a 8ebe e736 963e 691a a53e e0f8 9f3e
00000020: 8004 10bd c745 5c3e bafd 2dbe 4240 15be
00000030: 55c4 4e3e caac c83c 4bb6 e9bd a447 7e3e

linear_stack.6.bias f4 [2]
-0.06960646 0.025890406
00000000: d58d 8ebd 1e18 d43c
